Jackie's Adaptor/MNIST.pth (torch, 181447 bytes, 10 tensors)

weight f4 [6, 1, 5, 5]
000000 20 2b d4 bd 02 b7 dc 3d 80 74 13 bc dc 84 73 3d
       -0.10359788 0.107770935 -0.008999944 0.059452876
000010 d0 e1 ef 3c 39 62 26 3e b0 d7 b3 bc 61 c4 36 3e
       0.02928248 0.16248406 -0.021953434 0.1784835
000020 16 c2 ce 3d c5 d3 47 be 6d e2 00 3e 0d ad 9e bd
       0.10095613 -0.19514377 0.12586375 -0.077478506
000030 6b 09 49 3e d0 87 c8 bd b0 50 20 3c c4 17 4e 3d
       0.19632499 -0.09791529 0.009784862 0.050315633
000040 80 71 e7 bd 75 b6 15 3e 9a 74 9c bd 27 6b 04 3e
       -0.11300945 0.14620383 -0.076394275 0.129315
000050 7f 87 30 3e 80 ab b8 bd ec 64 06 3d b0 9b 8c 3c
       0.17239188 -0.09017086 0.03281109 0.017164081
000060 f8 43 04 3d 66 e5 a5 3d 31 7c 26 3e f4 bf 27 3d
       0.032291383 0.08100395 0.16258313 0.040954545
000070 48 06 27 bd 7d 1e 03 be 05 9d 05 3e a0 63 33 3c
       -0.040777475 -0.12804599 0.1304818 0.010949045
000080 60 91 bf 3b 00 e3 68 3a f1 8c 09 3e 24 1b 5c 3d
       0.0058461875 0.00088839233 0.13432671 0.05373682
000090 66 e6 93 3d 80 d1 81 bc 12 a9 fd 3d b0 72 de bc
       0.072216794 -0.015846968 0.12385763 -0.027154297
0000a0 9a 04 0b be aa ed e4 3d 69 06 2a 3e 2e cf b3 3d
       -0.13575974 0.11178143 0.16604008 0.08779751
0000b0 89 93 13 3e 96 a5 a1 3d a1 c3 3d 3e 30 27 49 be
       0.14411749 0.07892911 0.18531658 -0.19643855
0000c0 6a 90 35 be b3 78 13 3e 67 b2 3c be 28 19 c6 3c
       -0.17730871 0.14401512 -0.1842743 0.024181917
0000d0 7e 5e b6 3d 1e 61 a4 3d b2 2a ca 3d 74 bf 0b bd
       0.08904742 0.08026336 0.09871425 -0.03411813
0000e0 d3 a1 cd bd 19 d4 30 3e 0c 36 7e bd d2 bd 88 3d
       -0.10040631 0.17268409 -0.062063262 0.0667683
0000f0 af 2b 28 3e 20 fa 25 bc dd d5 39 3e 00 41 fc 3c
       0.16422914 -0.010130435 0.18147989 0.030792713
000100 08 6a 1a bd ea dd 0a be 2d 0c 02 3e e0 c6 cb bd
       -0.037698776 -0.13561216 0.12699957 -0.09950042
000110 62 c0 e8 3d b0 29 2d be 6c 0b 50 bd c3 0b 34 3e
       0.11364819 -0.16910434 -0.050792143 0.17582612
000120 2e 59 88 3d f9 63 3c 3e e0 53 4a 3d 74 66 39 3d
       0.06657635 0.18397512 0.049396396 0.045263723
000130 00 69 e9 3c 90 a3 09 be b2 9e d9 3d 96 37 09 be
       0.02849245 -0.134413 0.10625972 -0.1340011
000140 4d 39 d2 bd 26 03 82 3d 18 ab f5 3c 34 02 04 be
       -0.102648355 0.06348257 0.02998881 -0.12891465
000150 c7 05 d3 bd c0 67 90 3b 4a fb b7 bd f0 8c e5 bc
       -0.10303836 0.004406899 -0.089834765 -0.028021306
000160 d5 07 0e be d4 7e 09 bd 1c a5 93 bd 88 57 47 be
       -0.13870175 -0.03356822 -0.072092265 -0.19466984
000170 93 20 34 be f4 52 40 bd ec 59 8d bd 53 9c db bd
       -0.17590551 -0.04695411 -0.06901917 -0.10723176
000180 70 05 8a bd 60 93 56 bd c0 9c 90 bb 4d 96 9e bd
       -0.06739318 -0.05238664 -0.0044132173 -0.07743511
000190 e6 aa 22 be 72 5a 4a be 65 42 18 3e 83 82 37 be
       -0.15885505 -0.19761065 0.14869078 -0.1792088
0001a0 80 94 11 bc b1 9c 49 3e fa 1a 1c be f0 36 95 bd
       -0.008885503 0.1968868 -0.15244666 -0.07285869
0001b0 5f 42 42 3e 51 25 4c 3e 98 7d 2e bd d7 70 ef bd
       0.18970631 0.1993611 -0.042600244 -0.11691444
0001c0 72 df c3 3d 92 60 02 be 60 a3 ea bb 14 d8 93 bd
       0.09564103 -0.12732151 -0.007160589 -0.07218948
0001d0 f6 fd de 3d 40 87 23 3d b9 0b 0b 3e 64 8d 75 3d
       0.10888283 0.039923906 0.1357869 0.059949294
0001e0 98 49 00 be a0 c6 39 bc 7e 70 07 be bd 72 a0 bd
       -0.12528074 -0.01133886 -0.13226506 -0.078343846
0001f0 28 7e 04 3d 96 32 a8 3d a6 05 f8 3d 00 04 88 bb
       0.032346874 0.082127735 0.12110452 -0.0041508675
000200 c2 c3 92 3d 79 42 0e 3e a9 0f 49 3e d2 65 e7 3d
       0.07166244 0.13892545 0.1963488 0.112987176
000210 50 16 a8 bc a5 9b 05 3e 50 73 0e bc 7b c9 29 be
       -0.020518452 0.13047655 -0.008694485 -0.16580765
000220 00 d6 d1 39 ca e2 ce bd 80 41 a6 bc 9a 5f 34 be
       0.0004002303 -0.1010185 -0.020294905 -0.17614594
000230 8a 4d 9d bd 5b 18 47 3e 80 7a bb ba 29 f8 34 3e
       -0.07680805 0.19442885 -0.0014303476 0.1767279
000240 68 3e 49 be 12 c6 86 3d 20 10 8d bd 90 68 33 be
       -0.19652712 0.06580748 -0.06887841 -0.17520356
000250 a4 bf 59 3d d2 66 98 3d
       0.05316128 0.074414864

bias f4 [6]
000000 99 14 39 3e 92 35 b9 3d f7 03 9a bd 52 9c 81 3d
       0.18074264 0.09043421 -0.075202875 0.06328644
000010 6e 44 cc 3d 42 d7 eb 3d
       0.099739894 0.115156665

weight f4 [16, 6, 5, 5]
000000 9f 19 93 bc 36 b2 b8 3c 59 c0 02 bd 5c b7 88 3c
       -0.017956553 0.022545915 -0.03192172 0.016688995
000010 9d 85 5b 3c ba 89 82 3c 1f b1 54 bd 8e 33 9c bd
       0.013398555 0.015934814 -0.05192673 -0.07627021
000020 e7 51 7e bb a2 b5 ac bb d7 5c ef 3c 11 f9 aa bd
       -0.0038806142 -0.0052706758 0.029219074 -0.08348287
000030 93 40 25 bd 48 9e 9d 3d 99 7c 16 bc 75 22 b3 3c
       -0.040344786 0.076962054 -0.00918498 0.021867016
000040 7e c2 2a bd 48 e1 96 bc 29 5c 1b 3d b0 6c b5 bc
       -0.04168939 -0.01841797 0.037929688 -0.022146553
000050 ca c4 68 3d d8 6c 76 bd cc 1a 69 3c ce 03 42 bd
       0.056828298 -0.060162395 0.01422758 -0.04736691
000060 6d c5 3a bc e8 14 ee bc 2a b0 45 bd c1 6e e3 3c
       -0.011399609 -0.029062703 -0.048263706 0.027762773
000070 90 78 13 bc bd ab 79 3d 0f e8 4e ba fe 34 9e bc
       -0.009000912 0.060954798 -0.0007892856 -0.019312378
000080 4e df 90 3d d0 5e 8f bd 9e 49 14 3a ae e1 81 bc
       0.07073842 -0.07000506 0.0005656722 -0.015854683
000090 48 f6 06 3d 9f 00 8d bd 8c ed 24 3d 9e 45 28 bd
       0.032949716 -0.06884884 0.040265605 -0.041082017
0000a0 19 15 8f 3d bf 3f d8 bb 2c c6 96 3d 2d 43 7d bc
       0.06986446 -0.006599396 0.07362017 -0.0154579105
0000b0 69 e4 64 bc bb 5c 00 bd c4 fc 62 3d ba 9c 87 bd
       -0.013970473 -0.031338435 0.055416837 -0.0662169
0000c0 64 43 32 3d 36 f4 3a bd 44 11 8e 3d 28 8a 23 3d
       0.0435213 -0.045643054 0.06936887 0.039926678
0000d0 98 53 9c 3d 18 05 76 bd 20 e1 3b bd 6a 32 be bc
       0.07633132 -0.06006345 -0.045868993 -0.023217399
0000e0 ba 34 f3 bc 39 dd 05 3d ce a6 b2 ba b4 6d 58 bd
       -0.029688228 0.032681677 -0.0013630034 -0.052838996
0000f0 39 62 5b 3d 2f 02 21 3d 64 a7 dc bc 7a 48 c1 3c
       0.05356047 0.039308723 -0.026935287 0.02359413
000100 da 2a 6c 3d eb 2f c5 3c 27 31 a6 bd 04 62 7f bb
       0.057658054 0.0240707 -0.08114844 -0.0038968334
000110 ac ce a7 bb a9 aa 3f bd 17 d5 80 3d f3 f9 a3 bd
       -0.0051210728 -0.046793614 0.06290644 -0.080066584
000120 b6 2c 19 bd 97 72 96 3b 9d 57 3f bd 6d 6a 9d bd
       -0.037396155 0.004591297 -0.046714414 -0.07686315
000130 4d 59 82 3d 23 79 9e 3d 5e 84 22 3d 7e 7d 58 bd
       0.06364689 0.07737949 0.039677016 -0.052854054
000140 27 1a 63 3d 81 9b 3f bd 36 48 e8 3b 65 c9 9c bd
       0.055444863 -0.04677916 0.0070886863 -0.076556005
000150 11 13 5a bc 38 2a 33 bd d7 3b 19 bd 1b 3d bb bc
       -0.01331021 -0.043741435 -0.037410583 -0.022856286
000160 7a 26 91 bd de 9b 39 bd 2b fc 64 bb 8b bc 53 3d
       -0.07087417 -0.045314662 -0.0034940343 0.05169348
000170 46 29 10 3d 1f 7b 1a 3d 21 38 62 bb 99 d5 e8 3c
       0.03519561 0.037715074 -0.0034518319 0.028422164
000180 ce 2a 8f bd 7f 58 fe bc 01 6d b5 bc 73 ac bd 3b
       -0.06990586 -0.031048058 -0.022146704 0.00578838
000190 6f b7 92 bb b4 4b 6d 3d 3b 4a 82 3d 3a c6 8a bc
       -0.0044774334 0.057933524 0.063618146 -0.016940225
0001a0 69 ee 78 3d 8f ba 28 3b 08 fb 00 3d b8 87 a2 bd
       0.06077424 0.0025745963 0.031489402 -0.079360425
0001b0 e1 b0 66 3d fb 70 50 bd c4 0f c4 3c 9a 47 9f bd
       0.05632103 -0.050888997 0.023933299 -0.07777329
0001c0 14 25 72 bb e1 c0 a7 ba d7 fc 88 bd 24 72 04 3d
       -0.003694837 -0.0012798571 -0.066888504 0.032335415
0001d0 6e 7f 54 bd c2 45 4a bd 68 01 06 3c c0 9a cc 38
       -0.05187934 -0.049382932 0.008179046 9.7563025e-05
0001e0 c8 d0 77 3d fa ca 31 bd 51 aa 45 bc 7c d3 a3 3d
       0.060501844 -0.043406464 -0.012064532 0.07999322
0001f0 2f 03 08 bd d6 72 33 bd 8a ab 18 bb 0e 2d 23 3d
       -0.03320616 -0.043810688 -0.0023295605 0.03983789
000200 b8 ec 37 bd 07 93 42 bc 2e 61 3e 3d 40 01 a7 3b
       -0.044903487 -0.011875874 0.046479397 0.0050965846
000210 28 1e a0 3c 92 1e 16 3d 22 e3 70 bd 70 e8 2c bd
       0.01954563 0.036650248 -0.05881036 -0.042213857
000220 a1 8c 45 bc b7 0a 9c bc 5d e1 9c 3d ee 18 2a bd
       -0.012057454 -0.019048078 0.07660172 -0.04152768
000230 55 cd 16 38 52 76 4c bd e9 0b 57 3c de d7 c6 bc
       3.5954017e-05 -0.049917527 0.013125398 -0.024272855
000240 70 a0 82 3d 87 7a 13 bc 33 8c b2 bc 08 aa 5c bd
       0.06378257 -0.009001381 -0.021795368 -0.053873092
000250 fa 83 79 bd b8 7d 33 3b 52 be 9e bb a1 c4 4e 3d
       -0.06091688 0.0027388167 -0.0048444653 0.05048049
000260 ac c7 9d 3d 4a 17 99 3d 2f 09 ca 3d 21 05 1e 3e
       0.077041 0.07475145 0.09865033 0.15431644
000270 04 1f 22 3e 3c cd f1 3d cd 1b dd 3d cb 29 a1 3e
       0.15832144 0.118067235 0.10796318 0.31477198
000280 06 27 c4 3d b1 f2 ff 3d f2 7d d0 3d 93 4f ef 3d
       0.09577756 0.124974616 0.10180272 0.116850995
000290 2a 5a be bc 2c 9c a2 be 0e 73 92 be b2 d0 68 be
       -0.023236353 -0.31759775 -0.28603405 -0.22735861
0002a0 16 8b 47 be 68 93 8a be 23 4f c0 be fb e5 0e be
       -0.19486651 -0.27065587 -0.37560377 -0.13954918
0002b0 f0 58 2e be 7a 1f 87 bd c3 35 f7 3d a8 14 6a bd
       -0.17026114 -0.065978006 0.12070801 -0.057148606
0002c0 4c 04 14 be 14 ff 09 bb f1 21 fa 3d 20 4b 40 3e
       -0.14454764 -0.002105658 0.12213505 0.18778658
0002d0 ff 8f 2f 3e a2 1c 85 3e 0c a7 4b 3e 81 26 1a 3e
       0.17144774 0.25998408 0.19887942 0.1505375
0002e0 52 88 cf 3d f8 f4 3e 3e 64 6c 1b 3e 20 28 84 bd
       0.10133423 0.18648136 0.15178066 -0.06452966
0002f0 1e b8 4c be 3e 2c 80 bd 37 4b e6 be 0c dc b7 be
       -0.1999211 -0.062584385 -0.4497926 -0.3591007
000300 ec 2e a8 be 16 a8 50 be 00 d0 e4 bd 29 c0 91 be
       -0.328483 -0.2037662 -0.11172485 -0.2846692
000310 3b af fe bc 83 59 20 be 1c 27 f4 bd a8 d3 d4 bd
       -0.031089416 -0.15659146 -0.11921522 -0.10391933
000320 a8 d1 fb 3d 4f 9e b1 bc a3 25 03 3e 76 97 2f 3d
       0.12295848 -0.021681933 0.12807326 0.042869054
000330 5f c9 3d 3e 59 7e c0 3d 96 2b 36 3e 2f 7a ee 3d
       0.18533848 0.09399099 0.17790064 0.116443984
000340 15 55 04 3d 2d 45 12 3e 23 06 0f be 98 b2 3b bd
       0.032307703 0.14284201 -0.13967185 -0.045824617
000350 d4 a5 27 3d 75 a0 b0 bd a6 26 2e be 20 0c a1 be
       0.04092963 -0.08624355 -0.1700693 -0.31454563
000360 80 f3 bb be 52 79 bd be db f7 96 be 87 81 8f bd
       -0.36709213 -0.37006623 -0.29485974 -0.07007127
000370 a2 b3 06 be 2e a7 20 bd 63 f5 a3 3d 82 f7 1d 3e
       -0.13154462 -0.039221935 0.08005788 0.15426448
000380 39 6d 30 3e ff 6e 45 3c c6 8b 36 3d 58 88 80 3c
       0.17229165 0.012050389 0.044566892 0.015690014
000390 38 67 4c 3d 67 14 a2 bc ad 05 df bc 6e c0 83 bb
       0.049903125 -0.01978512 -0.027224386 -0.004020742
0003a0 70 af c3 3c 20 2c de 3d 5b 38 08 bd 58 3f 0a 3d
       0.023887366 0.1084826 -0.03325687 0.033751816
0003b0 97 16 9d 3d a4 6e 80 bc 11 cd 33 3d 82 50 07 3e
       0.07670324 -0.015677758 0.04389674 0.13214305
0003c0 b2 94 e8 bb c2 5b 05 3e 25 5c 81 3d c7 2a 66 3d
       -0.007097804 0.13023284 0.06316403 0.05619314
0003d0 93 94 1a 3e 7a 40 b6 3d 78 8f fe bc 9c d9 a4 3d
       0.15095739 0.08899017 -0.03107427 0.08049318
0003e0 56 56 bf 3c e2 ad fc 3c 04 6e 77 3c bf 38 c9 3a
       0.023356598 0.030844633 0.015101913 0.0015351995
0003f0 08 68 ce bd 54 8f ab bc 7b ee 72 bd f8 76 03 3e
       -0.10078436 -0.020942368 -0.059309464 0.12838352

bias f4 [16]
000000 00 8d b3 bd 79 d5 82 3e dd 6b 3b be bd 60 9d bd
       -0.08767128 0.25553492 -0.18302865 -0.07684467
000010 3b be d8 bd ea 3a 4e be f8 a6 58 bd b4 93 e6 3c
       -0.105831586 -0.20139661 -0.05289361 0.028146602
000020 23 c7 84 be 30 3f 63 be 22 9e fc bc c0 e8 dd bd
       -0.2593318 -0.22192073 -0.030837122 -0.10835409
000030 59 38 84 bc b1 7c 29 bc 4b c4 20 be 38 44 13 3d
       -0.01614015 -0.01034467 -0.1569988 0.03595373

weight f4 [128, 256]
000000 dc 66 0d 3c 1a ce 49 3d 85 0e de 3c 0b d9 42 3d
       0.008630481 0.04926882 0.027106533 0.04757027
000010 d2 ee 66 3d e8 92 20 3d 32 80 20 3c 96 55 f7 bb
       0.0563801 0.0392026 0.009796189 -0.0075480444
000020 e4 a2 19 bd bf 1a a1 3d 88 a9 a5 3d 15 6a a7 3c
       -0.03750886 0.078664295 0.08088976 0.020436326
000030 53 9c 1d 3d 63 63 23 3c 75 76 a1 bc bd 96 7a 3d
       0.03847916 0.009972426 -0.019709805 0.06117891
000040 34 8f 11 3c 4f a9 5b bd 44 fe 5f 3d 59 0f 68 3c
       0.00888424 -0.053628262 0.054685846 0.014163815
000050 e5 70 9e 3d ee c3 91 bd f8 ef 22 bd 5e 3a 26 3c
       0.07736377 -0.07117449 -0.039779633 0.010145752
000060 d8 5b 49 bd 99 36 23 3d 4d 78 78 3d d8 d4 2f bc
       -0.049159855 0.03984699 0.060661603 -0.010731898
000070 7b 58 41 3d 88 84 aa 3c ea e8 96 bd f6 2e 96 3c
       0.047203522 0.020815149 -0.073686436 0.01833294
000080 20 b8 a9 bc 19 b8 b7 bc aa e4 34 3d 70 69 2b 3d
       -0.02071768 -0.022426652 0.044163384 0.0418486
000090 74 9f cb 3a 0a ad d2 bc 29 58 11 3d 15 64 94 3c
       0.0015535192 -0.025717277 0.035484467 0.01811413
0000a0 d7 68 98 3c ed 09 9a 3c 49 a8 3a 3d 58 2e 98 3c
       0.018604679 0.018803561 0.045570645 0.018576786
0000b0 4a 78 31 bd 28 be 82 3d 04 80 a5 bb 3d 9b 8d 3c
       -0.043327607 0.06383926 -0.005050661 0.017285937
0000c0 ac 8c 87 bc 8a 89 21 3c ca 70 92 bd 93 89 98 bd
       -0.01654657 0.009859452 -0.07150419 -0.07448115
0000d0 79 7d 98 bd 8f 99 09 3d bd 48 40 3d 7b 9b 1c 3c
       -0.07445807 0.03359371 0.04694437 0.009558554
0000e0 60 eb 66 3d 9b d4 01 3d bf 22 28 bd be a5 2c bd
       0.056376815 0.031696897 -0.04104876 -0.04215025
0000f0 1e 45 75 bd 66 e7 c4 bb b5 b1 2b 3d b8 43 4b bd
       -0.05988037 -0.00600903 0.04191752 -0.04962513
000100 82 5a 8a bd 7c 61 91 bc 36 e6 42 3d 39 4b 4e bc
       -0.06755544 -0.01774668 0.047582828 -0.012591177
000110 4f 44 6e bd d7 93 84 bd 57 95 07 3d bd 0f 1e 3d
       -0.058170613 -0.06473511 0.033101406 0.038589228
000120 cd da ab 3c 3e 29 03 bd 28 3a 60 3c 34 44 25 3d
       0.020978356 -0.032021753 0.0136857405 0.040348247
000130 d4 b6 14 bd ff 87 29 bc ec 86 e4 3c 5b cb 7f 3d
       -0.03630717 -0.010347365 0.027896367 0.062449794
000140 9c 75 a8 bd 6b 8e f7 bc 34 f3 ea bc 76 35 f0 3b
       -0.08225557 -0.030219277 -0.028680421 0.007330592
000150 fe f7 0d bd 80 06 f9 bc b0 98 d9 bc 17 86 81 3d
       -0.034660332 -0.030398607 -0.026562065 0.06324404
000160 2e 61 74 3d 41 a9 b8 bc f0 c4 6b 3b 6a ef be bd
       0.05966299 -0.022541644 0.0035975538 -0.09323008
000170 02 51 ed 3c d5 e0 ab b8 b8 05 16 bd 25 3e f0 bc
       0.028969292 -8.1957936e-05 -0.036626548 -0.029326508
000180 e3 b5 8e bd 92 14 bc 3c 1d 30 a1 3c 7f 0d 24 bd
       -0.06968286 0.022959027 0.019676263 -0.040051933
000190 02 67 19 3d 37 3a d1 3c a7 f1 2c bd 7d bf 8a 3d
       0.03745175 0.025540454 -0.042222645 0.06774805
0001a0 48 1c 3e 3d 5f 46 85 3c aa b2 d8 bc c4 3f be bb
       0.04641369 0.016268907 -0.026452381 -0.0058059413
0001b0 06 7a 2e 3d 76 7a 04 bd 4c f4 c1 bc 43 e3 13 bd
       0.04259684 -0.03234335 -0.02367606 -0.036105406
0001c0 4f 27 91 3c fb fd 2c 3d d9 9e 71 3d 86 3e 26 3d
       0.01771894 0.042234402 0.05898938 0.04058697
0001d0 2c 86 73 bd 62 78 02 bc 23 81 3a 3c 35 65 28 3d
       -0.05945413 -0.007963272 0.011383328 0.041112144
0001e0 5b e9 d1 bc 30 ae 77 3d 3a a3 13 bd 34 dc f7 bc
       -0.025623968 0.060468853 -0.036044337 -0.030256368
0001f0 e1 ce b3 bc bc a2 1d bc b3 65 4b bb 7d ac 9d bc
       -0.021949233 -0.009621318 -0.003103596 -0.019247288
000200 9e 76 27 3d 83 7f af 3c 36 4f ac bc f4 5b 96 3d
       0.040884607 0.021423107 -0.021033864 0.073417574
000210 68 54 1d 3d 46 f3 49 ba 2d 8d 91 bd 46 27 d4 bc
       0.038410574 -0.0007703792 -0.07107005 -0.025897633
000220 4b 51 36 bd 33 b5 13 bd 4a b4 1f 3d c0 5b 72 3d
       -0.04451112 -0.036061477 0.038990296 0.05916953
000230 40 23 b4 3b 08 ee 65 3d de 66 a4 3b 99 5a 24 bd
       0.005497366 0.056135207 0.0050171455 -0.040125463
000240 4e 9a 04 3c db ee 87 bb 2b 79 56 bd 32 6a 3c bd
       0.00809343 -0.004148347 -0.05236165 -0.045999713
000250 ea 4c 3e 3d 42 bb 51 3d 0d dc 7b bd 9f 58 64 bd
       0.04646007 0.051203974 -0.061489154 -0.05574858
000260 82 a1 d7 bb d6 ae 14 bd 98 da 9b bc 00 1f 39 3b
       -0.0065805325 -0.03629955 -0.019025132 0.0028247237
000270 98 f2 33 bc a1 4b 37 3d f8 1a 29 3d 80 bc 87 bd
       -0.010983132 0.04474986 0.041285485 -0.066277504
000280 6f 25 9c 39 85 c4 77 3d 1c 72 10 bc 90 d6 2a 3b
       0.0002978253 0.06049015 -0.008816268 0.002606783
000290 f2 9d 3b bd c5 b1 50 bc ac 6b 7c 3d 13 44 49 3d
       -0.045804925 -0.012737696 0.06162612 0.049137186
0002a0 b7 d1 09 3c 1c 9d 0b 3d c5 e5 15 bd 67 1d da bb
       0.008411816 0.034085378 -0.03659608 -0.006656337
0002b0 2a eb 74 3d 77 95 00 3d 1d aa c1 3c c4 68 15 3d
       0.059794582 0.03139254 0.023640687 0.036476865
0002c0 93 3d 21 3d 7a e5 96 3c 60 4f dd 3c 9f 52 1f bc
       0.039365362 0.01841997 0.027015388 -0.009724288
0002d0 26 14 d0 bc e1 26 4d bd 52 5b 7f 3d e6 37 33 3d
       -0.025400233 -0.050085906 0.06234295 0.04375448
0002e0 9e 7e 6b bc 20 3f c7 3c bf 05 da 39 eb 9d 1b bd
       -0.01437345 0.024322093 0.0004158448 -0.0379924
0002f0 d7 1c 9a bd e6 43 38 bd 1a dd a4 bb c7 ed 18 bd
       -0.07525032 -0.044986628 -0.00503124 -0.037336137
000300 2b ff 83 3d df 91 cd 3c d5 08 02 3c 70 e8 57 bd
       0.06445154 0.02509397 0.007936676 -0.052711904
000310 8a 39 c3 3c 68 8e 0b 3d a5 16 39 bd d7 d7 13 3c
       0.023831148 0.034071356 -0.04518761 0.009023628
000320 5b 23 4a 3c 62 03 26 bd cd e3 69 3d 7d 76 86 bd
       0.012337531 -0.04053057 0.057102013 -0.065655686
000330 bd 02 85 bd 88 1f 5c 3c 52 04 ff bb 81 7b 4d 3d
       -0.06494663 0.013435252 -0.0077824974 0.05016661
000340 0c 55 71 bc e9 76 88 bd b2 0c 81 3c 20 43 51 bc
       -0.014729749 -0.06663305 0.015753124 -0.0127723515
000350 f5 9a 13 3d 5b d9 2f 3d de 51 bb bc e3 1b 84 bc
       0.03603645 0.042931896 -0.022866186 -0.016126579
000360 07 c8 4b 3d 7c 1b 97 3c 93 be a2 bc 3b 98 44 3d
       0.049751308 0.018445723 -0.019866263 0.04799674
000370 27 5a 12 3d ca d3 f0 3c 13 ad eb bc 98 d4 52 bd
       0.035730507 0.029397864 -0.028769052 -0.051472276
000380 96 81 9d bd 7b 42 a3 bd 94 6d dc 3c 10 93 08 3d
       -0.07690732 -0.079716645 0.02690772 0.033343375
000390 f2 7d 2b 3c 45 f0 fb 3b 3e 92 c1 3a 01 7d 9f 3d
       0.010467039 0.0076885545 0.0014768315 0.077875145
0003a0 f8 4f 4e bc d0 5c 17 bd 55 2c a0 bc 95 b2 69 bd
       -0.012592308 -0.036953747 -0.01955239 -0.057055075
0003b0 50 77 99 bc 90 6c 4e 3d cb 59 08 39 28 08 61 3c
       -0.01873365 0.050396502 0.00013003421 0.013734855
0003c0 cf 12 06 bd 0b b4 01 3d 38 2d 18 bd d1 eb 55 3d
       -0.03273278 0.031665843 -0.0371525 0.052226845
0003d0 77 16 9f bc b6 e2 33 bd a6 0f 35 bc ad a3 7a 3a
       -0.019419892 -0.04391738 -0.011051094 0.0009561133
0003e0 0a 64 cd 3c 49 76 64 bc 5f 1a e0 bb b7 53 e5 3b
       0.025072116 -0.013944217 -0.006839081 0.006998505
0003f0 42 52 61 bd cb 70 79 bc d1 bb 04 3d a8 4a f3 bc
       -0.055010088 -0.015224646 0.03240568 -0.029698685

bias f4 [128]
000000 f9 2d 17 bc ac 56 ab 3d 02 28 fa bc 8c a6 b6 3d
       -0.009227269 0.08366141 -0.030536655 0.08918485
000010 39 dd fb 3c 67 6d 3b bd 86 a8 80 bd fe d5 8f bd
       0.030745136 -0.04575863 -0.06282143 -0.07023238
000020 ee ba 56 bd 9e b7 45 bd aa d3 e1 3d e0 ff 30 3e
       -0.052424364 -0.048270814 0.110267 0.17285109
000030 cb 8c e6 3c e9 64 82 3d 03 62 74 3c f4 5d 8a bc
       0.028143307 0.06366903 0.014915946 -0.016890503
000040 54 3e cc 3b a7 f5 5b bd 50 14 bb 3b be 65 4c bd
       0.006233016 -0.05370107 0.0057092085 -0.049901716
000050 21 0c 09 bd 53 fd ba bd ee f0 af 3a e3 50 c9 3d
       -0.033458833 -0.09130349 0.0013423243 0.09829881
000060 b6 c6 f7 3d 29 f0 0a 3d dc e3 2e bd fb f0 de bc
       0.12098448 0.03392044 -0.042697772 -0.027214518
000070 10 a1 7b bd d9 62 b7 3d 09 99 ae bc 82 9a a3 bc
       -0.061432898 0.089544006 -0.021313207 -0.019971136
000080 b1 b0 8e bd c2 ed 1c 3d 8a bc 46 3e 04 ba 31 bd
       -0.06967295 0.03831268 0.1940786 -0.04339029
000090 0b 06 60 3d 20 06 2d 3e 37 8e cf bd db 56 91 bd
       0.054693263 0.16896868 -0.10134547 -0.070966445
0000a0 de 0b 42 bd d5 88 25 3d 14 6a 3a 3d 82 51 cb 3c
       -0.0473746 0.040413696 0.04551132 0.02481914
0000b0 96 82 30 bc f6 88 45 bd fa b5 4c 3c 78 72 76 3c
       -0.010773322 -0.04822632 0.0124945585 0.01504194
0000c0 1d 3c c7 bc c5 98 e9 3d eb 1f 99 3d 00 ef 48 bd
       -0.024320656 0.114060916 0.07476791 -0.049056053
0000d0 79 9e 57 3d 1f 39 59 3b f9 8c cd bd bb 13 48 bd
       0.052641366 0.003314562 -0.10036654 -0.04884694
0000e0 f1 2d 4d 3e 73 d8 35 3e a0 fd 65 3d b2 2c 37 3d
       0.20037057 0.1775835 0.05615008 0.04472036
0000f0 ab 64 45 3e e6 8b 29 3d 14 92 74 bd 5b 1c a2 3d
       0.19276683 0.041393183 -0.059709623 0.079155646
000100 30 fb 9e bc 59 77 f8 3d 50 6d 14 3d c4 28 0c be
       -0.019406885 0.12132139 0.03623706 -0.13687426
000110 d0 d7 ed bc 69 48 d5 bc 78 13 63 bc 93 48 cd 3d
       -0.029033571 -0.026035504 -0.013859622 0.10023608
000120 d9 4b 02 bb 09 ce 74 bd 8a ad 16 bd a9 d1 67 bd
       -0.0019881635 -0.059766803 -0.036786593 -0.056596432
000130 bf 73 3d bd cd ac b0 3d 10 3c 31 3d 8d 18 56 3a
       -0.046252962 0.08626709 0.04327017 0.00081671105
000140 7c 9e 35 3b 02 26 63 3c ae e0 87 bc 21 fe 97 bc
       0.0027712872 0.013864042 -0.016586628 -0.018553795
000150 a2 b5 83 3d 71 e0 3e 3d ab fa a4 3d 35 11 ae 3a
       0.06431128 0.046600763 0.080556236 0.0013280275
000160 9b 95 fe 3d fe 62 0b 3d d6 be 91 3d 45 ed 1d 3d
       0.12430879 0.034029953 0.07116477 0.038556356
000170 cc 5d e8 ba d0 3e 36 3e c0 e8 a9 3d 30 1b 64 bd
       -0.0017728149 0.17797399 0.08296347 -0.05568999
000180 15 81 03 bc d0 c0 b4 bd 83 6a e4 bb 5b 4c ba 3d
       -0.008026381 -0.088258386 -0.006970705 0.09096595
000190 c5 54 6b 3d 6c 86 a7 bc 8c 77 59 3d 82 6b 2a 3e
       0.05745389 -0.02044984 0.053092524 0.16642573
0001a0 aa 0a 74 bd 27 6e 36 bd 75 7c 98 3c 4f d7 61 3d
       -0.059580483 -0.044538643 0.018614033 0.055136975
0001b0 df 13 8b bd e6 57 ac 3b 50 61 bf 3d 82 67 6d 3a
       -0.067908995 0.0052595017 0.09344733 0.00090562564
0001c0 d9 88 3c bd 9b 90 e2 bc 24 60 18 bd 1a a7 75 3c
       -0.046028946 -0.027656844 -0.03720106 0.014993453
0001d0 89 8c 72 bb e7 fa 68 bb b0 4f 8e 3d 9b a5 07 3e
       -0.0037010035 -0.003554994 0.06948793 0.13246767
0001e0 f4 13 b3 3d e7 58 14 3d 48 29 a3 bc ea ca 31 3d
       0.0874404 0.036217596 -0.019917145 0.043406405
0001f0 2e 72 a2 bc 14 d4 b9 bd 2a 82 16 3c 98 8f c7 3c
       -0.019829836 -0.09073654 0.009186307 0.024360463

weight f4 [64, 128]
000000 2b 05 88 3d 92 2c bb bd a4 c6 1a be 3d 95 5e be
       0.06641611 -0.091393605 -0.15114838 -0.21736617
000010 d7 a2 b2 3d ea e8 39 bd ce 49 c0 3c 01 0b 15 3d
       0.087224655 -0.04538814 0.023472693 0.036387447
000020 eb 2e 82 bd 42 31 6a 3d 86 bb 7a 3e eb 0e c5 3d
       -0.06356605 0.057175882 0.24485597 0.09621986
000030 2e fe ba bd 16 05 9b 3e 79 0d 00 bd ff 19 11 bc
       -0.09130512 0.30277318 -0.03126285 -0.008856296
000040 69 ed e3 3d 35 5d 2a bd ed 41 a2 3d ee d2 00 bd
       0.11129267 -0.041592795 0.079227306 -0.03145116
000050 bc af 91 3d e1 ea fb 3b 0e ae bd bd 46 75 01 bc
       0.07113597 0.007687912 -0.09261714 -0.007901495
000060 38 af 1d bd 67 2f e7 3d 78 53 f0 bd ec b9 06 bb
       -0.03849718 0.11288338 -0.117346704 -0.0020557595
000070 6f 25 a3 bc 70 22 b0 be 5c b8 f1 b6 b4 82 aa bd
       -0.01991531 -0.34401274 -7.203822e-06 -0.08325711
000080 ea 38 4d 3c ab 83 5b 3d 39 85 ad bd 9b 75 39 3e
       0.012525776 0.053592365 -0.08472676 0.18111269
000090 25 f3 00 3c a6 13 2c bd e1 16 6b 3d d3 df d2 bc
       0.00787047 -0.042010926 0.057394866 -0.025741493
0000a0 bf e5 91 3d 1b 13 9e 3c 2b 3e b8 bd e3 77 d0 3d
       0.07123899 0.01929622 -0.089962326 0.101791166
0000b0 ad 2c e1 3c 1c 8d ba 3c 45 7e 99 bd b0 95 87 bd
       0.027487123 0.022772364 -0.07494787 -0.066203475
0000c0 c3 d0 a4 3d 34 53 52 bc 67 a3 28 be 35 56 73 bd
       0.08047631 -0.01283722 -0.16468583 -0.059408385
0000d0 03 ad 16 3e 43 a7 91 bd f5 1f e8 bd ae 1c b6 3d
       0.14714436 -0.07111981 -0.1133422 0.08892189
0000e0 ed d7 33 3e 90 5b 4b 3e b2 d5 4b 3e c4 c9 08 be
       0.17562838 0.19859147 0.19905737 -0.13358217
0000f0 fe be 40 3e 17 8a 83 3c f3 f8 90 3d cd e1 6d 3e
       0.18822858 0.016057057 0.07078733 0.23230667
000100 68 90 24 bd 98 cf ec 3d 4b 4d e5 3c 91 30 1f be
       -0.04017678 0.11563033 0.027990958 -0.1554587
000110 21 b5 97 3d d5 09 c3 3d e6 c4 35 3d b0 38 3d 3e
       0.074075945 0.0952336 0.04437723 0.18478656
000120 65 6f 70 3e 1c b4 6a 3d e8 77 18 bd 0e a5 97 3c
       0.23479994 0.057300672 -0.037223727 0.018511321
000130 e5 2d 07 3d 87 a6 b6 3d 5a d1 ac bd 3c 7a 7d bd
       0.033002753 0.08918481 -0.08438368 -0.06188415
000140 6b 86 b3 3d c1 8b 27 3d 88 b6 f7 bc a8 0c cd 3c
       0.087658726 0.040904764 -0.030238405 0.025030449
000150 ff 2f ec 3d ce c9 59 be a5 b6 21 3d 8d cb 81 3d
       0.11532592 -0.21268389 0.039480824 0.06337652
000160 62 81 8d bc 96 8f 25 3e 36 83 36 3e ec 08 c5 3d
       -0.017273609 0.16168055 0.1782349 0.09620842
000170 22 05 65 3e 2b 3a b5 3d 85 d5 f7 bd 76 18 1c 3e
       0.2236524 0.08848985 -0.121012725 0.15243706
000180 bc 10 9b bb 87 b8 eb 3c 91 0a a9 bd 9c cc aa 3c
       -0.0047322195 0.028774513 -0.082539685 0.020849518
000190 0d d9 28 3e 13 5b a8 3d e6 8f 5e bc 83 be 85 3d
       0.16489048 0.08220496 -0.013584113 0.06530478
0001a0 80 fa 2e bc 38 cb 1d bd 6c 3e 77 be e1 97 59 be
       -0.010679841 -0.038523883 -0.24144906 -0.21249343
0001b0 be 24 20 3d 2d e1 b7 3d 8c db 47 be 70 2e b2 3c
       0.03909754 0.08978496 -0.19517344 0.021750659
0001c0 4a 4a d8 3c 9b 8a 9d 3c 72 f5 91 bc ac a0 94 bb
       0.026402611 0.019231131 -0.017817233 -0.004535755
0001d0 17 30 ce bb 96 d3 83 bc ea 29 f2 bc e2 61 e9 3d
       -0.006292354 -0.016092103 -0.029561002 0.11395623
0001e0 0c c9 93 bd 47 6a b2 ba 96 0f c3 bd 0c ba 37 3e
       -0.07216081 -0.0013611995 -0.09524457 0.17942065
0001f0 8a 1f 24 bc 52 db e4 bd ed 15 eb 3d f2 30 97 bd
       -0.010017285 -0.111746445 0.114787914 -0.073823825
000200 20 6e 83 3d f1 a1 b2 bd e0 02 da bc dd f1 f3 bb
       0.06417489 -0.08722294 -0.026612699 -0.007444604
000210 32 a3 1a 3d bc be 9b bd 0f 96 ab 3d e4 7d 23 3d
       0.03775329 -0.07604739 0.08378231 0.03991498
000220 1d 6c 0c bd 06 e8 39 3d 3e 38 50 3d 41 ae 69 3d
       -0.034282792 0.04538729 0.050834887 0.057050947
000230 b6 93 9b 3d 73 fa cb 3c 81 40 eb bc 8e c6 ec 3c
       0.07596533 0.024899697 -0.028717281 0.028903272
000240 24 29 b4 bb a1 70 6b bd 16 a2 b3 bd d0 48 96 bd
       -0.0054980684 -0.05748046 -0.0877115 -0.07338107
000250 41 7c 62 3d 83 71 83 bd 08 95 15 bd d3 17 af 3d
       0.05529428 -0.06418135 -0.03651908 0.08549466
000260 48 42 9c bc 21 24 8b 3d 20 19 0f bc db c8 9e 3c
       -0.019074574 0.067940004 -0.008734018 0.019382885
000270 1a 89 98 bd 64 fc 62 bd 5e 31 1e 3d c2 5c 3d bd
       -0.07448025 -0.05541648 0.0386213 -0.04623104
000280 80 49 91 3c 03 38 8c bd ba 82 a4 3c f4 47 80 3c
       0.017735243 -0.06846621 0.020081867 0.01565931
000290 0a 34 5f bd 74 49 8a bd 98 91 82 bd e0 c7 57 bd
       -0.054492988 -0.06752291 -0.06375426 -0.05268085
0002a0 50 48 62 3c 2e 11 ca 3a 1b 26 99 b9 42 62 0b 3d
       0.013811186 0.0015416497 -0.00029210825 0.034029253
0002b0 41 ce 8b 3c 16 fb 34 3d 02 7f fd bc 58 c0 cd bc
       0.017066123 0.044184767 -0.030944351 -0.02511613
0002c0 5e 31 5d bd 8d 2a 11 3d f5 e6 47 bd 80 6e 80 bd
       -0.05400216 0.03544097 -0.048804242 -0.06271076
0002d0 f9 f7 20 bd 75 c1 80 bd 41 4b 60 3d 7c 39 80 3c
       -0.039298985 -0.06286899 0.054759268 0.01565241
0002e0 08 57 bc bc 0b f5 a5 bd e2 cc 86 bc e9 22 9a bd
       -0.022990718 -0.08103379 -0.016455118 -0.0752619
0002f0 92 cb 15 3d da b9 b8 3c f7 9f 85 bd 40 55 41 3d
       0.036571093 0.022549558 -0.065246515 0.04720044
000300 5a a0 3a 3d 17 a9 a9 bd 2c 1d a2 bc f6 00 89 bd
       0.04556308 -0.082842045 -0.0197893 -0.066896364
000310 f8 5b 82 bd 14 f9 c0 3c 79 c8 8d 3c 6f ad 98 bd
       -0.06365198 0.02355627 0.017307507 -0.07454955
000320 07 78 a5 3b 9e 81 76 3d 28 56 9e bd 6d b4 7c bd
       0.0050497088 0.060182206 -0.07731277 -0.061695505
000330 4e 19 08 bd b1 29 73 3d 12 89 b5 3b b7 19 30 3d
       -0.033227257 0.059365932 0.0055400217 0.042993274
000340 ac 9b a4 bc 16 3a a1 bd 26 fd 08 3d b8 f8 30 3c
       -0.020093761 -0.07872407 0.033444546 0.010801487
000350 08 0c 94 bd 9d 8a 8c 3d a9 b0 b3 3d 56 b3 51 bd
       -0.07228857 0.06862376 0.087739296 -0.05119642
000360 ca 07 f6 3c 78 23 87 bd 57 83 06 bd fd 3e 8e 3d
       0.030033011 -0.06598562 -0.0328401 0.06945608
000370 d0 4d 00 bc 54 f4 02 bd 28 99 22 3c ba 44 2e bd
       -0.007831052 -0.03197129 0.009924211 -0.04254601
000380 a3 94 74 3d fa 70 91 bd 0d 9c 91 3d 19 52 53 3d
       0.059712064 -0.07101627 0.071098424 0.051591966
000390 57 a3 a2 bd a0 ce 73 3c de 8f 4e 3d a5 fd 37 bd
       -0.07941311 0.014880806 0.05043017 -0.04491963
0003a0 2a 26 46 3d 14 9d a1 3d 88 f8 c1 3c ad 83 79 3a
       0.04837624 0.078912884 0.02367808 0.00095182174
0003b0 8d 54 6e bd 5c 1f 9f bd 16 77 a4 bd 3b 01 80 3d
       -0.058186103 -0.07769653 -0.08030526 0.06250235
0003c0 27 0b 64 bd e8 46 e9 bc 7b f6 14 bd 74 3c 80 3c
       -0.0556747 -0.028476194 -0.036367875 0.015653826
0003d0 86 c9 0d bd ea 79 60 3d 5d df 87 3d be b3 df bc
       -0.034616016 0.054803766 0.066344 -0.027307387
0003e0 76 20 40 bd 42 62 88 bd 65 11 9b bd 37 21 06 bd
       -0.046905957 -0.06659366 -0.07571677 -0.03274652
0003f0 20 5e 9e 3c 22 d2 26 bd 0a 19 af bd fa 31 04 bd
       0.019331992 -0.040727742 -0.08549698 -0.032274224

bias f4 [64]
000000 cd 84 58 3e 75 0d 9f bd 41 6a db ba a3 34 09 3e
       0.2114441 -0.077662386 -0.001674004 0.13398986
000010 41 53 2f 3e ab 42 77 3c 82 d3 c4 3d d9 ca 0c bb
       0.17121603 0.0150915785 0.096106544 -0.0021483211
000020 c2 df 72 3e 85 85 28 3d 92 c5 90 bd c1 2a 43 3d
       0.2371817 0.04114296 -0.070689335 0.047648195
000030 13 45 94 3c ac 8e 9f bb 40 a6 21 bc b6 f6 98 3d
       0.018099343 -0.0048693027 -0.009866297 0.074689314
000040 5b 13 87 3e 34 e9 36 3e f0 79 4c bd 06 5c e9 bc
       0.26381955 0.17862397 -0.049920976 -0.028486263
000050 e9 b6 eb 3c 41 9f 12 3d 9a ef 05 bd ba 91 85 bd
       0.028773742 0.035796408 -0.032699205 -0.06521936
000060 49 e5 81 3c 1e 52 82 bc c9 4f 39 3b 37 aa b2 3d
       0.015856402 -0.015908297 0.0028276315 0.08723872
000070 d0 42 b9 3d 7b 4c 64 3e 95 fe af 3d 83 3a 95 bd
       0.090459466 0.222948 0.085934795 -0.07286551
000080 40 8e 04 3b 7c 48 31 3e b5 34 dc 3d f8 f3 9b bd
       0.002022639 0.17312807 0.107522406 -0.07614893
000090 ac 80 24 bd 5c ea a9 bd e2 cd f6 3d 77 40 49 3e
       -0.040161774 -0.08296654 0.12050988 0.19653498
0000a0 10 6e 28 3e 77 e6 30 be 64 52 f0 bd 42 63 39 bc
       0.16448236 -0.17275415 -0.11734465 -0.011315169
0000b0 2a db cf bc 57 d2 dd 3d 3d a5 67 bd d9 f0 4a 3b
       -0.02537306 0.10831135 -0.056554068 0.003096631
0000c0 1b 63 8c bd 52 62 26 3e 07 ff 0d be c3 5f 8e bd
       -0.0685484 0.16248444 -0.13866816 -0.06951859
0000d0 da 54 80 bd b7 ea 53 3c 65 11 20 3d d2 69 e0 bc
       -0.06266184 0.012934378 0.03907909 -0.027394209
0000e0 75 75 30 bd 64 c7 3e 3e f2 02 96 bc db e5 7e bd
       -0.043080766 0.18630749 -0.018311951 -0.062230926
0000f0 79 25 e3 bd fc 39 94 3e 86 30 b0 bb d6 74 1c 3e
       -0.11091132 0.2895049 -0.005376878 0.15278944

weight f4 [10, 64]
000000 29 3d 2b be 4d c1 8c bd 50 c4 3a bd 09 d2 86 be
       -0.1672255 -0.06872807 -0.045597374 -0.2633212
000010 e5 9e 7c 3e 7a 3d e2 be 94 bd 94 be 6d 9a 2d be
       0.24669988 -0.44187528 -0.29050887 -0.1695344
000020 b9 ff e2 be 16 d8 df 3e ae ae 0e 3d 5c 81 e3 3d
       -0.44335726 0.43719548 0.034834556 0.11108658
000030 3a 28 e3 3d 3b 1a a3 3d ae 79 68 3d 1c 3f 68 be
       0.11091657 0.079639874 0.056756668 -0.22680324
000040 dc 3e dc be 58 bc 78 be cc 56 2c be 37 bf eb 3e
       -0.43016708 -0.24290597 -0.16829985 0.46044323
000050 99 1d 72 bd ee d2 56 3c d4 38 1b bd 8d a1 41 bd
       -0.059110258 0.013111813 -0.037895992 -0.047273207
000060 8b 81 cd 3d ca 13 f1 bd 56 b4 91 3d fc 6a 13 3f
       0.10034474 -0.117713526 0.071144745 0.5758512
000070 c4 db 87 be fe 07 e3 be 83 ed e7 3d 75 eb 85 3d
       -0.26534855 -0.44342035 0.11324599 0.065390505
000080 90 b6 27 bc cb a2 d3 bd d4 aa 30 bf a6 66 0e bd
       -0.010236397 -0.10333785 -0.69010663 -0.034765862
000090 86 0c b0 3a d2 06 17 bd b7 8e 21 3e ce 18 df 3d
       0.0013431467 -0.03687174 0.15777098 0.10893403
0000a0 6c b3 72 3f 5e 3f 83 be cb d2 90 3e e9 76 03 bf
       0.94805026 -0.25634283 0.28285822 -0.5135332
0000b0 b5 01 ea bd c3 da 23 ba 8f af ad bd f9 ad e6 bd
       -0.11426107 -0.00062505546 -0.08480751 -0.112636514
0000c0 ef 8c 3b bd 52 9f 30 3e 6d 16 b9 3d 70 d0 8b bd
       -0.0457887 0.17248276 0.090374805 -0.06826866
0000d0 0c 73 19 3d 5a 08 8c be 70 3e 82 be ed 47 e2 bd
       0.037463233 -0.27350122 -0.2543826 -0.11048875
0000e0 1b 03 8e 3d 9c a8 0a bf 1d 5b 8f bd 54 2a 0b bd
       0.06934186 -0.5416353 -0.069998 -0.033975914
0000f0 ad d9 dc bd 12 4d 94 bd 6a 9a 42 3e 85 32 15 be
       -0.10783706 -0.072412625 0.19004217 -0.14570053
000100 c5 4d 33 3f 06 ff e4 bc cb ea 0e 3d 78 d6 e4 3c
       0.7004054 -0.027953636 0.034891885 0.027934298
000110 44 05 30 bf b3 1a 8d be 19 1b 4f be 8e 00 dd 3d
       -0.68758035 -0.27559432 -0.2022518 0.107911214
000120 aa f7 71 3e 08 6b c9 be 42 a6 89 bc cc fb 90 be
       0.23629633 -0.3933947 -0.01680291 -0.28317106
000130 1e c3 f2 3d 7f 0e e0 bd ae 7d bb 3c 91 13 54 3e
       0.11853622 -0.10940265 0.022887077 0.20710589
000140 58 9a d5 3e e7 62 39 3e 61 a4 a2 3e 01 97 15 3e
       0.41719317 0.18104135 0.31766036 0.14608385
000150 42 be d1 bd ba a4 c2 3d 24 91 e7 be 0c b9 0b bd
       -0.10241367 0.09504075 -0.4522792 -0.03411202
000160 d3 1d 0c 3d e6 1b 4e bd 95 a6 49 bd 87 c6 93 3e
       0.03420813 -0.050319575 -0.04923113 0.28862402
000170 aa 76 a4 bd 9f 61 43 3f ed 12 f2 be a8 09 b5 bc
       -0.08030446 0.7632083 -0.47280064 -0.022099331
000180 7c 2a 9f 3d 4f 00 8c 3e 15 11 e3 3e 95 a9 67 3d
       0.07771775 0.27343985 0.4434897 0.05655821
000190 ef 27 e6 be b6 fa 90 bd c6 e6 91 be 7e 8a 83 3d
       -0.44952342 -0.07079069 -0.2849638 0.064229
0001a0 e9 9b 85 bf ce d9 ac ba 87 aa ad be 64 09 83 3e
       -1.0438205 -0.001318747 -0.33919165 0.25593102
0001b0 75 d6 35 3d 86 e9 78 3c 32 3a 95 3d a0 3e f9 bd
       0.044393975 0.015192395 0.072864905 -0.12170148
0001c0 61 ca af bd c4 3a 87 bd e7 18 46 be 46 4b 8c bd
       -0.085835226 -0.066030055 -0.19345437 -0.06850295
0001d0 50 a0 53 3d ef 15 7a bd e2 8f a3 be 38 f3 33 3d
       0.051666558 -0.061056074 -0.3194571 0.043933123
0001e0 06 66 f3 3c 83 4c ba 3e 7c 16 d5 3d 2f 1f 8e 3d
       0.029711735 0.363865 0.10404679 0.069395415
0001f0 81 db 9d be 78 13 25 3f 62 7d 70 bd c5 85 87 3e
       -0.3083153 0.6448283 -0.058713324 0.26469246
000200 7b 67 2c 3e c6 36 a6 3d 67 1c e8 bd ed c7 d6 3e
       0.1683635 0.08115916 -0.11333542 0.41949406
000210 48 36 8a bd 7f b3 e6 be 4b 4f 41 bf 28 02 49 be
       -0.067486346 -0.4505882 -0.75511616 -0.19629729
000220 be aa e8 bd ca 65 de be b4 84 2c 3e 5b 22 38 3f
       -0.113606915 -0.43437034 0.16847497 0.7192742
000230 1e 60 b4 3d a4 13 27 3c 55 93 9a bd 44 6d 75 3d
       0.088073954 0.010197554 -0.075476326 0.059918657
000240 2e bb 28 bf 97 a4 87 3e 06 e7 9c 3e 76 e4 b9 3d
       -0.65910614 0.2649276 0.30645007 0.090767786
000250 ab 61 c0 3c 32 20 2d be b4 86 e0 3e 58 a1 ed 3c
       0.023484072 -0.16906813 0.4385277 0.029007599
000260 ce 35 2d 3e 7c d8 c1 bd 6a d5 fd bd e9 9b b0 3e
       0.16915056 -0.09465119 -0.12394221 0.3449395
000270 a5 e5 73 3e e5 ed 1b 3d dd 5c 83 be ff 14 1b 3e
       0.23818071 0.03806867 -0.25656787 0.15144728
000280 14 cb 07 3d 59 a3 10 bd e3 2d ea 3d 58 68 26 be
       0.033152655 -0.03531203 0.114345334 -0.16250741
000290 df 19 71 3d d8 51 e0 3d ae 79 94 bd 30 4b 02 3e
       0.058862563 0.109531105 -0.07249771 0.12723994
0002a0 97 17 62 be 28 b4 37 3d 3a 56 18 3f 42 39 91 3e
       -0.22079311 0.044849545 0.5950657 0.28363997
0002b0 ee aa d8 bc 56 cf 5a 3d 78 b3 1f be f8 9a dc 3d
       -0.026448693 0.053420387 -0.15595806 0.107717454
0002c0 43 0e ac 3b 42 48 50 3e 65 73 aa 3e b5 b1 87 3d
       0.0052507236 0.20340064 0.33291164 0.06625692
0002d0 cc 00 9c 3c cd 39 78 3e ab f2 8d be be 18 41 3e
       0.019043349 0.24240799 -0.27724203 0.18857095
0002e0 91 fe 34 3d 7d 85 ce 3e 77 54 bf 3d bb 9a ee bc
       0.044188086 0.40336218 0.09342282 -0.029126516
0002f0 95 1a 30 bc 04 be b5 3d 34 ec 60 3e b9 20 40 be
       -0.010748525 0.08874133 0.21965104 -0.18762483
000300 9e 04 25 bf cc 41 ef bd 4f f0 c5 3d 99 e2 56 3e
       -0.6446017 -0.11682472 0.09664976 0.20984878
000310 e9 03 6a be 60 bd 93 be a8 3c 33 be 0f f9 99 be
       -0.22853054 -0.2885542 -0.17503607 -0.3007283
000320 b5 05 d9 3e 31 ee c7 bd 06 f4 bd 3d d9 85 03 3f
       0.42387167 -0.09762228 0.092750594 0.5137611
000330 52 1f d6 3c 90 82 04 3d ff 87 64 3d bf 19 fb 3e
       0.026137982 0.032351077 0.05579376 0.4904308
000340 90 e0 d6 3e db 92 2c bf 95 53 d7 3c 7d 24 c3 bc
       0.41968203 -0.67411584 0.026284972 -0.02382111
000350 a1 9a 86 bd d9 cf ae 3e f5 97 1c bb 7a bc 8f 3d
       -0.06572462 0.3414295 -0.0023894284 0.07018371
000360 70 d7 72 be 75 b9 26 bb 81 94 db bc 7f bf ba be
       -0.23714995 -0.002544013 -0.02680421 -0.36474225
000370 65 cd 22 bd f7 f7 5d bd 42 04 95 3e 31 a6 12 be
       -0.03974666 -0.054191556 0.2910481 -0.1432121
000380 20 7a 2d 3d d8 a9 8b 3d 17 aa 7f be d0 65 b9 bd
       0.042352796 0.068195045 -0.24967228 -0.09052622
000390 3b 42 34 3e 60 b1 6f 3d 1e 4e 11 3e ea cb ee be
       0.1760339 0.058518767 0.14189956 -0.4663995
0003a0 74 1e 9f be 5f e8 1c 3f ef d5 9c 3e e9 87 14 3f
       -0.3107792 0.6129207 0.30631968 0.5801988
0003b0 11 b6 0e 3d f3 e5 cc bc ad 78 b2 3c 53 d8 88 3d
       0.0348416 -0.025011992 0.021786058 0.066818856
0003c0 7b 76 ba 3d 6b f6 64 3e 6b ea 92 bd d6 dd 1c bc
       0.091046296 0.22359626 -0.07173618 -0.009574374
0003d0 2f f2 2c bc b3 3f 1e 3e 1e b1 b1 3d d4 48 08 be
       -0.010555788 0.15453987 0.086763605 -0.13309032
0003e0 44 44 b1 be bd 84 40 bd f1 92 31 be 56 8f 8e bd
       -0.34622395 -0.04700159 -0.1734121 -0.06960933
0003f0 f9 d9 3f 3f 61 1d 81 be 37 87 70 be ce fd 56 bd
       0.74941975 -0.25217727 -0.2348908 -0.05248814

bias f4 [10]
000000 af 61 12 3c 52 03 c9 3e 0f 96 2f be fd 75 1c bd
       0.008934422 0.39260346 -0.17147087 -0.03819846
000010 21 58 c4 bc cd 1c 8d 3e c2 e6 a8 bc 96 c3 0c 3e
       -0.023967804 0.27561036 -0.020617846 0.13746485
000020 f6 92 b1 be 88 ca 44 be
       -0.34682435 -0.19217885
