Adaptor_Test/MNIST_RETRAIN.pth (torch, 180231 bytes, 10 tensors)

conv1.weight f4 [6, 1, 5, 5]
0	0x3e03f1d0	0.12885213
1	0x3e314546	0.17311582
2	0x3d4d9418	0.05019006
3	0xbdbc4de4	-0.09194544
4	0xbb3a67e8	-0.002844328
5	0xbc220517	-0.009888909
6	0x3c80de01	0.01573086
7	0xbe21d23f	-0.15802859
8	0xbdd588c6	-0.10426478
9	0xbc3d934c	-0.011570763
10	0xbd677c4d	-0.056515027
11	0xbdeda4f0	-0.11603725
12	0x3d579fd4	0.05264266
13	0x3d04dc3c	0.032436594
14	0xbde35249	-0.11099679
15	0xbe4ce3d5	-0.20008786
16	0x3dab31b3	0.08359089
17	0xbe3a3120	-0.18182802
18	0x3c2d3a42	0.010572972
19	0xbce2d39b	-0.027688792
20	0xbde32ed7	-0.11092918
21	0x3d47f954	0.048821762
22	0xbe22f6f5	-0.15914519
23	0xbe20dbd8	-0.15708864
24	0xbe3d513a	-0.18488017
25	0x3daae9f6	0.08345406
26	0xbe2121c7	-0.15735541
27	0xbd15f5d0	-0.03661138
28	0xbe063fae	-0.1311023
29	0xbb9e66ac	-0.004834017
30	0xbe3d0dbe	-0.18462273
31	0xbe5dabc6	-0.21647558
32	0xbe00c5e0	-0.12575483
33	0x3d21a414	0.039463118
34	0xbdd82133	-0.10553207
35	0xbe01b754	-0.1266759
36	0x3e2e900c	0.17047137
37	0xbe2326d5	-0.15932782
38	0x3de89d6e	0.11358152
39	0x3e88edda	0.26743966
40	0x3ca70978	0.020390257
41	0xbd7fdfe6	-0.062469386
42	0x3e24f85a	0.16110364
43	0x3d95dee7	0.07317906
44	0x3db1d0fd	0.086824395
45	0x3e2d7d56	0.16942343
46	0xbcc1292a	-0.023579199
47	0x3e85e146	0.26148432
48	0xbd1775b6	-0.036977492
49	0x3e25733b	0.16157238
50	0x3ea38e20	0.3194437
51	0x3e94152b	0.289224
52	0x3dabc85d	0.08387826
53	0x3e7e46d2	0.24831703
54	0xbde8198b	-0.11332997
55	0x3e3698b0	0.17831683
56	0x3ee1be45	0.44090477
57	0x3ef4d735	0.4782044
58	0x3eaaf4ce	0.33389896
59	0xbd9af839	-0.07566876
60	0x3f12e4cd	0.5738037
61	0x3f328f99	0.6975036
62	0x3e99ca0c	0.30036962
63	0x3e47ba88	0.1950475
64	0x3cc1b0c0	0.023643851
65	0x3f32ab3d	0.6979254
66	0x3eea7711	0.45793965
67	0x3f04c055	0.51855975
68	0x3e05f516	0.13081774
69	0x3b7fffd0	0.0039062388
70	0x3edb6916	0.42853612
71	0x3f290af2	0.66032326
72	0x3f18deb6	0.5971483
73	0x3ecba492	0.39773995
74	0x3dda5672	0.106610194
75	0xbe268f09	-0.16265501
76	0x3ced8235	0.028992752
77	0xbe3edca5	-0.18638857
78	0xbe1dd1e6	-0.15412101
79	0xbe45a5ff	-0.19301604
80	0xbe4605d8	-0.19338167
81	0xbe43619e	-0.19080207
82	0xbd9fe56e	-0.07807432
83	0x3c3471ef	0.011013492
84	0xbe2d648b	-0.16932885
85	0x3d59b710	0.053153098
86	0x3d9b4a60	0.07582545
87	0xbe0ec600	-0.13942719
88	0x3d86ae1a	0.06576176
89	0xbbf527ad	-0.0074815364
90	0x3d02e56b	0.03195707
91	0x3df271ca	0.1183811
92	0x3e478ab7	0.1948651
93	0x3d8b8bcf	0.06813776
94	0xbcd81ef2	-0.026381943
95	0x3dab0bbd	0.08351848
96	0xbe1f9300	-0.1558342
97	0x3e09ac88	0.13444722
98	0xbde79a6a	-0.11308749
99	0x3d37e426	0.044895314
100	0x3e50fd52	0.20409134
101	0x3decdcca	0.1156555
102	0xbe08c174	-0.13355047
103	0xbe37dd49	-0.17955507
104	0xbe49c9ec	-0.19705933
105	0xbdc28962	-0.0949886
106	0x3908f293	0.00013060337
107	0xbe127e22	-0.14305928
108	0x3c5baa5d	0.013407317
109	0x3e69ab7b	0.22819321
110	0x3ce5fe24	0.028075285
111	0x3d683a90	0.056696475
112	0x3e603200	0.21894073
113	0x3e7c5785	0.24642761
114	0x3cb7b6a4	0.022425957
115	0x3e2e7327	0.17036115
116	0x3e84e92a	0.2595914
117	0xbd687113	-0.05674846
118	0x3de5255d	0.11188767
119	0x3e9b2d04	0.30307782
120	0x3e8ddceb	0.2770761
121	0x3cd14637	0.025546176
122	0xbd6000eb	-0.054688375
123	0xbcb1f4bc	-0.021723144
124	0xbcaddf19	-0.021224545
125	0xbe1a1b67	-0.15049516
126	0x3d6eeca6	0.058331154
127	0x3deaded4	0.11468282
128	0xbcc79200	-0.02436161
129	0x3adf69be	0.0017045063
130	0xbd368686	-0.044561885
131	0x3c62b5ad	0.01383726
132	0x3ca8a50a	0.02058651
133	0x3e62350c	0.22090548
134	0x3e87ee74	0.26549113
135	0x3cb9b0d8	0.022667333
136	0xbe0ec8c8	-0.1394378
137	0x3e241cce	0.16026613
138	0xbda47421	-0.08029962
139	0x3e948d49	0.29014042
140	0xbe460fc8	-0.19341958
141	0xbdfd3710	-0.12364018
142	0x3d832413	0.06403365
143	0x3e8b539a	0.2721222
144	0x3e91e3e5	0.28494182
145	0xbd2b9c0d	-0.04189687
146	0x3dac3443	0.08408406
147	0xbdbbff24	-0.091795236
148	0xbc389f99	-0.01126852
149	0x3e4a302a	0.19744936

conv1.bias f4 [6]
0	0x3d8b6634	0.06806603
1	0x3e6754c5	0.22590931
2	0x3e32d242	0.1746302
3	0xbe1100fb	-0.1416053
4	0x3e14c097	0.14526592
5	0x3e1a1af3	0.15049343

conv2.weight f4 [16, 6, 5, 5]
0	0xbd97b007	-0.074066214
1	0x3cea24f7	0.02858208
2	0xbcbdd6fb	-0.0231738
3	0x3d9edc70	0.07756889
4	0x3d96fe50	0.07372725
5	0x3d6492a2	0.055803902
6	0xbb5c9e67	-0.003366375
7	0xbcb37eb4	-0.021911003
8	0x3d531b5c	0.051539764
9	0xbd1adc7c	-0.037807927
10	0xbd535524	-0.05159487
11	0x3d8ae60f	0.067821614
12	0x3d9820b8	0.074281156
13	0x3d8b49cd	0.06801186
14	0x3cb228b5	0.021747926
15	0x3da12ae3	0.07869508
16	0xbd9b8e7b	-0.07595535
17	0x3d94345a	0.07236548
18	0x3d395597	0.04524764
19	0xbd9ea5eb	-0.0774649
20	0x3bfa1ab3	0.0076325773
21	0xbc16cc2d	-0.009203953
22	0x3c7f0e7d	0.015567419
23	0xbd57d2ed	-0.05269139
24	0xbd9b594d	-0.07585392
25	0x3c401cea	0.011725644
26	0xbccc4ea6	-0.024939846
27	0xbd757a23	-0.05993093
28	0x3d9ec347	0.0775209
29	0x3cba6338	0.02275239
30	0x3ce1fba3	0.02758581
31	0xbda2fa81	-0.07957936
32	0x3cc283a7	0.023744417
33	0xbd800b1d	-0.0625212
34	0xbda66eff	-0.081266396
35	0xbd98c742	-0.074598804
36	0xbd771a10	-0.06032759
37	0x3ce6cc77	0.028173668
38	0xbd841932	-0.06450118
39	0x3d1157e6	0.035484217
40	0xbc305c7c	-0.0107642375
41	0xbd0b8864	-0.03406562
42	0xbcd324ce	-0.025774386
43	0xbd2ab797	-0.04167899
44	0x3d3e7214	0.046495512
45	0xbd9a8748	-0.07545334
46	0x3c74177a	0.014898175
47	0xbd388bbf	-0.045055147
48	0xbd67d1ad	-0.056596447
49	0xbc6e0f1a	-0.014529968
50	0xbd93a034	-0.07208291
51	0x3c32e492	0.010918753
52	0xbc01470e	-0.007890476
53	0xbc42f37f	-0.011898874
54	0x3c647fe2	0.013946505
55	0x3d45c9d7	0.048288193
56	0x3bebb1bf	0.00719282
57	0xbcc612a6	-0.024178814
58	0xbd795359	-0.060870502
59	0x3beda226	0.0072519956
60	0x3bb74605	0.005593064
61	0x3d64624d	0.05575781
62	0x3c7d47ed	0.015459043
63	0xbd90dd81	-0.070734985
64	0xbd19431e	-0.037417524
65	0xbd7d5a06	-0.06185343
66	0x3d143fe0	0.03619373
67	0x3bd5e28d	0.006527251
68	0xbd2f16fa	-0.04274652
69	0xbd111fb0	-0.03543061
70	0x3d5680df	0.052368995
71	0xbd7dc41d	-0.061954606
72	0xbd4390ff	-0.0477457
73	0xbd47bcc3	-0.048764
74	0xbc7811ba	-0.015140945
75	0xbce0ebfa	-0.027456272
76	0x3d810a14	0.063007504
77	0xbb9672bf	-0.0045913155
78	0x3d4ba4c4	0.04971768
79	0x3d013ae1	0.031550292
80	0x3d447325	0.047961373
81	0xbcb21445	-0.02173818
82	0xbd3c0035	-0.045898635
83	0xbd0db02a	-0.03459183
84	0x3da3f1f9	0.08005137
85	0x3d0320f5	0.032013852
86	0x3c097672	0.008390056
87	0x3d7d3b8b	0.061824363
88	0xbd3e5a22	-0.046472676
89	0xbd99f048	-0.07516533
90	0xbd80cb5f	-0.0628879
91	0x3da48013	0.08032241
92	0x3b8d254a	0.0043074237
93	0xba4d5bd5	-0.00078338134
94	0x3d063adb	0.032770973
95	0x3d8bf1d7	0.06833237
96	0xbd8453cf	-0.06461298
97	0xbc9f53ed	-0.019449199
98	0x3cd5aa07	0.026082052
99	0xbc182e28	-0.009288348
100	0xbc149206	-0.009068018
101	0x3d136df8	0.035993546
102	0xba131d69	-0.00056119874
103	0x3abf21f3	0.0014582261
104	0xbda541bb	-0.08069178
105	0xbd73412e	-0.059388332
106	0xbd8ae930	-0.06782758
107	0xbce4efd6	-0.027946394
108	0x3d710469	0.058842096
109	0x39574e2d	0.0002053312
110	0x3c1bdf32	0.009513663
111	0xbcc99ea6	-0.024611782
112	0xbd3ac0d3	-0.045594048
113	0x3b9b1523	0.0047327443
114	0x3d913a7c	0.07091233
115	0xbd99cef2	-0.07510175
116	0xbd618e15	-0.05506714
117	0x3b9f7ea2	0.0048673907
118	0x3cf2a8d4	0.02962152
119	0x3d152956	0.036416374
120	0xbd1a42cb	-0.037661355
121	0x3c36ff98	0.011169337
122	0x3bfefe07	0.0077817473
123	0xbc622b67	-0.013804293
124	0xbd2cde2f	-0.04220408
125	0x3bb291b4	0.005449498
126	0xbd1285c7	-0.03577211
127	0xbd9739ab	-0.07384046
128	0x3d47a9e8	0.04874602
129	0x3d911ac0	0.0708518
130	0xbcb4f6b6	-0.022090297
131	0xbd901b2c	-0.070364326
132	0xbc48ae35	-0.012248565
133	0xbda362ea	-0.07977851
134	0x39ba1154	0.00035489595
135	0xbcea0645	-0.028567443
136	0xbd32eb3d	-0.043681372
137	0xbc2abe9a	-0.0104214195
138	0x3b9976bd	0.004683344
139	0xbd017eec	-0.031615183
140	0xbd343609	-0.043996844
141	0xbd5be713	-0.053687166
142	0x3d33e18d	0.043916274
143	0xbd6c9b18	-0.057765096
144	0xbc9f9b90	-0.019483358
145	0xbd74f6fe	-0.059805863
146	0xbc28cee6	-0.010303235
147	0x3d490eb8	0.049086303
148	0xbb23c13d	-0.0024987005
149	0xbd352f44	-0.04423453
150	0xbb8a5f4e	-0.004222787
151	0x3c9fca09	0.019505518
152	0x3d8581f5	0.06518928
153	0x3b3ff3f2	0.002928969
154	0xbccead79	-0.025229203
155	0x3d313169	0.04326001
156	0x3b73d157	0.0037203634
157	0x3d4bb083	0.04972888
158	0x3c5145cf	0.012772991
159	0xbd0dead6	-0.034647785
160	0xbd905867	-0.070481114
161	0x3d20ea61	0.03928602
162	0x3c0aa886	0.008463031
163	0x3d2b7186	0.04185631
164	0x3a2610cd	0.0006334901
165	0x3d5e81c7	0.054322984
166	0x3cdfac0d	0.02730372
167	0xbd7103ab	-0.05884139
168	0x3d65d4bd	0.056111086
169	0x3d64f2c6	0.05589559
170	0x3cfc531a	0.030801345
171	0x3caee3ec	0.021348916
172	0xbc1fb0c2	-0.009746732
173	0x3d9a8e21	0.0754664
174	0xbd787e6a	-0.060667433
175	0xbd9d77c6	-0.076888606
176	0xbcd84b00	-0.02640295
177	0xbcfb0caf	-0.030645696
178	0x3cbe2951	0.02321306
179	0x3b795405	0.0038044464
180	0xbcd3da36	-0.025860887
181	0x3d619418	0.055072874
182	0x3d03438e	0.032046847
183	0x3d87a458	0.06623143
184	0x3cb249e5	0.021763751
185	0xba7facfa	-0.00097532535
186	0xbccdffc4	-0.025146373
187	0x3c9e01e6	0.019288015
188	0xbd852c00	-0.06502533
189	0xbc0d476d	-0.008622986
190	0xbd335b3f	-0.04378819
191	0x3d931ba7	0.07183009
192	0xbc1e864a	-0.009675572
193	0x3d77096d	0.060311724
194	0x3cb1408f	0.02163723
195	0xbc6ea5e6	-0.01456592
196	0xbcd74eeb	-0.026282748
197	0x3d9f7e5e	0.077877745
198	0xbd2e2c97	-0.042522993
199	0x3c8ffba4	0.017576046
200	0xbd86326b	-0.06552585
201	0xbe0414e2	-0.12898591
202	0xbdfd7637	-0.12376063
203	0x3b668c0d	0.0035178692
204	0x3da74e0f	0.08169185
205	0x3bc46fae	0.0059947586
206	0xbe050828	-0.12991393
207	0xbd965054	-0.0733954
208	0x3caa0eed	0.02075907
209	0xbc006214	-0.007835884
210	0x3d4239b0	0.047418296
211	0xbdc4cc31	-0.09609259
212	0xbca7ec20	-0.020498335
213	0x3e15acc8	0.14616692
214	0x3dde19a5	0.10844735
215	0xbd1caadd	-0.038248885
216	0xbcfa9afc	-0.03059148
217	0x3d143ba1	0.03618968
218	0x3d01b3b7	0.03166553
219	0x3dfa95a4	0.12235573
220	0xbd6a636c	-0.057223722
221	0x3d8a470b	0.067518316
222	0x3db1bef3	0.08678999
223	0x3e156030	0.14587474
224	0x3c6fd9e9	0.014639356
225	0xbd883e8d	-0.066525556
226	0xbbf7c7fa	-0.007561681
227	0xbc8a8555	-0.01690928
228	0xbd956369	-0.072943516
229	0xbd4a1c02	-0.049343117
230	0x3cd391f2	0.025826428
231	0x3cf114d3	0.029428875
232	0x3d9cd937	0.07658618
233	0x3d9b519c	0.07583925
234	0x3c6af733	0.014341163
235	0x3c8d8714	0.017276324
236	0x3bcb3804	0.006201746
237	0x3d5aa05d	0.05337559
238	0xbcb2f587	-0.021845592
239	0xbca9ef19	-0.020743893
240	0xbd35ae7b	-0.04435585
241	0x3d3a5893	0.045494627
242	0x3d332f56	0.043746315
243	0xbd7fcd9e	-0.06245195
244	0x3d8f0126	0.06982641
245	0x3d5da6bc	0.05411409
246	0xbceda734	-0.029010393
247	0x3d63a958	0.05558142
248	0xbcf2311f	-0.029564438
249	0xbc078a42	-0.008272709
250	0xbd166b88	-0.036723644
251	0xbda2c533	-0.07947769
252	0x3d934ee8	0.071927845
253	0xbd9026f1	-0.070386775
254	0x3d0a13f2	0.033710428
255	0x3c18a2ea	0.0093161855

conv2.bias f4 [16]
0	0x3d604a19	0.054758165
1	0xbd561188	-0.052262813
2	0x3cea7abd	0.02862298
3	0x3c95cb8f	0.01828554
4	0x3dc4fec3	0.096189044
5	0xbd1d17a5	-0.038352627
6	0x3df49fa0	0.119445086
7	0x3daab99d	0.08336184
8	0x3d496027	0.049163964
9	0x3bf864cd	0.0075803758
10	0xbc4543be	-0.012040077
11	0x3d595582	0.053060062
12	0x3d88aef0	0.06673992
13	0x3d86ef6a	0.06588633
14	0x3d935e19	0.07195682
15	0x3dbf28a5	0.09333924

fc1.weight f4 [128, 256]
0	0xbd63da6a	-0.055628218
1	0xbbebce3f	-0.0071962173
2	0x3c22f9a7	0.009947217
3	0x3cade733	0.021228408
4	0x3cd6f3f4	0.026239373
5	0x3d315c77	0.043301072
6	0x3be3f8c9	0.0069571477
7	0xbcad13fa	-0.02112769
8	0x3d3363b6	0.043796264
9	0xbc1c5cc1	-0.009543599
10	0xbd1b4fad	-0.03791778
11	0x3d2e179e	0.04250299
12	0xbcd4574c	-0.025920533
13	0xbbe49388	-0.006975595
14	0xbc9e638e	-0.01933458
15	0x3c043b44	0.008070771
16	0xbd2e6b27	-0.042582657
17	0xbc0a944e	-0.00845821
18	0x3ba316ed	0.004977098
19	0x3d1e04d5	0.038578827
20	0x3d71e200	0.05905342
21	0xbd03b04d	-0.032150555
22	0x3c4114ca	0.011784742
23	0xbc2b869c	-0.010469105
24	0xbc59b6e6	-0.013288235
25	0xbd120964	-0.035653487
26	0xbd2b9425	-0.04188933
27	0xbcbf61b2	-0.023362014
28	0xbd00c1b3	-0.031434726
29	0x3d719595	0.058980543
30	0x3d3ea236	0.046541415
31	0xbb3341e7	-0.0027352513
32	0xbcd28df2	-0.02570245
33	0xbd2d0c7a	-0.042248227
34	0xbd5788f0	-0.05262083
35	0xbd4f9361	-0.05067766
36	0x3d357b52	0.04430706
37	0xbd61162b	-0.05495278
38	0xbcc3882c	-0.023868643
39	0xbce5b97e	-0.028042551
40	0x3d67d3f6	0.056598626
41	0x3d17015a	0.036866523
42	0x3c836a6d	0.016041959
43	0xbd0f1ff9	-0.0349426
44	0x3d58b454	0.05290635
45	0xbc9b0d52	-0.01892725
46	0xbd76bc3b	-0.060238104
47	0x3d6db5e5	0.058034796
48	0x3c7d93c4	0.015477125
49	0x3bf145df	0.0073630656
50	0x3d1990a0	0.03749144
51	0xbd4ab9af	-0.049493488
52	0xbc51f736	-0.012815287
53	0x3c8aa169	0.01692267
54	0xbd4694a5	-0.048481602
55	0xbb2d704a	-0.0026464635
56	0xbc917e8e	-0.017760541
57	0x3c05cc1e	0.008166341
58	0xbd2e7dd2	-0.04260046
59	0xbccbfc30	-0.024900526
60	0x3d558fad	0.052138973
61	0x3d1bd9d8	0.03804955
62	0xbca93e97	-0.020659728
63	0xbc22bab6	-0.009932211
64	0x3d5355e6	0.05159559
65	0x3d32dc77	0.043667283
66	0x3c737ab0	0.014860794
67	0xbd648473	-0.055790376
68	0x3ce94c26	0.028478693
69	0x3d0174e2	0.03160561
70	0xbc6f6900	-0.014612436
71	0x3d3d3c86	0.046200298
72	0x3d5b51b0	0.0535447
73	0x3d51722a	0.051134266
74	0xbd58d9c2	-0.052942045
75	0x3d676971	0.05649704
76	0xbc005c96	-0.007834574
77	0xbd5434f6	-0.05180832
78	0x3d0cacde	0.034344546
79	0xbd78f08a	-0.06077627
80	0xbc6f1154	-0.014591534
81	0x3d544652	0.051824875
82	0xbcd0c4e3	-0.025484508
83	0x3d5e948b	0.05434088
84	0x3ccc95f3	0.024973845
85	0xbd4e40e1	-0.050354842
86	0xbd012a93	-0.031534743
87	0xbb95bf72	-0.004569941
88	0xbd75fb6c	-0.060054228
89	0xbcd124e6	-0.02553029
90	0x3d693436	0.056934558
91	0x3ca5016a	0.020142276
92	0xb8d6815d	-0.00010228411
93	0xbc055f86	-0.00814045
94	0x3d0fa6e3	0.035071265
95	0x39dcc5bf	0.00042109002
96	0x3be5a61f	0.0070083286
97	0x3d4f1f8c	0.050567195
98	0x3d158cdf	0.0365113
99	0x3c1c375c	0.009534683
100	0x3c28cbb0	0.010302469
101	0xbc8ba87e	-0.017048117
102	0x3c2bd363	0.01048741
103	0xbd8193b9	-0.06327004
104	0x3bda9a8c	0.0066712555
105	0x3b772e5c	0.0037716841
106	0x3d5f458d	0.05450969
107	0x3bfe42d2	0.0077594304
108	0x3c4c4d71	0.012469635
109	0x3b260cfe	0.0025337334
110	0x3cfdb443	0.030969745
111	0xbb3a9525	-0.0028470245
112	0xbd10f1da	-0.035386898
113	0x3d26039e	0.040530793
114	0x3c997ca0	0.018736184
115	0x3ccd27b7	0.025043352
116	0x3d28b021	0.041183595
117	0x3d66bc0f	0.05633169
118	0xbd35143a	-0.044208743
119	0x3d48cfad	0.04902618
120	0xbb5acee8	-0.0033387486
121	0xbd55d28c	-0.052202746
122	0xbd725a9a	-0.059168436
123	0xbd0a2fd4	-0.03373702
124	0x3c80cb72	0.01572201
125	0x3c71b553	0.014752704
126	0x3d0af366	0.03392353
127	0x3bcf6b43	0.0063299253
128	0x3d4ce284	0.05002071
129	0xbb8f38d3	-0.0043707876
130	0xbc29ceb6	-0.010364225
131	0x3d0b8b03	0.03406812
132	0x3d044478	0.03229186
133	0xbd401f12	-0.04690463
134	0x3d296513	0.041356158
135	0x3cef9370	0.029245108
136	0xbd64503a	-0.055740573
137	0xbd6cd46a	-0.05781976
138	0x3cbd736c	0.023126327
139	0xbc1081ab	-0.008819978
140	0x3b63694a	0.0034700208
141	0x3cfafea7	0.030639006
142	0x3cc275b1	0.02373776
143	0x3d65c2b6	0.056093894
144	0xbd62a4bd	-0.055332888
145	0xbd3a2e6e	-0.045454435
146	0xbc019d76	-0.007911077
147	0x3cb193de	0.021676954
148	0xba770d72	-0.0009424306
149	0xbd44d796	-0.04805716
150	0xb97db5ad	-0.0002419564
151	0xbca4bf87	-0.020110859
152	0xbcd9bfa1	-0.026580634
153	0xbd586c95	-0.052837927
154	0x3d43fe27	0.0478498
155	0x3c29a47d	0.0103541585
156	0x3d235a77	0.039881196
157	0xbc2cebf1	-0.0105543
158	0xbd6e9d1b	-0.058255296
159	0xbd6303ca	-0.055423535
160	0x3c9a1187	0.018807186
161	0xbcefe87f	-0.029285667
162	0x3b37da32	0.0028053639
163	0xbd7b2e7c	-0.061323628
164	0xbd15f1d2	-0.03660757
165	0x3d3dd937	0.04634973
166	0xbcfd9872	-0.03095648
167	0x3d093c0f	0.033504542
168	0xbcc4a301	-0.024003508
169	0xbd5bc3bf	-0.053653475
170	0x3c8b82ba	0.017030109
171	0x3c789645	0.015172546
172	0xbd4c3d43	-0.04986311
173	0xbbdd40a9	-0.006752093
174	0xbcfe5d70	-0.031050414
175	0x3cbd0210	0.023072273
176	0x384fd9ea	4.9555594e-05
177	0x3b90580c	0.0044050273
178	0x3b0c32d9	0.0021392612
179	0xbd68a0b9	-0.056793902
180	0x3d211071	0.03932232
181	0xbd20c384	-0.03924896
182	0x3d00d4da	0.03145299
183	0xbd163ed8	-0.036681026
184	0xbd1a47df	-0.037666198
185	0x3c37554f	0.011189773
186	0xbc76e289	-0.015068659
187	0xbd5d6412	-0.054050513
188	0xbc18817d	-0.009308216
189	0xbd1d0170	-0.03833145
190	0xbd6618c0	-0.056175947
191	0xbcfcb2a1	-0.030846896
192	0xbc6a7dc6	-0.014312213
193	0xbd3dc55f	-0.046330806
194	0xbd1a722e	-0.037706546
195	0xbcbbaf62	-0.022910777
196	0xbd475dfe	-0.048673622
197	0x3c8ffa41	0.017575385
198	0xbd6a7923	-0.05724443
199	0xbca4aada	-0.020101
200	0xbd1badca	-0.038007535
201	0xbc8d8b20	-0.017278254
202	0x3d5c3564	0.053761855
203	0x3c60590a	0.013693104
204	0xbc76dfe4	-0.015068028
205	0xba9dc4ba	-0.0012036778
206	0x3d75758b	0.05992655
207	0xbd505b31	-0.050868217
208	0xbcd7902e	-0.026313867
209	0xbd68f563	-0.056874644
210	0xbc88fa39	-0.016720878
211	0xbd77d175	-0.06050249
212	0x3d4d92c7	0.050188806
213	0xbd1509e0	-0.03638637
214	0xbae4c097	-0.0017452416
215	0xbd430877	-0.047615495
216	0xbd3398a6	-0.04384675
217	0x3d259781	0.04042769
218	0x3d1c0469	0.038090143
219	0xbd105c9f	-0.03524458
220	0xba8c9018	-0.0010724096
221	0x3ca1640f	0.019701032
222	0x3d3dfeb5	0.046385486
223	0x3c2f8ea2	0.010715159
224	0xbd4c56d6	-0.0498875
225	0x3d0ed87f	0.034874436
226	0xbc1aea27	-0.00945524
227	0xbcbbce10	-0.022925407
228	0xbd1d5a83	-0.038416397
229	0xbcdc423c	-0.026887052
230	0x3d55b656	0.052175842
231	0x3c4e8b02	0.012606384
232	0xbcd6a66f	-0.026202409
233	0x3b1e8c47	0.0024192499
234	0xbc8bf903	-0.017086511
235	0x3d74162c	0.059591457
236	0x3d4259d2	0.04744894
237	0x3d4f7e9b	0.05065785
238	0xbd1bccc1	-0.038037065
239	0xbcb23a4b	-0.021756312
240	0x3d298d1c	0.041394338
241	0xbc769704	-0.015050653
242	0xbcf4cd39	-0.029883014
243	0x3a32ee29	0.000682565
244	0x3ba9a69c	0.005177332
245	0xbd16b8c8	-0.036797315
246	0x3cffca4b	0.03122439
247	0x3b194e6f	0.0023392697
248	0x3c8a659f	0.01689416
249	0xbbcf7253	-0.006330767
250	0x3c336442	0.010949196
251	0xbcf897c4	-0.030345805
252	0x3c2a8655	0.010408004
253	0xbd79982a	-0.06093613
254	0x3d303fd7	0.043029632
255	0xbc9fc582	-0.019503359

fc1.bias f4 [128]
0	0x3c7e4eea	0.015521744
1	0x3c57a238	0.013161235
2	0x3cb30026	0.021850657
3	0x3d6574d4	0.05601962
4	0x3d97cdf4	0.07412329
5	0xbcd6ed36	-0.026236158
6	0x3ca0d845	0.019634375
7	0xbd25c921	-0.040475015
8	0x3d0b39b6	0.033990584
9	0xbd689672	-0.0567841
10	0xbcc817c0	-0.024425387
11	0xbce5086b	-0.027958116
12	0x3d46891a	0.048470594
13	0xbc1f43f6	-0.009720793
14	0xbcf07960	-0.029354751
15	0x3b2eee7b	0.0026692438
16	0x3d89ace5	0.0672243
17	0x3d0b138e	0.033954196
18	0x3cabdb76	0.02097867
19	0xbd79f9ee	-0.061029367
20	0x3ba48659	0.0050208983
21	0x3d4f35e1	0.050588492
22	0x3d0e4324	0.034732
23	0x3d8d28e7	0.06892567
24	0xbd4b8832	-0.049690433
25	0x3d008a87	0.03138211
26	0xbb70d82d	-0.0036749945
27	0x3d78e61e	0.06076633
28	0x3ba3cda3	0.004998879
29	0xbce9296d	-0.028462136
30	0x3d06fcc6	0.032955907
31	0x3d6a90bc	0.057266936
32	0xbd3d0101	-0.046143536
33	0xbbbd87e3	-0.005784021
34	0xbd4ef69f	-0.050528165
35	0x3b0bff2d	0.0021361813
36	0xbc7940cb	-0.015213202
37	0xba0e55b1	-0.0005429639
38	0x3da6e265	0.0814865
39	0xbc56423f	-0.013077318
40	0xbc577fcf	-0.013153031
41	0xbd712676	-0.05887457
42	0x3d5beed5	0.053694565
43	0xbbdd4fb3	-0.0067538857
44	0xbd0dbe87	-0.03460553
45	0xbd14ec90	-0.036358416
46	0x3d0efced	0.034909178
47	0xbd65586b	-0.055992525
48	0xbd5afc1e	-0.053463094
49	0x3cc6e90d	0.02428105
50	0x3d68b2c8	0.056811124
51	0x3d0fa59c	0.035070047
52	0x3d0a386b	0.03374521
53	0x3caf3f40	0.021392465
54	0xbc328143	-0.010895076
55	0x3d219123	0.039445054
56	0xbc43aed7	-0.011943541
57	0xbd55074c	-0.052008912
58	0x3c6f7e1d	0.01461747
59	0xbc6a9758	-0.01431831
60	0x3d03c1c8	0.032167226
61	0x3d459a0e	0.04824262
62	0xbc9ee6ea	-0.019397218
63	0x3ccf3983	0.025295978
64	0x3d17267f	0.036901947
65	0x3b165f6b	0.0022945057
66	0x3d32696e	0.043557577
67	0x3d2c61a1	0.042085294
68	0x3cde0a47	0.02710451
69	0xbd613b05	-0.054987926
70	0xbd12adef	-0.035810407
71	0x3d7eb564	0.062184706
72	0x3c8292cf	0.015939144
73	0x3d151b2f	0.036402877
74	0xbd058542	-0.032597788
75	0x3d61b7e9	0.05510703
76	0xbca99939	-0.020702945
77	0xbd37f185	-0.044908065
78	0x3d645686	0.055746578
79	0xbd177c2e	-0.03698366
80	0x3c6a2d29	0.014292994
81	0xbcc701b5	-0.024292806
82	0xbd165a49	-0.036707196
83	0xbd2e00e0	-0.042481303
84	0xbd32db0e	-0.043665938
85	0xbcb9055d	-0.022585565
86	0xbc83f3c7	-0.016107453
87	0x3bcac7c9	0.006188367
88	0x3d6e0a6a	0.0581154
89	0x3d42e293	0.04757936
90	0x3c6f40d1	0.014602856
91	0x3c85e98e	0.01634672
92	0x3b925f36	0.0044669164
93	0xbc2bf9f4	-0.010496605
94	0xbc4a2374	-0.012337554
95	0x3d071271	0.03297657
96	0x3d28f1d1	0.04124624
97	0x3d81886d	0.06324849
98	0x3c37b349	0.0112121785
99	0x3bc9c1d5	0.00615714
100	0xba1667ce	-0.0005737514
101	0xbd4c6e17	-0.049909677
102	0xbc347637	-0.011014513
103	0xbcf1de52	-0.029524956
104	0x3d8765d6	0.066112205
105	0xbd5d2ce2	-0.05399788
106	0xbd28007f	-0.041016098
107	0xbb3512f6	-0.002762971
108	0x3c793c0d	0.015212071
109	0xbd889a0f	-0.06670009
110	0x3d7522c1	0.059847597
111	0xbceb71b0	-0.028740734
112	0xbc53a0f3	-0.012916791
113	0x3d0e2657	0.034704532
114	0x3cb7f742	0.022456769
115	0x3ce12696	0.02748422
116	0x3d0d9b84	0.03457214
117	0x3d7190bc	0.05897592
118	0x3d895486	0.06705575
119	0xb90013e6	-0.00012214444
120	0xbc0d7d84	-0.008635882
121	0x3c61f67b	0.013791676
122	0x3c65a9c0	0.014017522
123	0x3d0d5411	0.034504
124	0x3d7c5020	0.06159985
125	0x3d4d3deb	0.050107878
126	0x3d0b939c	0.03407632
127	0x3b425851	0.0029654691

fc2.weight f4 [64, 128]
0	0xbdaf8af0	-0.08571422
1	0x3d22bfd2	0.039733715
2	0x3d46e805	0.048561115
3	0xbc68a1fd	-0.014198777
4	0x3d967c8f	0.073479764
5	0x3c88f834	0.016719915
6	0xbd831300	-0.06400108
7	0xbcb533f0	-0.022119492
8	0x3d4e2024	0.05032362
9	0x3da68fca	0.08132894
10	0xbd746261	-0.059664134
11	0x3d1ca0c5	0.03823926
12	0xbc8f08cb	-0.017460248
13	0x3d581f76	0.05276438
14	0xbd95e3ab	-0.07318815
15	0x3b35704b	0.002768534
16	0x3cbc9e12	0.023024593
17	0xbd5e247a	-0.054234006
18	0xbc3906b2	-0.0112931
19	0x3d99ceab	0.07510122
20	0xbc3e412f	-0.011612221
21	0xbd862915	-0.065508045
22	0xbb880262	-0.0041506747
23	0xbd089f7c	-0.03335522
24	0x3d719ec6	0.05898931
25	0xbda8579c	-0.08219835
26	0xbd608d0d	-0.054822017
27	0xbd8de7ea	-0.06929
28	0xbc8a2240	-0.016862035
29	0xbd8ae4a8	-0.06781894
30	0xbd9c2019	-0.0762331
31	0x3da78f2d	0.081816055
32	0xbca027e0	-0.019550264
33	0xbd0c7ceb	-0.03429882
34	0xbd472032	-0.04861469
35	0x3db6965f	0.089154
36	0xbd750ffe	-0.059829704
37	0xbcb7b5e1	-0.022425594
38	0x3c32d312	0.010914581
39	0xbd524749	-0.051337514
40	0xbc3765ac	-0.011193674
41	0xbd3c8d09	-0.04603294
42	0xbd0edb49	-0.034877095
43	0xbd47323c	-0.04863189
44	0xbbd24585	-0.006416979
45	0xbd6ff114	-0.05857952
46	0xb90ba4fa	-0.00013317532
47	0x3dd32885	0.10310463
48	0xbcb91b62	-0.022596065
49	0xbc361295	-0.011112829
50	0xbcb3bcee	-0.021940675
51	0xbc56288b	-0.01307119
52	0xbd1702b9	-0.03686783
53	0x3a0bbb28	0.00053303177
54	0xbdba923e	-0.09109925
55	0xbd9bae29	-0.07601578
56	0xbd63f88a	-0.055656947
57	0x3cd1235f	0.025529562
58	0xba908a7e	-0.0011027602
59	0x3d7293f7	0.05922314
60	0x3d699875	0.05703016
61	0x3d828ca8	0.06374484
62	0x3d968acd	0.07350693
63	0x3d1838de	0.037163608
64	0x3db0592e	0.0861076
65	0xbcf7cc5e	-0.030248817
66	0xbda97005	-0.08273319
67	0x3d18825b	0.03723369
68	0x3d01cd99	0.031690214
69	0x3d516550	0.05112201
70	0x3d95e523	0.07319095
71	0x3b0b447c	0.0021250537
72	0x3d613c19	0.054988954
73	0xbd3813bb	-0.04494069
74	0x3db5a3e3	0.088691495
75	0x3d8f58c7	0.06999355
76	0xbc1f600e	-0.009727491
77	0x3d25bb84	0.040462032
78	0x3d89d2fd	0.06729696
79	0xbbbc8d9b	-0.0057541854
80	0xbc702ce3	-0.014659139
81	0x3db1c14d	0.08679447
82	0xbd668d82	-0.056287296
83	0xbbc018a0	-0.0058623105
84	0x3da20416	0.079109356
85	0xbd3e3318	-0.046435446
86	0x3d975ed8	0.07391137
87	0xbd6f1833	-0.058372688
88	0x3c4e144e	0.012578083
89	0x3c347f7d	0.011016724
90	0x3d802e3b	0.06258818
91	0x3d67211e	0.056428067
92	0xbd449bf1	-0.04800028
93	0xbcd8f57b	-0.026484242
94	0x3d132113	0.035920214
95	0x3cef5b1f	0.029218255
96	0xbd055055	-0.032547314
97	0x3ce0ca84	0.027440317
98	0xbd6dd1c9	-0.058061395
99	0x3d7299f5	0.059228856
100	0xbd5cbda2	-0.053891785
101	0xbca56e0c	-0.020194076
102	0xbd9e77b5	-0.07737676
103	0x3d49ffa5	0.049316067
104	0xbd5bb833	-0.053642463
105	0xbb8bd12f	-0.00426688
106	0x3d846d8f	0.06466209
107	0xbda2790a	-0.079332426
108	0x3c3af491	0.011410848
109	0xbd238f0b	-0.03993134
110	0xbd0f6829	-0.035011444
111	0x39437a2d	0.00018642163
112	0xbdb0b0b9	-0.08627457
113	0xbd2c0f43	-0.042006742
114	0x3d5667e7	0.052345183
115	0xbda446df	-0.0802133
116	0xbc3daf21	-0.0115773985
117	0x3d269509	0.040669475
118	0x3d38492d	0.04499166
119	0x3cbc364e	0.022975113
120	0x3bc1a2ec	0.0059093144
121	0xbd6ae62f	-0.057348426
122	0xbcd55964	-0.026043601
123	0x3d8c2417	0.06842821
124	0x3dc8e024	0.098083764
125	0xbd1fad03	-0.038983356
126	0x3dab666c	0.08369145
127	0x3cbf4e71	0.023352833
128	0x3d49ee96	0.0492998
129	0x3d971b23	0.07378223
130	0xbd768ff6	-0.060195886
131	0x3cbe4cc8	0.023229972
132	0xbd46a165	-0.04849376
133	0x3d8d7235	0.06906549
134	0x3d00ea7e	0.03147363
135	0xbd9147df	-0.070937864
136	0x3c227008	0.009914406
137	0x3d81c2bb	0.0633597
138	0xbd946f6a	-0.07247813
139	0x3d8658bb	0.06559893
140	0xbcff8eb0	-0.031195968
141	0xbd949af4	-0.072561175
142	0x3d22c2be	0.039736502
143	0x3c98f184	0.018669851
144	0xbd39faf2	-0.045405336
145	0xbc0f1cd8	-0.008734904
146	0xbcc26e34	-0.02373419
147	0xbd2524eb	-0.04031841
148	0xbdab62f3	-0.083684824
149	0xbd22bb51	-0.03972942
150	0x3d98ec53	0.0746695
151	0x3daa91cf	0.08328592
152	0xbd74a040	-0.05972314
153	0x3d8de51b	0.06928464
154	0xbceaab0a	-0.02864601
155	0x3d530c3e	0.051525347
156	0x3d71c9fe	0.059030525
157	0x3c28fe08	0.010314472
158	0x3db0a373	0.086249255
159	0x3d172a9e	0.036905877
160	0x3d43c04a	0.047790803
161	0x3cdce25c	0.026963405
162	0x3c84c9f0	0.016209573
163	0x3ce01924	0.027355738
164	0xbd51a025	-0.051178116
165	0xbcf72ace	-0.030171778
166	0xbd765814	-0.06014259
167	0x3c906ec0	0.017630935
168	0x3d45d28a	0.04829649
169	0xbd7263ca	-0.059177198
170	0x3d486e6e	0.04893344
171	0xbd29dc29	-0.041469727
172	0xbd5d466f	-0.05402225
173	0x3cafdb04	0.02146674
174	0xbd8345b8	-0.06409782
175	0x3d29723e	0.041368715
176	0xbadb6080	-0.0016737133
177	0x3d0fafe8	0.035079867
178	0x3d3a74fa	0.045521714
179	0x3d0b35f6	0.033987008
180	0x3d61de42	0.055143602
181	0x3cabe140	0.020981431
182	0xbd2eb224	-0.042650357
183	0xbd8d8dfc	-0.06911847
184	0x3d22137e	0.03956937
185	0x3c313988	0.010816939
186	0xbd30bc18	-0.04314813
187	0xbd5c5593	-0.053792547
188	0x3d5847f6	0.052803002
189	0x3d765ea6	0.060148858
190	0xbc1de1d0	-0.009636357
191	0xbd34e8d2	-0.044167347
192	0xbd763efd	-0.060118664
193	0xbd9cd3f1	-0.07657612
194	0xbd43fcb5	-0.047848422
195	0x3aba8740	0.0014230981
196	0xbd2106f7	-0.039313283
197	0x3d338aae	0.043833427
198	0x3d079b6e	0.033107214
199	0xbcc62348	-0.024186745
200	0xbd6e63b4	-0.058200553
201	0x3d55de62	0.052214034
202	0xbd8aa6df	-0.067701094
203	0x3d667c66	0.05627098
204	0xbc03d7b8	-0.008047037
205	0x3b1937c0	0.0023379177
206	0xbd491f98	-0.049102396
207	0x3d3df476	0.046375714
208	0xbd0d0b1d	-0.034434427
209	0x3db4dadd	0.08830807
210	0xbd4b6f30	-0.049666584
211	0xbd7a353c	-0.061085925
212	0xbcf6bab6	-0.030118328
213	0xbd0354c9	-0.03206328
214	0xbd9d6a67	-0.0768631
215	0x3c743948	0.014906235
216	0xbd2597e4	-0.040428057
217	0x3d6dc2ea	0.058047213
218	0x3d760c3a	0.060070254
219	0xbd29a71b	-0.04141913
220	0xbd93dde4	-0.07220057
221	0x3d86c9c7	0.06581455
222	0x3b21efe0	0.0024709627
223	0xbcaed0b4	-0.021339752
224	0xbd51d371	-0.051227037
225	0xbd1b3909	-0.03789619
226	0x3c881a18	0.016614005
227	0xbd45a75b	-0.048255306
228	0xbda5d00b	-0.08096322
229	0xbd474ac8	-0.0486553
230	0x3cd9c150	0.026581436
231	0x3d4f4f76	0.05061289
232	0x3d438732	0.047736354
233	0x3c1da5d0	0.009622052
234	0x3db19d6d	0.08672605
235	0xbd4ce4f0	-0.05002302
236	0x3cc98a1c	0.024601988
237	0xbd53e303	-0.051730167
238	0xbd0e7f51	-0.034789387
239	0xbd88a988	-0.066729605
240	0x3d621482	0.05519534
241	0x3c296460	0.010338873
242	0xbd0e922b	-0.034807365
243	0x3d256fca	0.040389813
244	0xbd89e8c6	-0.06733851
245	0xbd05f8d2	-0.032707997
246	0xbd7d723a	-0.061876513
247	0xbcb278c8	-0.021786109
248	0x3d3f0d0e	0.04664331
249	0xbd625eef	-0.055266317
250	0x3d8e9233	0.06961479
251	0xbcced964	-0.025250144
252	0xbd906e1b	-0.07052251
253	0x3c559fd8	0.013038598
254	0xbd16cd94	-0.03681715
255	0xbd6d681a	-0.057960607

fc2.bias f4 [64]
0	0xbb1572cc	-0.002280402
1	0xbd57f366	-0.052722357
2	0x3beb7276	0.0071852757
3	0xbd900678	-0.07032484
4	0x3c871dc6	0.01649369
5	0x3d7fcfc4	0.062454
6	0x3d8d041e	0.06885551
7	0x3be333e4	0.006933676
8	0x3d9fe1d9	0.07806749
9	0x3d82c968	0.063860714
10	0x3d102bf4	0.035198167
11	0xbd2eaec3	-0.042647135
12	0x3d67ba42	0.056574114
13	0x3dd09eb8	0.10186523
14	0x3dde5b24	0.108572274
15	0x3be1f4ae	0.006895623
16	0xbdae1551	-0.085001595
17	0x3e5bfd7d	0.21483417
18	0xbd730561	-0.0593313
19	0xbd27c039	-0.040954802
20	0xbd0bc03a	-0.03411887
21	0xbcc20ff3	-0.023689246
22	0xbcd9b6d6	-0.02657644
23	0x3db205f0	0.08692539
24	0x3cfe3a85	0.031033764
25	0x3d9aadc3	0.07552674
26	0x3dada7c2	0.08479263
27	0x3d636526	0.055516385
28	0xbd55ae70	-0.05216831
29	0xbd2b22b6	-0.04178115
30	0x3d08ab90	0.03336674
31	0x3da0507e	0.07827853
32	0xbd2a2fc7	-0.04154947
33	0x3d159e27	0.03652778
34	0x3dd28fc3	0.102813266
35	0x3da3821b	0.079838
36	0xbd8bcc05	-0.06826023
37	0x3d4e1379	0.05031154
38	0x3d884164	0.06653097
39	0x3da6e18d	0.08148489
40	0x3d69c13f	0.05706906
41	0x3cff9c66	0.031202506
42	0xbd7e2bf4	-0.062053636
43	0x3d76a8fb	0.060219746
44	0xbd91ca3c	-0.07118651
45	0x3d8dcb06	0.06923489
46	0xbdb2723c	-0.08713195
47	0xbcfc2a40	-0.030781865
48	0xbd1c7c80	-0.03820467
49	0x3e207bc0	0.15672207
50	0x3e39a4a1	0.18129207
51	0xbd164ed3	-0.036696266
52	0xbc101f95	-0.008796592
53	0xbd6fd7a8	-0.058555275
54	0x3e02263e	0.127099
55	0xbd94746c	-0.07248768
56	0xbcaf6420	-0.021410048
57	0xbd1a8200	-0.037721634
58	0x3e077743	0.13229088
59	0xbd8f71b5	-0.0700411
60	0x3d32f80a	0.04369358
61	0x3d25a7cd	0.04044323
62	0xbd174cbf	-0.036938425
63	0x3cb2e74a	0.021838803

fc3.weight f4 [10, 64]
0	0x3d10e195	0.03537138
1	0x3b9dac40	0.0048117936
2	0x3da52a01	0.08064652
3	0xbda967dd	-0.082717635
4	0x3d61078d	0.05493884
5	0x3e776993	0.24161367
6	0xbe2fc9c9	-0.17166819
7	0x3d09d10c	0.03364663
8	0xbc4516d9	-0.012029373
9	0x3e987fd9	0.2978504
10	0xbda83f18	-0.08215159
11	0xbd2dcf2e	-0.04243391
12	0xbd060e70	-0.032728612
13	0xbd1d1ed2	-0.03835947
14	0x3d4f7a4b	0.050653737
15	0xbe083cb2	-0.13304403
16	0x3d97a9ba	0.0740542
17	0xbce2b0cb	-0.027672192
18	0xbdef1683	-0.11674216
19	0x3e3c4784	0.18386656
20	0xbc242c28	-0.010020293
21	0x3d4be72e	0.049781017
22	0xbe53c2a6	-0.20679721
23	0x3d201bfd	0.03908919
24	0xbe09000a	-0.13378921
25	0x3e746441	0.23866369
26	0x3daf92b2	0.08572902
27	0x3d04016e	0.032227926
28	0x3dcc3c9b	0.09972497
29	0x3d9a3028	0.07528716
30	0xbe734fe2	-0.23760942
31	0xbe0329ca	-0.1280891
32	0xbd127e9f	-0.035765287
33	0x3dcf9a99	0.10136909
34	0x3e2de527	0.16981946
35	0x3c901567	0.01758833
36	0xbe0df111	-0.13861491
37	0xbd9a1f0c	-0.07525453
38	0x3d0f8c07	0.03504565
39	0xbdcb05ec	-0.09913239
40	0x3e330554	0.17482501
41	0x3d2c9576	0.042134725
42	0x3b18ce00	0.0023316145
43	0xbe537e64	-0.20653683
44	0xbc7a22ec	-0.015267115
45	0xbe3f77df	-0.18698071
46	0xbd967464	-0.073464185
47	0xbddbb0e2	-0.10727097
48	0xbb906b55	-0.004407326
49	0x3d5ab0f6	0.05339142
50	0xbe4d483d	-0.20047088
51	0xbda03dff	-0.07824325
52	0x3b8b2870	0.004246764
53	0x3d9ce008	0.07659918
54	0xbb167704	-0.0022959122
55	0xbd89c3e1	-0.06726814
56	0xbad8359d	-0.001649547
57	0x3dbb9a9f	0.09160351
58	0x3c883a1e	0.016629275
59	0x3c131770	0.008977756
60	0x3d8fce54	0.07021776
61	0xbd8d2571	-0.06891907
62	0xbc92c7e8	-0.017917588
63	0x3d7994de	0.060932986
64	0xbe000b5c	-0.12504333
65	0xbdea626e	-0.11444555
66	0x3c4f659b	0.012658502
67	0xbdd9e4d2	-0.10639347
68	0xbe272b1f	-0.16325043
69	0x3dee8dab	0.11648115
70	0xbcdd76ad	-0.027034128
71	0xbe332af2	-0.17496851
72	0xbe682f63	-0.22674327
73	0xbe02fd7e	-0.12792012
74	0x3ba89f96	0.0051459773
75	0x3d946f9a	0.07247849
76	0xbdbec722	-0.09315325
77	0x3e511981	0.20419885
78	0x3e734a81	0.2375889
79	0x3d2da9f7	0.04239842
80	0x3de73d02	0.11290933
81	0x3e04ab2d	0.12955923
82	0xbe043545	-0.12910946
83	0xbe9b2e8e	-0.30308956
84	0x3d98701a	0.07443257
85	0xbda00bd4	-0.07814756
86	0x3c27d002	0.010242464
87	0xbda3e391	-0.08002389
88	0x3e2ad136	0.1668137
89	0xbe15ff63	-0.14648204
90	0x3d83d005	0.06436161
91	0x3d75ca9f	0.060007688
92	0xbd628e46	-0.055311464
93	0xbc72bbb0	-0.014815256
94	0x3cc72009	0.024307268
95	0xbd8fdca7	-0.07024508
96	0x3e07477e	0.13210866
97	0xbe4f0e76	-0.2022036
98	0xbdc0379f	-0.09385609
99	0xbda10cc6	-0.078637645
100	0xbdace1ae	-0.084414825
101	0xbd682845	-0.05667903
102	0xbe06beb1	-0.1315868
103	0x3e66f689	0.22554983
104	0x3d0085e7	0.0313777
105	0x3dc60605	0.09669117
106	0x3daade86	0.08343224
107	0x3dba839f	0.09107136
108	0x3ddd81c6	0.10815768
109	0xbd48c0dc	-0.04901205
110	0xbdba68ee	-0.09102045
111	0x3d8804ca	0.066415384
112	0xbc110511	-0.008851306
113	0x3e7dea75	0.2479647
114	0x3e74614f	0.23865245
115	0x3dd378db	0.10325786
116	0xbdacb63c	-0.08433196
117	0xbe4043ad	-0.18775816
118	0xbddf76d5	-0.10911337
119	0x3d9cc2e1	0.07654358
120	0x3d97f51d	0.074197985
121	0x3cbeeda8	0.023306683
122	0x3e4988e5	0.19681127
123	0x3daadf8c	0.083434194
124	0x3d88bd83	0.066767715
125	0xbdbfdf18	-0.09368724
126	0x3c96b590	0.018397123
127	0xbdb267c9	-0.08711202
128	0x3dae84af	0.08521401
129	0xbdfe0df8	-0.12405008
130	0x3d453f4b	0.048156064
131	0xbe14568c	-0.1448614
132	0x3daebd3a	0.08532186
133	0xbc300b6a	-0.010744909
134	0xbde30782	-0.110854164
135	0x3e6e8418	0.23292577
136	0x3e751b91	0.23936297
137	0x3d9b294c	0.07576236
138	0x3e19d420	0.15022326
139	0xbb72ef09	-0.0037068746
140	0x3dc2f3b9	0.09519143
141	0x3dafb74c	0.08579883
142	0x3d77b4cc	0.060475156
143	0x3d82b4b4	0.06382123
144	0xbd02f81b	-0.031974893
145	0x3ddc2b53	0.10750451
146	0xbd644ad8	-0.05573544
147	0x3cdee403	0.027208334
148	0xbe436f75	-0.19085486
149	0xbcf42268	-0.029801562
150	0xbd2d6b17	-0.042338457
151	0xbe5c6c77	-0.21525751
152	0xbd925d2d	-0.07146678
153	0xbe17c9f5	-0.14823134
154	0x3df07305	0.11740688
155	0x3e242279	0.16028775
156	0xbbb03f69	-0.005378653
157	0x3db87802	0.09007265
158	0x3d83bf14	0.0643293
159	0xbe8624fe	-0.26200098
160	0xbd83cc68	-0.06435472
161	0xbd1eaa91	-0.038736884
162	0xbdd96fcb	-0.10617026
163	0x3d58e397	0.05295142
164	0x3d03ea21	0.032205705
165	0x3ded97ee	0.11601244
166	0x3e348cea	0.1763188
167	0xbd0d4498	-0.034489244
168	0xbd47c0c5	-0.048767824
169	0x3dfd3a3d	0.12364624
170	0x3c22a8a0	0.009927899
171	0x3e0ccf26	0.13750896
172	0x3de41632	0.11137046
173	0xbe42310b	-0.18964021
174	0x3d94eb9a	0.072715
175	0x3ddd574c	0.10807666
176	0x3d7bb2ec	0.06144993
177	0x3e737860	0.23776388
178	0x3d5b84e3	0.053593528
179	0x3df33b33	0.11876526
180	0xbd696fc6	-0.05699136
181	0xbc770757	-0.015077434
182	0xbe207119	-0.15668143
183	0xbd8d0140	-0.06885004
184	0x3d3d7eaa	0.046263374
185	0xbdb59f67	-0.08868294
186	0x3d4cf218	0.050035566
187	0xba8ad980	-0.0010593385
188	0xbdfacffd	-0.12246702
189	0xbd9a243f	-0.07526445
190	0xbd202490	-0.03909737
191	0x3d8135c2	0.063090816
192	0xbc8dacbd	-0.017294282
193	0x3d91edca	0.07125433
194	0x3bfd37a9	0.0077275825
195	0x3e2638a5	0.16232546
196	0xbd5f6bbe	-0.05454611
197	0xbd10141b	-0.035175424
198	0x3dd32e8c	0.103116125
199	0xbd90ba4c	-0.07066783
200	0x3ec523b6	0.38503808
201	0x3d07c5f9	0.033147786
202	0x3c5d26db	0.013498033
203	0xbd98dfa1	-0.07464529
204	0xbca5cbc7	-0.02023877
205	0x3db5a016	0.088684246
206	0xbe5a75b7	-0.21333967
207	0xbbcde6a4	-0.006283598
208	0x3ddb171d	0.10697768
209	0x3d931d41	0.07183314
210	0xbde38a71	-0.1111039
211	0xbe0fcc40	-0.14042759
212	0x3d7e6f64	0.06211795
213	0x3db3a0b1	0.08770884
214	0xbdadaf1c	-0.08480665
215	0x3d0e94c4	0.034809843
216	0x3e389f41	0.180295
217	0xbe6c20d3	-0.23059396
218	0x3dc446b4	0.09583798
219	0xbd791171	-0.06080765
220	0x3df5514b	0.11978396
221	0xbdc4519e	-0.0958588
222	0x3e110567	0.14162217
223	0xbd0ec029	-0.034851227
224	0x3cab289f	0.020893393
225	0xbe209270	-0.15680861
226	0x3e8dcef8	0.27696967
227	0xbb3f7cf6	-0.002921877
228	0xbdcd061d	-0.10010932
229	0x3cb76597	0.022387309
230	0xbde50301	-0.111822136
231	0x3e020c08	0.12699902
232	0xbc3e7f72	-0.011627065
233	0xbdc74c69	-0.09731371
234	0xbda87c6c	-0.082268566
235	0x3bfe1f3a	0.0077551873
236	0xbd90d9b1	-0.07072771
237	0x3d6ae395	0.057345945
238	0xbd094fe0	-0.03352344
239	0xbdb11b40	-0.08647776
240	0xbd370eee	-0.044691972
241	0xbdf49b29	-0.11943657
242	0x3e4d8057	0.20068489
243	0x3deeeaf0	0.116659045
244	0x3e1f19aa	0.15537134
245	0xbe160974	-0.14652044
246	0x3d973381	0.073828705
247	0xbddb5a3d	-0.10710571
248	0x3c88f95a	0.016720463
249	0xbc05cca1	-0.008166463
250	0xbe1252b5	-0.14289363
251	0xbd80dd10	-0.06292164
252	0x3d0b1a63	0.03396071
253	0x3daecb09	0.0853482
254	0xbd9db3bc	-0.07700297
255	0x3dbe6a41	0.0929761

fc3.bias f4 [10]
0	0x3dc4bc38	0.096062124
1	0x3eb52dc6	0.35386485
2	0x3d5ed65f	0.05440366
3	0x3d5f5a2f	0.054529365
4	0x3d88b31e	0.06674789
5	0x3e5980bd	0.21240516
6	0x3da4ee79	0.080532975
7	0xbe46cdd9	-0.19414462
8	0xbe9bb605	-0.30412307
9	0xbe4e2ebc	-0.20135015
