resnet/Adaptor Results/adapt.pth (torch, 18207 bytes, 4 tensors)

fc1.weight f4 [32, 64]
000000 bd a1 3b be 19 42 7e 3c 09 f7 2f 3e d4 0c fa bd
       -0.18323417 0.015518689 0.1718408 -0.12209478
000010 cb f7 65 be 71 c6 20 be e7 48 13 3e 90 08 40 3d
       -0.22457807 -0.157007 0.14383279 0.046883166
000020 0d b8 da bc d3 29 0c bd 91 c4 70 bd d4 e6 11 3e
       -0.02669909 -0.034219574 -0.05878121 0.1424821
000030 58 19 87 3d 4b b8 a9 bd 81 4f 35 3d 8e 20 72 3d
       0.06596631 -0.08287104 0.044265274 0.059113078
000040 2c fa cc bd 87 69 52 3c 35 a3 55 bd e9 e2 86 3d
       -0.10008654 0.0128425425 -0.0521576 0.065862484
000050 71 5e f7 3d ec b9 ca 3d 76 81 c2 3d 34 87 4a 3e
       0.1207856 0.09898743 0.09497349 0.19778138
000060 df 5d 84 3e 74 9f 2a 3e 59 cc d1 bd a1 7b 7f 3d
       0.25852868 0.16662389 -0.10244054 0.06237376
000070 55 26 56 bb 13 72 f2 3d 4b 11 84 3d 09 69 94 3d
       -0.0032676656 0.11838164 0.06448611 0.07246596
000080 ec 05 81 3d a2 03 b3 bc e8 46 88 bd a4 f3 d8 3c
       0.06299958 -0.021852318 -0.06654149 0.026483364
000090 14 c9 e9 bd b0 92 12 3e 5b 59 28 3e d6 f9 86 bb
       -0.11415306 0.1431377 0.16440336 -0.0041191382
0000a0 d9 3a d4 3d 28 c9 f1 bd 69 06 d0 3d eb 50 de bd
       0.10362787 -0.11805946 0.10157473 -0.10855278
0000b0 59 59 5a be 6a 48 83 3d a0 a8 12 3d 9f d9 44 be
       -0.21323146 0.06410296 0.035805345 -0.19223641
0000c0 c5 7d 5a bd 5e fb f7 3d 77 c2 8d bd a5 d6 ac bd
       -0.0533426 0.12108491 -0.06921857 -0.08439378
0000d0 2c c0 9c bd 36 57 69 bd 45 5b 4d 3b b9 9a aa bb
       -0.076538414 -0.056967936 0.0031334918 -0.0052064327
0000e0 a1 da 4f 3e d5 ff 35 3e 8d e1 f0 3d 93 3e e8 3c
       0.20298244 0.17773373 0.117617704 0.02835015
0000f0 c2 7a 11 3e 1a c0 91 3d 32 24 81 be 0e 12 cc 3d
       0.14206985 0.071167186 -0.25222927 0.09964381
000100 7f dc 7c 3d b1 3e 0a be 57 f1 e0 3c cb 56 5a 3e
       0.06173372 -0.13500477 0.02745883 0.21322171
000110 db 5e ec 3c ef 15 ba 3d c8 26 aa bd ea 01 30 be
       0.028853824 0.09086215 -0.08308178 -0.1718823
000120 61 b5 0e be bd 73 13 be e9 25 45 be 9e cd b7 bc
       -0.13936378 -0.1439962 -0.19252743 -0.022436913
000130 93 ca 70 bc 1d b9 98 3d bd 48 70 bd b3 be 5b bc
       -0.014696735 0.074571826 -0.05866312 -0.013412165
000140 5c 59 7b 3d 02 5b a8 3d 2c 5b 1c be 31 09 e8 3b
       0.061364517 0.08220483 -0.15269154 0.007081174
000150 e8 d1 2f 3e 93 64 b5 bd bb e0 29 3e 9c 6f 02 3e
       0.17169917 -0.08857074 0.16589634 0.12737888
000160 2e 36 fe bd d5 24 cc bb 13 d3 9a 3d 19 79 5a be
       -0.12412678 -0.0062299767 0.075597905 -0.21335258
000170 eb 19 9f bd 82 97 b2 3d e8 cf 1b 3d 43 84 e0 bc
       -0.07768615 0.08720304 0.03804007 -0.027406817
000180 96 a1 30 bc 2d 66 d4 3d 21 26 48 bd a4 b7 0c 3d
       -0.010780713 0.10371051 -0.048864488 0.03435482
000190 07 9b 2c 3e 22 18 0f bd 19 39 7d bc e6 7d db 3d
       0.16856013 -0.034935124 -0.015455508 0.107173726
0001a0 66 42 77 bd 83 0d 1a 3b 73 aa 80 3b 1c bb 4a 3e
       -0.060366057 0.0023506589 0.003926569 0.19797939
0001b0 f0 be 3c 3e 96 47 15 bd b4 5b 89 3d 26 7b 88 3d
       0.18432212 -0.036445223 0.06706944 0.06664114
0001c0 5e 53 11 3e 73 19 96 bd 99 60 a2 3d 0d 16 4a 3b
       0.14191958 -0.07329073 0.07928581 0.0030835897
0001d0 90 c7 9d 3e b8 54 45 3d 82 51 86 bd 27 ef 2f 3e
       0.30816317 0.048176497 -0.06558515 0.17181073
0001e0 25 1a 00 be fa 26 29 3e 8d 5d a3 3d 3d 03 ea bd
       -0.12509973 0.16518775 0.07976828 -0.11426399
0001f0 1b 48 7d bd 5b 5d 02 bd 48 be 10 3e c0 5e 63 be
       -0.061836343 -0.031827312 0.14135087 -0.22204113
000200 88 39 29 3e 00 e0 0c 3d df ad 15 3d c4 56 b6 bb
       0.16525853 0.03439331 0.03654277 -0.0055645425
000210 eb ac fa 3d 02 ae a4 3d 61 c6 74 bd bc 4b 01 3e
       0.12240013 0.08041002 -0.0597595 0.12626547
000220 e2 1b 2a 3b 1f b9 dc bd 0d 83 79 bc 72 9b c1 3a
       0.002595656 -0.107774965 -0.015228999 0.0014771058
000230 b3 68 d7 3d 98 1a ce 3d 9c 37 da bd 51 19 91 bd
       0.10518017 0.10063666 -0.10655138 -0.07084907
000240 16 41 d4 bc 27 87 0f 3d 54 ed be bb f8 49 8f bd
       -0.025909942 0.035041 -0.0058266316 -0.0699653
000250 a1 3e 81 bd ef 42 ad 3d 12 d5 78 3c db 8d 8c 3d
       -0.06310774 0.08460032 0.015187519 0.06862994
000260 de cb e8 bd f0 6a 26 3e 4a 74 aa 3b 29 f0 95 3d
       -0.113670096 0.16251731 0.005201851 0.073211975
000270 11 ca b8 3b 68 9b 95 3d e7 16 f6 3d e9 2c b0 3b
       0.0056393226 0.07305032 0.12016087 0.0053764475
000280 82 e5 e9 bd 8e 69 9d bd 64 67 24 3e 46 f6 51 bd
       -0.11420728 -0.076861486 0.16055065 -0.051260255
000290 25 af 10 be c3 7d 0e 3e 8e a4 bb 3d 31 ac 22 bd
       -0.14129312 0.13915162 0.09162246 -0.039714996
0002a0 3b 23 e1 bd 2b d0 b2 3b 73 b4 0a bd b0 02 78 3d
       -0.10993048 0.0054569445 -0.033863496 0.060549438
0002b0 ad 72 ba bc 15 a6 b5 bd 4e df 4c be 2c c2 32 bd
       -0.02275976 -0.08869568 -0.20007059 -0.043642208
0002c0 45 fc 13 bd 1a 91 aa bd ab db 56 3d 63 2d f2 3c
       -0.036129255 -0.08328457 0.052455585 0.029562658
0002d0 a9 30 4c 3d 5d c9 f6 3d ad 31 29 3e 21 ee 06 3e
       0.049851093 0.12050126 0.16522856 0.13176776
0002e0 46 bd 4d 3d 34 01 bf bd a0 7d 21 be dc 52 ce bc
       0.050229333 -0.09326401 -0.15770578 -0.025185995
0002f0 4b 21 52 3d 94 b6 f8 3d 14 93 65 3d 7c 0a 0d 3e
       0.051301282 0.12144199 0.056048468 0.1377353
000300 c6 0c 4b be 09 bb a0 3d 37 07 ac 3d 1c 8d c2 bc
       -0.19829091 0.07848174 0.083998136 -0.023748927
000310 32 92 6c be 25 d6 98 3d 52 5d eb bc 44 c5 e4 3c
       -0.23102644 0.0746272 -0.028731022 0.027926095
000320 55 c1 8c 3d 0d 0d eb 3c b5 78 80 bd c8 ad 1a bd
       0.06872813 0.028692747 -0.06273023 -0.037763387
000330 c8 74 42 3d be 12 e3 3d da e6 24 be 61 3c 04 3e
       0.047474653 0.11087559 -0.16103688 0.12913658
000340 a6 6a 0a 3d 0f 2c cd bd e3 bb e6 3d ec 86 91 bc
       0.033793114 -0.10018169 0.11266305 -0.017764531
000350 87 7f b8 bd 1a e0 a1 bc 25 ae 70 bc 2d bf 24 3d
       -0.09008699 -0.01976018 -0.014689957 0.040221382
000360 8f d2 f9 3d 9a 49 d9 3d 6a f6 74 bd 1b a2 11 3d
       0.12198364 0.106097415 -0.05980531 0.035554986
000370 b7 b8 e0 3d 6d 45 18 3e c5 01 1e bd 79 7f 2b 3c
       0.109727316 0.14870234 -0.038575906 0.010467404
000380 ad f6 f4 bd 36 82 6f bc 5f 8d ca bd 6c 99 a5 3c
       -0.11961112 -0.014618447 -0.09890246 0.020214759
000390 87 0d bf bc da d1 c5 3d 94 3c fd 3c 03 78 4e bd
       -0.02332188 0.09659167 0.030912675 -0.05040742
0003a0 71 5e e0 bc ba 78 a6 3c d9 44 3f bd 05 e2 96 3c
       -0.027388783 0.020321239 -0.046696518 0.018418321
0003b0 6c 3d 0c bd d5 da 94 bc 5b 87 8b 39 56 a9 7a bc
       -0.034238264 -0.018170753 0.00026612994 -0.015299162
0003c0 ff 78 c5 bc 89 87 23 3e 71 3f 22 3e ac 71 29 bd
       -0.024105547 0.15969671 0.15844513 -0.04136817
0003d0 63 51 38 be 3e e2 f5 bd 64 52 8e 3c 07 32 09 3e
       -0.17999797 -0.12006043 0.017373271 0.1339799
0003e0 7f ed bf bd 5c 80 e7 bc 92 b1 04 3d 6a 62 5b bd
       -0.09371471 -0.028259449 0.032395907 -0.05356065
0003f0 86 57 9a 3d 23 12 5c 3b e5 ec 93 be e5 fc 59 3b
       0.07536225 0.0033580146 -0.28891674 0.003326231

fc1.bias f4 [32]
000000 33 62 d8 3b fd e4 d9 3d 4e 65 b4 ba 46 26 81 3d
       0.006603503 0.10639379 -0.0013763101 0.06306128
000010 db 66 0f bd 97 1f 50 3e 69 50 d6 3d 15 7d 57 bc
       -0.0350102 0.2032455 0.10464556 -0.0131523805
000020 63 20 18 3e 57 9a 88 bd 88 0e 1f bd 07 1a 57 3c
       0.14856105 -0.06670063 -0.038832217 0.013128764
000030 ba 13 d3 3d 69 51 2d ba f0 dd b5 3d ef df f1 3d
       0.10306497 -0.00066115573 0.08880222 0.1181029
000040 1c 94 58 bd 2c ab 93 bc 57 fa da 3d 0e 32 94 3d
       -0.052875623 -0.018025957 0.1069228 0.0723611
000050 75 f6 58 be 24 d8 45 3d af ee be 3d 66 c7 ba bc
       -0.21187766 0.04830183 0.09322869 -0.022800159
000060 0e a4 36 3e b6 dd 6c 3d 18 c2 58 3d fe 87 53 3e
       0.1783602 0.057828628 0.052919477 0.20657346
000070 79 45 7c 3d f2 f9 14 bd b0 83 e8 3d e5 63 d6 3d
       0.06158969 -0.03637118 0.113532424 0.10468272

fc2.weight f4 [64, 32]
000000 78 86 5b be d2 d0 22 3d 11 72 2b 3d 1a 2f 83 bd
       -0.21438015 0.039749928 0.04185683 -0.06405468
000010 24 70 3f bd 99 19 6f 3e f0 0a 8a 3d ae 0c bd 3d
       -0.046737805 0.23349608 0.067403674 0.09230934
000020 e1 a6 5d 3c aa e1 1e 3e d7 54 ea 3c 24 df fe bd
       0.013528557 0.15515772 0.028604908 -0.124449044
000030 7c 34 bd 3d ec ac 87 bd b9 e6 04 be e5 1d 6d be
       0.09238526 -0.06624779 -0.12978639 -0.23155935
000040 43 24 39 be 24 dd a9 bd 8b 05 21 3d 5f 1d 59 3e
       -0.18080239 -0.08294132 0.039311927 0.2120261
000050 dd fa c2 bd 6a 34 85 3d 26 61 c3 3d 74 5f 02 be
       -0.095205046 0.06504138 0.09540014 -0.12731725
000060 8b 7e 80 3e 6d 9b 1c 3e 1a bd 3e be fc 82 70 3e
       0.25096545 0.15293665 -0.18626824 0.23487467
000070 05 0b 89 3d df af 2d bd 4d d1 5c 3d 04 48 da bd
       0.06691555 -0.042404052 0.053910542 -0.10658267
000080 79 53 50 bd 3d 72 73 be 4d 50 37 be 2b 84 3a 3e
       -0.050860856 -0.23774047 -0.17901726 0.1821448
000090 2c 72 c4 bd 63 82 6e be ff 19 fe bd 7f 81 d1 3a
       -0.09592089 -0.23291926 -0.12407302 0.0015984027
0000a0 74 a5 68 3d 5c 27 dd bd 8a f5 4c 3d 6a b2 05 3e
       0.056798413 -0.10798523 0.05003885 0.13056341
0000b0 8a 85 97 39 c4 a7 08 3e 3b a4 98 3c 9f 39 08 be
       0.0002890046 0.13345248 0.018632999 -0.1330323
0000c0 ca 60 02 be 62 93 98 3a f2 88 64 be ef 9c 37 3e
       -0.12732235 0.0011640603 -0.22317865 0.17930959
0000d0 94 32 c4 3c f9 ca 9a bd 66 ed d4 bd 4c 8a 25 be
       0.023949899 -0.07558245 -0.10396843 -0.16166037
0000e0 ec 7c 27 bd d6 82 19 3e 66 7a 37 be e8 55 41 3d
       -0.04089062 0.14991316 -0.17917785 0.047201067
0000f0 63 b3 27 be 2e c4 02 3e 31 de 11 be 72 ca 17 be
       -0.16377024 0.12770149 -0.14244916 -0.1482332
000100 87 05 57 3e 95 52 9b 3c c6 13 30 3e c4 a2 04 be
       0.20998202 0.018960277 0.17195043 -0.12952715
000110 6f 61 6a 3e 01 bb b5 3c d6 de a2 bd 81 83 96 bd
       0.2288873 0.022183897 -0.07952659 -0.07349301
000120 f8 2a 80 bd c1 90 9c bc 16 14 35 3d 31 67 b9 3d
       -0.06258196 -0.019111993 0.04420861 0.09052885
000130 06 e3 19 bc c0 04 dc 3d b6 d4 8d 3d bf be b3 bd
       -0.0093925055 0.107430935 0.06925337 -0.08776616
000140 5e 68 a2 3d d3 38 88 bd b1 d6 2a 3e 13 df 4e 3c
       0.07930063 -0.06651463 0.16683461 0.012626427
000150 1e d8 16 3e 18 62 7a be 4c ff 2a 3e 69 4f c2 bc
       0.1473088 -0.24451482 0.1669895 -0.023719506
000160 42 7e 94 3d 42 05 03 bd a2 0d b8 bd fc 1f d4 bd
       0.07250644 -0.031987436 -0.08986975 -0.10357663
000170 bc c9 67 3d ce df 1f 3e d2 02 5c 3e 72 da 35 3e
       0.056588873 0.15612718 0.21485451 0.17759112
000180 79 f1 87 bb 2d 17 8c 3e d4 39 54 3d 50 91 0f 3c
       -0.004148659 0.27361432 0.05181296 0.008762673
000190 db a9 a4 be a4 3e bc 3e ec bd 37 bc 4a 8f 0e 3d
       -0.3216084 0.3676654 -0.0112147145 0.03480462
0001a0 7c 4e 68 3b 08 19 f3 3c d0 5d 49 bd fe 71 7b be
       0.003544717 0.029675022 -0.049161732 -0.24555203
0001b0 97 22 5b 3e 49 d6 57 3d 3d 2c f1 3c a7 f7 b9 bd
       0.21399914 0.052694593 0.02944004 -0.09080439
0001c0 c5 b0 35 be 1f f5 08 3e a7 31 ae 3e 67 59 9b bd
       -0.17743213 0.13374756 0.34022257 -0.075854115
0001d0 c7 f7 76 be 5e 0d 2c 3e 87 11 08 3e 4d 51 93 bd
       -0.24117957 0.16801974 0.13287936 -0.07193241
0001e0 6c a1 16 3d 25 fa a4 3c 26 63 0a 3e 86 bb 92 3e
       0.036775038 0.02013881 0.13514385 0.28658694
0001f0 3e 32 08 3d bd cc 2d 3e 4c d8 40 be 5a e7 ae 3c
       0.03325104 0.16972633 -0.1883251 0.021350551
000200 23 f5 42 be 55 79 8d bd d3 ca a2 3d e8 08 a8 bd
       -0.19038825 -0.06907908 0.07948842 -0.08204824
000210 fc 79 74 3d 93 5c ea 3d 97 ad 0a 3e 76 16 f2 bd
       0.059686646 0.114434384 0.13542782 -0.1182069
000220 62 62 03 be 15 2a 89 bd 8f 65 83 3d a3 26 57 bd
       -0.12830499 -0.0669748 0.06415855 -0.05252708
000230 5e 3c 2d 3e 0c d2 27 bd 58 f2 2a be e4 a7 01 be
       0.1691756 -0.0409718 -0.1669401 -0.12661701
000240 1e 58 a1 bd 38 25 32 3e 54 2b 2e bd 06 43 87 bb
       -0.07878135 0.1739701 -0.04252179 -0.004127863
000250 19 49 fb bd 4a 55 7b bb db ee 5f 3e 6f 65 14 be
       -0.12269802 -0.0038350397 0.2186846 -0.14491819
000260 29 47 d2 bd 5e b4 a3 3c 08 9c 8f bd 48 dd 27 ba
       -0.10267479 0.019983467 -0.070121825 -0.0006403518
000270 92 35 50 3d a8 4a b1 3c b0 2b 58 be 24 0c 87 3d
       0.05083234 0.021642044 -0.21110415 0.065941125
000280 7f 68 81 3d 63 10 04 3e ba 99 f4 3d 88 73 7d bd
       0.06318759 0.12896876 0.119433835 -0.061877757
000290 3f 3f d4 bd e5 7d 8a 3e 5d 74 48 be 3f a9 42 3c
       -0.10363626 0.27049175 -0.19575639 0.011881172
0002a0 9c b7 34 ba a5 ac 00 be e9 8f 39 3e f3 02 b9 bd
       -0.0006893815 -0.12565859 0.18121304 -0.09033766
0002b0 b2 49 11 be 38 cb 07 bd 83 c5 b6 3d 48 f5 2d bc
       -0.14188269 -0.03315279 0.08924391 -0.010617562
0002c0 c1 3f 0a 3d 40 7a 1c be 10 b9 77 3e 73 57 08 be
       0.033752207 -0.1528101 0.2419169 -0.13314609
0002d0 cd bc 5e bc fb e7 38 be 52 3c 4a 3e 06 b9 4c 3e
       -0.013594818 -0.18057244 0.19749573 0.19992456
0002e0 42 d2 00 bd 25 92 a7 3d 0c ca a9 3d c7 3a cc 3d
       -0.031450517 0.08182172 0.082904905 0.099721484
0002f0 c2 c5 f8 3d 45 e8 28 3e e4 98 fb bd c0 98 0f bd
       0.12147094 0.16494854 -0.12285021 -0.035057783
000300 0b 96 89 bb 3a 4e d0 bd 62 13 00 be 2d fc 88 3c
       -0.0041987947 -0.101711705 -0.12507394 0.01672181
000310 a3 ee 78 3d 84 a5 8d 3e 00 a8 14 3c 15 a6 68 3d
       0.060774457 0.2766534 0.009073257 0.056799013
000320 e6 66 a5 bd c7 08 d2 3d c8 3b 47 3e 8f a7 0b 3e
       -0.08076267 0.102555804 0.19456398 0.13638137
000330 de bf 3e 3e d7 12 f0 3d ff 09 c8 bd 59 69 c7 bd
       0.18627879 0.117223434 -0.097675316 -0.0973689
000340 23 ff c7 bc 51 48 a4 bd 81 35 24 3d 4e d4 68 3d
       -0.02441365 -0.08021606 0.040090088 0.056843095
000350 22 b6 0d be 7a af 97 bd 36 90 03 be ce 8e 0f be
       -0.1383901 -0.074065164 -0.12847981 -0.1401932
000360 ed de 33 3e 1a fe a1 3d b6 56 af bd 14 50 b1 bd
       0.17565508 0.07909794 -0.08561461 -0.08657852
000370 5d 76 27 3e 4c e2 34 be f9 3c 2b 3e 58 2f 22 3a
       0.16353746 -0.1766445 0.16722478 0.00061868643
000380 12 15 07 3e 8d 8a 1d 3e ff fe 81 bd 1d cb 33 3e
       0.13191631 0.15384884 -0.06347465 0.1755795
000390 89 3b 97 bd c9 99 0f 3d 16 73 11 be 29 3b b3 3d
       -0.07384402 0.03505877 -0.14204058 0.08751518
0003a0 9e 83 fe 3d 81 43 0e be 31 8f 82 3e 4b 01 5d 3c
       0.12427448 -0.13892938 0.2549987 0.013489078
0003b0 d1 cc c1 bc 22 5a 9a 3d be b1 31 3e d1 8b 6c 3e
       -0.023657234 0.07536723 0.1735296 0.2310021
0003c0 68 9a d1 3c 50 8c 46 3e 35 7f 66 3e b1 14 62 bd
       0.025586322 0.19389462 0.22509463 -0.055195514
0003d0 68 49 4b be 0c 7b 41 3e 7f 66 23 3e 21 36 f8 bc
       -0.19852221 0.18894595 0.15957068 -0.030299248
0003e0 3e 90 77 3e ad 20 13 3e d7 25 fc bb 4a 38 92 3d
       0.24176118 0.14367934 -0.0076949405 0.071396425
0003f0 53 d8 89 3e e0 95 3d be 87 27 7d bd ee b7 33 3d
       0.26922855 -0.18514204 -0.061805274 0.04387658

fc2.bias f4 [64]
000000 bb c9 55 3e a5 7e d2 3d e1 0d 5c 3e 00 8d d5 bd
       0.20877735 0.10278062 0.2148967 -0.10427284
000010 95 97 35 bb 7f 5b 0e bd 97 5a 14 3e ad e1 d1 3d
       -0.0027708758 -0.034755226 0.14487682 0.10248122
000020 3e 6d 34 be b3 92 d4 3d e3 a7 13 3e 48 4e 6a 3c
       -0.17619798 0.10379543 0.14419512 0.01430089
000030 c8 0e 69 be 02 c7 21 3d 82 24 c7 3c 0f 61 23 3d
       -0.22759545 0.03949643 0.0243094 0.039887484
000040 90 45 e2 3d b1 cb be bc 1b 83 a6 bd 8f 19 d7 bc
       0.11048424 -0.023290487 -0.08130475 -0.026257304
000050 c5 00 18 be 63 e1 98 bd 5f 5c 6b 3d ee af 2b be
       -0.14844044 -0.07464864 0.05746114 -0.1676633
000060 86 34 ca 3d 7c 3a 87 bc 41 6d a1 bd 23 01 fc 3d
       0.09873299 -0.01650738 -0.07882167 0.12304904
000070 86 87 a5 3d bc 67 21 3e 70 20 64 3e f4 55 fa 3d
       0.0808249 0.15762228 0.22277999 0.122234255
000080 02 b2 a8 bd b3 9a 3e bd 90 61 65 bd bf b5 85 3d
       -0.08237077 -0.04653425 -0.056001246 0.06528806
000090 a6 54 4d 3e f6 23 bd 3d 5f b1 80 3c 7a ff 19 be
       0.20051822 0.09235375 0.015709577 -0.15038863
0000a0 91 a7 b3 bd aa de a7 3d e3 e2 57 bd 69 00 63 be
       -0.08772195 0.08196767 -0.05270661 -0.22168125
0000b0 82 ca 5f 3d 8a 95 d0 3d 59 9d 3c be fe e0 73 3e
       0.054636486 0.10184772 -0.18419398 0.23816296
0000c0 bd 2a 22 bc a5 76 13 be 68 61 95 bc 7b 33 c9 bc
       -0.009897885 -0.14400728 -0.018234923 -0.02456068
0000d0 d4 81 85 bb 88 6e a9 bd f9 29 a8 3d 27 99 2f be
       -0.0040743146 -0.08273035 0.08211131 -0.17148267
0000e0 7b 03 4e be 1b dd a4 bd 8c 7e 2b bc 09 f8 e0 3c
       -0.20118515 -0.08049985 -0.010467183 0.027462022
0000f0 42 09 19 bb 9b a4 e4 bd cd e3 d0 bd 13 61 51 3e
       -0.0023351465 -0.111642085 -0.101996996 0.20447187
