resnet/Adaptor Results/ResNet_pt.pth (torch, 815633 bytes, 77 tensors)

conv.weight f4 [16, 3, 3, 3]
0	0x3d1df195	0.03856047
1	0x3e6ab12b	0.22919147
2	0x3e00e6d9	0.12588061
3	0xbd8be8a0	-0.06831479
4	0x3cb5d3fe	0.022195812
5	0x3dbe34c4	0.09287408
6	0x3deff79c	0.117171496
7	0xbde05a30	-0.10954702
8	0xbd998716	-0.07496469
9	0xbcd04ccb	-0.025427243
10	0x3ae12419	0.0017176896
11	0xbe17e75f	-0.14834355
12	0x3e241469	0.16023411
13	0xbdd9e8f5	-0.10640136
14	0xbe8a8a4d	-0.2705864
15	0x3dbe6dbf	0.09298276
16	0xbe75c643	-0.24001412
17	0x3d24167a	0.040060498
18	0xbe67630c	-0.22596377
19	0x3d3b6e8a	0.045759715
20	0xbda0e605	-0.07856373
21	0xbcd1b0ca	-0.025596995
22	0xbc27d9f8	-0.010244839
23	0xbeabac12	-0.33529717
24	0xbc790ab0	-0.015200302
25	0xbed84300	-0.42238617
26	0xbe6e5a08	-0.23276532
27	0xbdc50ca1	-0.096215494
28	0xbddab37a	-0.10678764
29	0x3e207181	0.15668298
30	0x3d7713c7	0.060321596
31	0x3e48bd6c	0.19603509
32	0x3e0c1575	0.1368006
33	0x3de6fe53	0.11278977
34	0xbe5662d1	-0.20936133
35	0x3d0b6b65	0.034037966
36	0x3dce50a2	0.10073973
37	0x3d82750a	0.0636998
38	0xbeadf6cc	-0.33977354
39	0x3e0d05ff	0.13771819
40	0x3e546521	0.20741703
41	0xbe5cc3be	-0.21559045
42	0xbdc28422	-0.094978586
43	0xbe82628c	-0.2546581
44	0x3cccdfca	0.025009055
45	0x3e2b0087	0.1669942
46	0xbe16017c	-0.14649004
47	0xbdbc7ce5	-0.09203509
48	0x3e53d150	0.20685315
49	0x3e928a0f	0.28620955
50	0xbe154151	-0.14575697
51	0x3da084dc	0.07837841
52	0x3dc198f6	0.09453003
53	0xbdf73574	-0.12070742
54	0xbde13e89	-0.10998256
55	0x3bc79e5a	0.006091875
56	0xbc8eb87c	-0.017421953
57	0xbdc4b3f8	-0.09604639
58	0xbe931fc1	-0.28735164
59	0xbd45fbde	-0.048335902
60	0x3db35a8f	0.08757507
61	0xbe82f711	-0.25579122
62	0x3d856107	0.06512647
63	0xbe29845f	-0.16554402
64	0xbdec4660	-0.115368605
65	0xbdbff949	-0.09373719
66	0xbd5c1bf6	-0.053737603
67	0x3ca1431f	0.019685326
68	0x3d6f1f75	0.05837961
69	0x3d412c78	0.04716155
70	0x3c2f5e4e	0.010703636
71	0xbe41d383	-0.18928342
72	0xbe84f479	-0.25967768
73	0x3e258710	0.16164804
74	0x3e1e7599	0.15474547
75	0x3d26768b	0.040640395
76	0x3e1e538e	0.15461561
77	0x3e844597	0.25834343
78	0xbe4ee6b1	-0.2020519
79	0xbe47c128	-0.19507277
80	0xbcaf5d1d	-0.021406705
81	0xbba3ea0d	-0.0050022663
82	0x3e418af3	0.18900661
83	0x3d3c784e	0.04601317
84	0x3b369d4e	0.0027864757
85	0x3eb85356	0.3600108
86	0x3e08d830	0.13363719
87	0x3e1802fe	0.14844891
88	0xbbc77e88	-0.0060880817
89	0xbc4e997a	-0.012609834
90	0xbe71588e	-0.23568937
91	0xbd791d80	-0.06081915
92	0xbdd65db2	-0.1046709
93	0xbc39df39	-0.011344724
94	0x3d00e673	0.031469774
95	0xbdd6bb4d	-0.104849435
96	0xbe14d866	-0.14535674
97	0xbdec56b0	-0.11539972
98	0xbe9357da	-0.28777963
99	0x3cc6c155	0.02426211
100	0xba0aa24a	-0.0005288465
101	0x3da52488	0.080636084
102	0xbe140d09	-0.14458098
103	0xbb366753	-0.0027832582
104	0x3dd4160a	0.10355766
105	0x3d23d276	0.039995633
106	0xbd4b05b0	-0.04956597
107	0x3be53986	0.0069953827
108	0x3e49a83e	0.19693086
109	0x3e109e79	0.14122953
110	0x3e4f3ab6	0.2023724
111	0xbe2623a8	-0.1622454
112	0x3ddb9247	0.107212596
113	0x3e557b99	0.2084793
114	0xbcfbcb68	-0.03073664
115	0xbe880240	-0.26564217
116	0xbddf66a2	-0.109082475
117	0x3e14f2bc	0.14545721
118	0x3e2d0bc1	0.16899015
119	0x3d29c5a5	0.041448254
120	0xbe161fc9	-0.14660563
121	0xbe23912a	-0.15973344
122	0x3dca45ba	0.098765805
123	0xbe532dc7	-0.20622931
124	0xbe98561b	-0.29753193
125	0xbd17d91f	-0.037072297
126	0xbca225d3	-0.019793427
127	0xbdd227e4	-0.10261515
128	0x3d23de92	0.04000718
129	0x3e300d53	0.17192583
130	0x3d52b7ed	0.051444937
131	0x3dea7c31	0.11449469
132	0x3d2859d1	0.04110128
133	0xbd8d8c1b	-0.069114886
134	0x3b8607a4	0.0040902663
135	0xbb0c7857	-0.0021434033
136	0x3db776b0	0.08958185
137	0xbe19b51e	-0.15010497
138	0xbe4440c9	-0.19165339
139	0xbe4b4911	-0.19852091
140	0x3ca3056c	0.019900046
141	0xbe66f4d8	-0.22554338
142	0x3d8efdf4	0.069820315
143	0xbdcbadef	-0.099452846
144	0x3db9ed4e	0.090784654
145	0x3e4f41f8	0.20240009
146	0xbe02e10f	-0.12781166
147	0x3e89515a	0.2681988
148	0x3eb2999b	0.34882817
149	0x3e12c74a	0.14333835
150	0x3e736f92	0.2377303
151	0x3d27194c	0.04079561
152	0xbd80f1b9	-0.06296105
153	0xbe2d09d5	-0.16898282
154	0xbe279bcd	-0.16368027
155	0x3dec5cbe	0.11541127
156	0xbdfc9054	-0.12332216
157	0x3d7e4b44	0.062083498
158	0xbd611991	-0.054956023
159	0xbdd9710c	-0.10617265
160	0xbcb80e74	-0.02246783
161	0xbd89100e	-0.06692515
162	0x3d3142d8	0.043276638
163	0xbddf58e9	-0.1090563
164	0xbc03495a	-0.008013094
165	0x3d9f3564	0.07773855
166	0xbdbe41bb	-0.09289881
167	0xbe8bb24d	-0.2728447
168	0xbe3939c9	-0.1808845
169	0x3cefca4f	0.029271273
170	0xbe49b7c2	-0.19699004
171	0xbd15bb5f	-0.036555644
172	0x3e39a7eb	0.18130462
173	0x3e2f87a8	0.17141593
174	0x3d118b9b	0.03553353
175	0xbdc536e0	-0.09629607
176	0xbe5ef289	-0.21772207
177	0x3e162446	0.14662275
178	0xbdce2285	-0.10065178
179	0xbe111d27	-0.14171277
180	0x3e184890	0.1487143
181	0x3e5949b2	0.21219519
182	0x3e248cd7	0.16069351
183	0x3e6b01ce	0.22949907
184	0xbda4bbac	-0.08043608
185	0x3c8731dc	0.016503267
186	0x3d272edc	0.040816173
187	0x3d6423e1	0.05569828
188	0x3e3ebcc8	0.18626702
189	0x3ca7e904	0.020496853
190	0x3dc4be7d	0.09606645
191	0x3e1c6c8d	0.15275784
192	0xbdffaa85	-0.12483696
193	0xbcceb6b3	-0.025233602
194	0x3e5e4a5c	0.21708053
195	0xbe35a40e	-0.17738363
196	0xbe4a18d6	-0.19736037
197	0x3ca5988d	0.020214343
198	0x3db22032	0.08697547
199	0x3d88c7ad	0.0667871
200	0xbe92499c	-0.28571784
201	0xbd937f97	-0.0720207
202	0x3e4752f9	0.19465245
203	0x3dad6346	0.084662005
204	0x3dd1df41	0.102476604
205	0x3e03ef7f	0.1288433
206	0x3e132a31	0.14371563
207	0x3deaae4b	0.11459025
208	0x3eaccd57	0.33750412
209	0x3ca34cae	0.019934025
210	0x3a9154a6	0.0011087849
211	0xbceb59df	-0.028729377
212	0x3d172362	0.036898978
213	0xbe2ecf98	-0.17071378
214	0x3e4135fd	0.18868251
215	0xbdf21ae8	-0.11821538
216	0x3e6f7c8d	0.23387356
217	0xbd159cfe	-0.036526673
218	0x3e165b7b	0.14683335
219	0x3e1ceade	0.1532397
220	0xbe3bdfd7	-0.18347107
221	0xbda1daea	-0.07903083
222	0xbe4c9d8a	-0.19981971
223	0xbdafd99b	-0.08586427
224	0x3c02934a	0.007969687
225	0x3e2e2c1e	0.17009017
226	0x3e9cbd75	0.30613294
227	0x3def3471	0.11679924
228	0x3ea02041	0.31274608
229	0x3e9ce651	0.30644467
230	0x3db27757	0.087141685
231	0xbdc89321	-0.097936876
232	0x3d3e0238	0.046388835
233	0xbcb18f91	-0.021674903
234	0x3e545bf0	0.20738196
235	0xbe2151c3	-0.15753846
236	0xbe6718cb	-0.22568052
237	0xb964bce4	-0.00021814142
238	0xbe192af7	-0.14957796
239	0xbd5d1a81	-0.053980354
240	0x3d9bee38	0.07613796
241	0xbe431d21	-0.1905408
242	0x3d3a43ff	0.045475002
243	0xbe002582	-0.12514308
244	0xbe92259d	-0.28544322
245	0x3dac6808	0.0841828
246	0xbe3e8569	-0.1860558
247	0xbc8b2541	-0.016985537
248	0x3d35fec9	0.044432435
249	0x3d795073	0.060867738
250	0xbd9d6e95	-0.076871075
251	0xbbd64f47	-0.0065402123
252	0x3e2c6c19	0.16838111
253	0xbd8e539a	-0.069495395
254	0x3d05357f	0.03252172
255	0x3e2c3f58	0.16821039

bn.weight f4 [16]
0	0x3f524a90	0.82145023
1	0x3f6e7543	0.9314768
2	0x3f813cf7	1.009673
3	0x3f6d1124	0.9260428
4	0x3f86e19d	1.0537602
5	0x3f8a5a54	1.0808816
6	0x3f45bc0b	0.77240056
7	0x3f419a1e	0.7562579
8	0x3f4e3229	0.8054529
9	0x3f767c79	0.9628368
10	0x3f8176f4	1.0114427
11	0x3f666366	0.8999542
12	0x3f97374b	1.1813749
13	0x3f9c88cb	1.2229246
14	0x3f93d0ef	1.1548136
15	0x3f91f4fe	1.1402891

bn.bias f4 [16]
0	0xbe63a6a5	-0.22231539
1	0x3e92724a	0.2860282
2	0xbe51464e	-0.20436975
3	0x3d8a1a83	0.06743338
4	0x3e5fadba	0.21843615
5	0x3e31d693	0.1736701
6	0x3e002a9c	0.12516254
7	0xbdb37e12	-0.087642804
8	0xbe41e0ff	-0.18933485
9	0xbd7822d8	-0.060580105
10	0x3dfbe3ea	0.122993305
11	0x3e7d4aed	0.24735613
12	0x3f37f7dc	0.7186258
13	0x3ed92e4a	0.42418128
14	0x3dc0a625	0.094066896
15	0x3e8d1750	0.2755685

bn.running_mean f4 [16]
0	0xbf20b28d	-0.62772447
1	0x3dee5dd6	0.116389915
2	0xbef9e874	-0.4881016
3	0xbd371492	-0.04469735
4	0x3d4b6487	0.049656417
5	0xbc0bc632	-0.00853114
6	0x3d66ddaa	0.05636374
7	0x3ec07c04	0.37594616
8	0x3eb513a6	0.35366553
9	0xbd8629bf	-0.06550931
10	0x3c56f3c4	0.013119642
11	0xbbcd62cf	-0.0062678824
12	0xbcc99f75	-0.024612168
13	0x3cefb03c	0.02925884
14	0xbe135004	-0.14385992
15	0xbcbd66f0	-0.023120373

bn.running_var f4 [16]
0	0x3e0a7d6c	0.13524407
1	0x3cae2b50	0.021260887
2	0x3d769033	0.060196113
3	0x3c3fc532	0.01170473
4	0x3d11e562	0.035619147
5	0x3bf6ae31	0.0075280895
6	0x3d17656f	0.03696197
7	0x3d2a86c5	0.041632432
8	0x3d4ad0a7	0.049515393
9	0x3c510940	0.012758553
10	0x3d415f9f	0.047210332
11	0x3cd8410d	0.026398206
12	0x3bc85852	0.006114044
13	0x3bd24c91	0.006417819
14	0x3c97db2b	0.018537125
15	0x3b7b541a	0.003834969

layer1.0.conv1.weight f4 [16, 16, 3, 3]
0	0x3d32c82c	0.04364793
1	0x3dd57830	0.104233146
2	0x3e1defed	0.15423556
3	0x3c3df2ad	0.011593503
4	0xbdd79188	-0.10525805
5	0x3e18e257	0.14930092
6	0x3d5929bd	0.05301832
7	0xbd3cd601	-0.046102528
8	0xbdbf8a7c	-0.09352586
9	0xbc8d038d	-0.017213607
10	0xbe0faf6e	-0.14031765
11	0xbe15e832	-0.14639357
12	0x3dabb709	0.083845206
13	0xbd276ae3	-0.04087342
14	0xbdfff23e	-0.12497376
15	0xbe1a5bcf	-0.15074085
16	0x3c6ad4e5	0.014332985
17	0xbd14a471	-0.036289636
18	0xbc837f6d	-0.016051972
19	0x3ca856cd	0.020549202
20	0x3e20d307	0.157055
21	0xbd6c7b65	-0.057734866
22	0xbdf784fa	-0.1208591
23	0x3dc175b1	0.09446276
24	0x3d3b30b2	0.045700736
25	0xbd919374	-0.071082026
26	0xbd84b280	-0.06479359
27	0xbd97b796	-0.07408063
28	0xbdbf25d9	-0.09333391
29	0x3d6eef58	0.058333725
30	0x3d7c982b	0.061668556
31	0x3dd46730	0.10371244
32	0x3c710eb8	0.014712982
33	0x3dac019d	0.08398745
34	0x3d987262	0.07443692
35	0xbd988917	-0.07448023
36	0xbc8548ca	-0.01627006
37	0x3c14e35a	0.009087408
38	0x3d530e88	0.05152753
39	0xbde7b63a	-0.11314054
40	0xbe86ccce	-0.2632813
41	0xbe22759c	-0.15865177
42	0x3de745ca	0.11292608
43	0xbd865183	-0.06558516
44	0x3ca48251	0.020081671
45	0x3dccaafe	0.09993552
46	0x3cad9116	0.021187346
47	0x3de403d1	0.111335404
48	0xbca5e3ee	-0.020250287
49	0x3a790146	0.0009498786
50	0x3bf905e8	0.007599581
51	0xbd922101	-0.07135201
52	0x3cc235f0	0.02370736
53	0xbe135bb2	-0.14390448
54	0x3e0bc68d	0.1364996
55	0x3d3a2c09	0.04545215
56	0xbd72d862	-0.05928839
57	0xbdb2e44c	-0.087349504
58	0xbdb50885	-0.088395156
59	0x3df198e3	0.11796739
60	0x3ca29791	0.019847663
61	0xbcc5afb6	-0.024131637
62	0x3e1f19d8	0.15537202
63	0x3dcba628	0.09943801
64	0x3e302883	0.17202954
65	0x3dc4a28e	0.09601317
66	0xbc426306	-0.011864429
67	0xbcbb9d21	-0.022902073
68	0xbc0d22c9	-0.00861425
69	0x3c01f4e5	0.007931923
70	0x3dbc399c	0.091906756
71	0xbc7ce9bd	-0.015436587
72	0x3db3a46d	0.08771596
73	0x3d74ff61	0.05981386
74	0x3cce517a	0.025185335
75	0x3cc71fb6	0.024307113
76	0x3d5a3869	0.053276453
77	0x3c95201c	0.018203788
78	0x3d35a87b	0.04435013
79	0x3db4fe3b	0.08837553
80	0x3d0b6bb2	0.034038253
81	0xbdc76a6d	-0.09737096
82	0xbb92d788	-0.0044812597
83	0x3d59b156	0.053147636
84	0x3de1e7a6	0.110305116
85	0xbdef96de	-0.116986975
86	0x3aafc5c0	0.0013410375
87	0xbd3a2c6f	-0.04545253
88	0xbdeb658c	-0.11493978
89	0xbd86843d	-0.06568191
90	0xbcf78ee6	-0.030219506
91	0x3c3dfe9d	0.011596349
92	0xbd21bdfa	-0.039487816
93	0x3d3d58b6	0.04622718
94	0xbc20f721	-0.009824545
95	0x3d8d8f43	0.06912091
96	0xbd3eec4d	-0.046612073
97	0xbdbda985	-0.09260849
98	0x3d187c59	0.037227962
99	0x3e017f01	0.12646104
100	0x3b208ab2	0.0024496731
101	0xbd3fae87	-0.0467973
102	0xbcd6034e	-0.026124623
103	0x3d758d66	0.0599493
104	0xbe34a7a9	-0.17642082
105	0x3d8d0cb1	0.06887186
106	0x3dc32bc7	0.09529834
107	0xbd7ec46f	-0.062199052
108	0xbe10f02c	-0.14154118
109	0x3d8a65e7	0.067577176
110	0x3d886fe2	0.06661965
111	0x3e5f49b8	0.21805465
112	0xbf014169	-0.5049043
113	0x3de3558f	0.111003034
114	0x39be97c2	0.00036352692
115	0xbd7ebaf4	-0.06219001
116	0xbb012cfd	-0.0019710653
117	0x3e667745	0.22506435
118	0x3d6e8671	0.058233682
119	0x3d5ab446	0.05339458
120	0xbd9779cf	-0.0739628
121	0xbdb591ba	-0.08865686
122	0x3ab558db	0.0013835685
123	0xbe168da7	-0.14702474
124	0xbd9ca56e	-0.07648741
125	0x3d97e447	0.07416587
126	0x3e2c4fbd	0.16827293
127	0x3d35c828	0.044380337
128	0x3dec4f70	0.11538589
129	0xbdcffc53	-0.10155549
130	0x3d18cce5	0.037304778
131	0x3de38d7b	0.1111097
132	0xbe0c9767	-0.1372963
133	0xbd958fae	-0.07302795
134	0x3d2c7f5e	0.042113654
135	0x3e1a6622	0.15078023
136	0x3e3d05dc	0.18459266
137	0x3d53e0af	0.051727947
138	0x3bce1e15	0.006290207
139	0x3d8490a9	0.06472904
140	0x3d65c136	0.056092463
141	0x3d9709c3	0.07374909
142	0x3d200aea	0.03907291
143	0xbe5c9c9e	-0.2154412
144	0x3dae7252	0.085178986
145	0x3de8c397	0.11365431
146	0x3e4ddaed	0.20103045
147	0x3b1355a1	0.0022481459
148	0x3caccab2	0.021092746
149	0x3d914bc7	0.070945315
150	0xbd152b98	-0.036418527
151	0xbd7b6e70	-0.06138462
152	0xbd510079	-0.05102584
153	0x3e00464e	0.12526819
154	0xbd3aa835	-0.04557057
155	0xbca14fc6	-0.01969136
156	0x3db13c22	0.086540475
157	0x3c9edb68	0.01939173
158	0x3c1185ee	0.008882029
159	0x3e595038	0.21222007
160	0x3e3d5dc3	0.18492799
161	0x3e3af4a5	0.18257387
162	0xbd165788	-0.03670457
163	0x3cadba23	0.021206921
164	0x3dbef3fa	0.093238786
165	0xbe079f34	-0.13244325
166	0xbc80038b	-0.01562669
167	0x3dae40ef	0.08508479
168	0xbe483cbf	-0.19554423
169	0xbe3449ea	-0.17606321
170	0xbc6782eb	-0.014130334
171	0xbe11f40d	-0.14253254
172	0xbda9146c	-0.08255848
173	0x3cd4a184	0.025955923
174	0xbd672591	-0.05643231
175	0x3c94d642	0.018168572
176	0x3d484c29	0.048900757
177	0x3e32f93e	0.17477891
178	0x3e037d3d	0.12840743
179	0x3ce2910b	0.027657053
180	0xbe4df16c	-0.20111626
181	0xbe077463	-0.13227992
182	0xbccd52f8	-0.025063977
183	0xbe43ce92	-0.19121769
184	0xbe44ca5a	-0.19217816
185	0xbe2826df	-0.16421078
186	0xbd56cee5	-0.052443404
187	0xbe0cdf26	-0.13757
188	0xbea1b0ae	-0.31580108
189	0x3d4480f8	0.047974557
190	0x3bf8484d	0.0075769783
191	0xbe2e8196	-0.1704162
192	0x3d4f560d	0.050619174
193	0x3d97c72e	0.074110374
194	0xbd3e07e8	-0.04639426
195	0x3e484bfd	0.19560237
196	0x3de65b0f	0.11247837
197	0xbe0434b8	-0.12910736
198	0xbd4a0c7f	-0.049328323
199	0xbc1dbfc1	-0.009628237
200	0xbc3d80c7	-0.011566347
201	0x3da162ff	0.0788021
202	0x3d9d877a	0.07691856
203	0x3d95f500	0.07322121
204	0xbd2986f4	-0.041388467
205	0xbc63554e	-0.013875319
206	0x3dfd8490	0.123788
207	0xbd67d75b	-0.056601863
208	0xbce18b8f	-0.027532367
209	0x3c6e2a3c	0.014536437
210	0x3cb431bc	0.021996371
211	0xbca5cc1f	-0.020238934
212	0xbe539d5c	-0.20665497
213	0x3c41f873	0.01183902
214	0xbdf2ae99	-0.11849708
215	0xbe364246	-0.17798719
216	0x3d8f0d4c	0.06984958
217	0xbdf148c6	-0.117814586
218	0xbd2b14dc	-0.04176794
219	0x3d62bb45	0.055354375
220	0xbdd3b772	-0.10337724
221	0xbe1b1b0d	-0.15147038
222	0xbc47f125	-0.012203489
223	0x3c97b74b	0.018520018
224	0xbdc7f095	-0.09762684
225	0xbd95feae	-0.07323967
226	0x3d977921	0.073961504
227	0x3da58ab5	0.08083097
228	0xbdb357af	-0.08756959
229	0x3e0aaaaf	0.13541673
230	0x3d29426d	0.041323114
231	0xbaca015d	-0.0015411783
232	0x3dbd41e7	0.092410855
233	0xbd28bb4e	-0.041194253
234	0xbde52dd7	-0.11190384
235	0x3dde1424	0.10843685
236	0x3d898a4d	0.06715832
237	0x3c19a029	0.009376564
238	0x3dddf2c2	0.10837318
239	0xbe0adf8c	-0.13561839
240	0xbda23c71	-0.079216845
241	0x3d538c37	0.05164739
242	0x3d686258	0.056734413
243	0x3d6c12be	0.05763506
244	0xbe26fe7c	-0.16308016
245	0xbdd00617	-0.101574115
246	0x3dc47b63	0.09593847
247	0xbe256a90	-0.16153932
248	0xbd982575	-0.07429019
249	0xbdca3830	-0.09873998
250	0xbe08d1eb	-0.13361327
251	0x3c9b9bdb	0.018995216
252	0xbe2cf2ae	-0.1688945
253	0x3e6a6a8f	0.22892211
254	0x3d41b592	0.0472923
255	0xbd215380	-0.039386272

layer1.0.bn1.weight f4 [16]
0	0x3f837539	1.0270149
1	0x3f6ce964	0.92543626
2	0x3f79aecb	0.9753234
3	0x3f706873	0.93909377
4	0x3f64825c	0.8926141
5	0x3f7c9ec4	0.9867976
6	0x3f776014	0.9663098
7	0x3f8e767d	1.112991
8	0x3f5676e7	0.8377518
9	0x3f9007be	1.1252363
10	0x3f758219	0.9590164
11	0x3f6683e3	0.90044993
12	0x3f99100a	1.195802
13	0x3f7c387a	0.98523676
14	0x3f716632	0.9429656
15	0x3f9282b9	1.1446143

layer1.0.bn1.bias f4 [16]
0	0x3e5c8230	0.21534038
1	0xbe2987de	-0.16555735
2	0xbdfa54cc	-0.12223205
3	0x3d2392d9	0.039934967
4	0xbe8dad6d	-0.27671376
5	0x3d63c45f	0.055607196
6	0x3d54fb46	0.051997446
7	0x3c6cd9dd	0.0144562395
8	0xbe0b8dff	-0.13628386
9	0x3e83f9be	0.25776476
10	0xbe3862a1	-0.18006374
11	0xbe274817	-0.16336094
12	0x3ea9aab6	0.33138055
13	0xbe52af74	-0.20574743
14	0xbe360423	-0.17775016
15	0x3e9bbc49	0.30417088

layer1.0.bn1.running_mean f4 [16]
0	0xbc5f91e9	-0.013645628
1	0xbf3952e1	-0.7239209
2	0xbf86687e	-1.0500638
3	0xbf8dd39e	-1.1080205
4	0x3fc9232f	1.5713862
5	0xbf7cfe33	-0.9882538
6	0x3d17af9c	0.03703271
7	0xbe980bcb	-0.29696497
8	0xbe268682	-0.16262248
9	0xbe45b02c	-0.19305485
10	0x3f0b061d	0.54306203
11	0xbf465544	-0.77473855
12	0xbf4723ca	-0.77788985
13	0x3ddf56e1	0.10905243
14	0x3e183e94	0.14867622
15	0xbfc0e3d4	-1.5069528

layer1.0.bn1.running_var f4 [16]
0	0x3f4d25fd	0.8013609
1	0x3fe0f6a8	1.7575274
2	0x40051567	2.0794313
3	0x40167851	2.3510935
4	0x3fc5c3ef	1.5450419
5	0x3fd3bd77	1.6542195
6	0x3f57fac6	0.84367025
7	0x3f65e587	0.89803356
8	0x3fdb8470	1.7149792
9	0x3f5be2d6	0.85893
10	0x3f7880e3	0.97071666
11	0x3f42b540	0.76057816
12	0x3f83e0b5	1.030295
13	0x3f6e30f9	0.93043476
14	0x3f7b10e3	0.9807264
15	0x3fa102a8	1.2578936

layer1.0.conv2.weight f4 [16, 16, 3, 3]
0	0x3ce18713	0.027530229
1	0x3dbb3ca4	0.09142426
2	0x3c91880d	0.01776507
3	0xbe034f26	-0.12823161
4	0x3d96f527	0.07370978
5	0xbe187548	-0.14888489
6	0xbc28e5cf	-0.010308697
7	0xbe396bea	-0.18107572
8	0xbe0b3668	-0.13594973
9	0xbd2ba658	-0.041906685
10	0xbdc53427	-0.09629088
11	0xbd1b735d	-0.037951816
12	0x3a9efc57	0.0012129646
13	0xbd375703	-0.044760715
14	0xbd43d581	-0.047811035
15	0x3d051856	0.03249391
16	0xbc83a5da	-0.016070295
17	0xbc722239	-0.014778667
18	0xbdac235d	-0.084051825
19	0xbd89b7fc	-0.06724545
20	0xbc6d673d	-0.014489946
21	0xbd97f616	-0.07419984
22	0xbd86c7c1	-0.06581069
23	0xbdcd6bc0	-0.10030317
24	0xbda00b06	-0.078146026
25	0xbd9df71c	-0.07713148
26	0xbd266268	-0.04062119
27	0xbdae4f73	-0.085112475
28	0xbd7c88c8	-0.061653882
29	0xbdc907d6	-0.09815948
30	0xbde37ae3	-0.11107423
31	0xbd943b89	-0.07237918
32	0x3daefe7f	0.08544635
33	0xbdcd8fe0	-0.100372076
34	0x3cb8dc3c	0.022565953
35	0x3d463bd9	0.04839692
36	0x3dca2c75	0.09871761
37	0xbdfd5914	-0.12370506
38	0x3aa78c52	0.0012782908
39	0xbd79309d	-0.060837377
40	0xbdc1bf70	-0.09460342
41	0xbdbd60b7	-0.092469625
42	0x3db6820e	0.08911525
43	0xbd31c128	-0.0433971
44	0x3cae7f62	0.021300975
45	0xbb837a71	-0.004012399
46	0xbe2597f1	-0.16171242
47	0xbd55bda1	-0.052182797
48	0x3df24e2d	0.11831317
49	0xbdac02c4	-0.08398965
50	0xbe16b884	-0.14718825
51	0xbd1b50cb	-0.037918847
52	0xbdd406e1	-0.103528745
53	0xbdfe4b63	-0.124167226
54	0x3dac8d7b	0.08425423
55	0xbdbb3936	-0.091417715
56	0xbe27dafd	-0.16392131
57	0x3d68a36b	0.056796473
58	0x3e03f793	0.12887411
59	0xbdb680eb	-0.08911308
60	0x3e167197	0.14691769
61	0x3da36307	0.07977872
62	0x3c7e0318	0.015503667
63	0xbccfb294	-0.025353707
64	0xbe36fb02	-0.1786919
65	0x3a34b048	0.0006892723
66	0x3c863b83	0.0163858
67	0xbe7823e5	-0.24232443
68	0x3d010aaa	0.03150431
69	0xbd2b271a	-0.041785337
70	0xbda48d5a	-0.08034773
71	0xbd9922d9	-0.0747735
72	0x3dd27c35	0.10277597
73	0xbd79df12	-0.061003752
74	0x3b79c716	0.003811305
75	0x3dd08e54	0.10183397
76	0xbda705d4	-0.081554085
77	0xbe0f9c3d	-0.14024444
78	0x3ba5342a	0.005041619
79	0xbe42fc14	-0.19041473
80	0xbe7a9283	-0.24469952
81	0xbe224547	-0.1584674
82	0xbdde7137	-0.10861438
83	0xbe280a4f	-0.16410182
84	0xbe24b6b4	-0.1608532
85	0xbda8b8f2	-0.082384005
86	0xbd546ec1	-0.051863436
87	0x3de627d6	0.11238067
88	0x3d79b80e	0.060966544
89	0xbda59fbc	-0.080871075
90	0xbd10c9d2	-0.03534872
91	0xbd8a59b4	-0.06755391
92	0xbd8357d8	-0.06413239
93	0xbdbffb3e	-0.093740925
94	0xbdcdfe78	-0.10058302
95	0xbdc4a631	-0.09602011
96	0xbd3beeb3	-0.04588194
97	0xbcc57847	-0.024105204
98	0xbd95b9b2	-0.07310809
99	0x3e39b674	0.18136007
100	0xbd1da663	-0.038488757
101	0x3e2e44d3	0.17018442
102	0x3e43f007	0.19134532
103	0xbd435082	-0.0476842
104	0x3d34a092	0.044098444
105	0x3e2cdb09	0.1688043
106	0xbdcc4ba1	-0.099753626
107	0xbe6bfd32	-0.23045805
108	0x3b6b8929	0.0035939908
109	0xbcb559d5	-0.022137562
110	0xba160a79	-0.00057236064
111	0x3dc211ed	0.09476075
112	0x3e60866a	0.21926275
113	0xbe5e3341	-0.2169924
114	0x3d315f01	0.043303493
115	0x3d8acfb9	0.06777901
116	0xbe520251	-0.20508696
117	0xbe0b6890	-0.13614106
118	0xbe43733e	-0.1908693
119	0xbe8e3591	-0.27775243
120	0xbe011e1a	-0.12609139
121	0xbdc3cd46	-0.09560637
122	0xbbe7a738	-0.0070694946
123	0x3df55f76	0.11981098
124	0x3cf4b2c1	0.029870393
125	0x3a24e672	0.00062904425
126	0x3b0e0f07	0.0021676437
127	0xbdf15773	-0.11784258
128	0x3cec9743	0.028880721
129	0x3d5ab0ef	0.053391393
130	0xbe15e1ff	-0.14636992
131	0xbd547b81	-0.051875595
132	0xbd824a60	-0.06361842
133	0xbde5d020	-0.11221337
134	0xbd894676	-0.067028925
135	0x3c67f40b	0.0141573055
136	0x3d7a34de	0.061085574
137	0xbdee2b66	-0.11629371
138	0x3d54ee4c	0.05198507
139	0x3e3f615c	0.18689483
140	0x3e51b8c5	0.2048064
141	0xbc0b87c8	-0.0085162595
142	0x3b97bd19	0.0046306965
143	0x3d0b9e6f	0.03408664
144	0x3d97f1a7	0.074191384
145	0x3e343a16	0.17600283
146	0x3de0c47a	0.10974975
147	0x3c665407	0.01405812
148	0xbc23c418	-0.009995483
149	0x3baad785	0.00521368
150	0x3d893154	0.06698862
151	0xbe937606	-0.28800982
152	0xbe3da305	-0.18519218
153	0x3e43b332	0.19111326
154	0x3d86ecb2	0.06588115
155	0x3d8f1dfa	0.069881395
156	0x3d9682b0	0.073491454
157	0xbe40aea4	-0.1881662
158	0x3d763e70	0.06011814
159	0xbd8fbca4	-0.07018402
160	0xbdf83ae2	-0.12120606
161	0xbc78d392	-0.015187161
162	0x3e6c5aea	0.23081556
163	0x3e95d190	0.29261446
164	0x3e40db8a	0.18833748
165	0x3d249585	0.040181655
166	0xbd91a925	-0.0711234
167	0x3d975871	0.07389916
168	0xbdcd45d8	-0.10023087
169	0xbdbdfc05	-0.092765845
170	0xbe0faece	-0.14031526
171	0x3c4d0a15	0.012514611
172	0xbdaa5e16	-0.08318727
173	0x3df3de00	0.119075775
174	0xbdc06816	-0.09394853
175	0xbda7cda6	-0.08193521
176	0xbb01ce4d	-0.0019806803
177	0xbd955c08	-0.07292944
178	0x3dfd4186	0.12366013
179	0xbc427733	-0.01186924
180	0x3d6d94ae	0.05800312
181	0xbd8a5043	-0.0675359
182	0xbdbba45b	-0.09162208
183	0x3d8d57c4	0.069015056
184	0xbd7caf7e	-0.0616908
185	0xbd0c5672	-0.03426213
186	0xbd9ac4c9	-0.07557065
187	0x3c8c9c80	0.017164469
188	0xbd662cce	-0.056195073
189	0x3dbc9bdc	0.09209415
190	0x3de4fd91	0.111811765
191	0x3b9e0ca9	0.0048232866
192	0x3e16fc66	0.1474472
193	0x3d7b9406	0.061420463
194	0xbd646612	-0.055761404
195	0x3dbeb52e	0.09311901
196	0x3d146994	0.0362335
197	0x3d9bfe1c	0.07616827
198	0xbe8670a1	-0.26257804
199	0x3d05a161	0.032624606
200	0xbd47209c	-0.048615083
201	0xbe259fe1	-0.1617427
202	0x3d3eac9a	0.046551324
203	0x3c0d35b1	0.008618758
204	0x3d51bc0b	0.051204722
205	0xbe1055ac	-0.14095181
206	0x3d24fb1f	0.04027855
207	0xbdc8fb81	-0.098135956
208	0xbe900a22	-0.2813273
209	0xbdfbd4a2	-0.12296416
210	0xbe1c1eb8	-0.15246093
211	0xbe13912c	-0.14410847
212	0xbe2ac4c8	-0.16676629
213	0x3d3d93a8	0.046283394
214	0x3d9969e9	0.07490904
215	0x3d3abfaf	0.04559296
216	0xbd491ced	-0.04909985
217	0xbdcb4844	-0.09925893
218	0x3d9d3b4e	0.07677327
219	0xbb303b70	-0.0026890896
220	0x3d84dd73	0.064875506
221	0x3d75e4fb	0.060032826
222	0x3d846ab2	0.06465663
223	0xbcc0217f	-0.023453472
224	0xbcdc7c1f	-0.026914654
225	0xbe07c4fc	-0.13258737
226	0xbdbfb356	-0.093603775
227	0xbe02c849	-0.12771715
228	0xbe7394e5	-0.23787268
229	0xbd99a1a3	-0.07501533
230	0xbe9d1907	-0.30683157
231	0xbda243f0	-0.07923114
232	0xbd9815df	-0.074260466
233	0xbd6b8d83	-0.057508003
234	0xbde854ee	-0.11344324
235	0xbe0494d4	-0.12947398
236	0x3c403120	0.011730462
237	0xbe06abee	-0.13151523
238	0xbd1a9cfd	-0.037747372
239	0xbdcf5af3	-0.10124769
240	0xbd8a3451	-0.0674826
241	0xbbae7dba	-0.0053250464
242	0x3c47b96a	0.012190202
243	0x3d1e56f1	0.038657133
244	0xbd9aab89	-0.07552249
245	0x3d20d9f1	0.039270345
246	0x3bf085e8	0.0073401816
247	0x3db80823	0.08985927
248	0x3dda81ad	0.10669265
249	0xbd0288e2	-0.031868823
250	0x3e02be34	0.12767869
251	0x3cdec0f1	0.027191611
252	0xbd901ee0	-0.07037139
253	0xbc871da7	-0.016493632
254	0x3bb1cab8	0.0054257773
255	0xbdcebd6b	-0.10094722

layer1.0.bn2.weight f4 [16]
0	0x3f87c126	1.0605819
1	0x3f89e0e0	1.0771751
2	0x3f66740e	0.90020835
3	0x3f7254ca	0.9466063
4	0x3f7352eb	0.950484
5	0x3f6d7a8d	0.9276512
6	0x3f8ac062	1.083996
7	0x3f8245da	1.0177567
8	0x3f6bee33	0.9216034
9	0x3f89d8d2	1.0769293
10	0x3f6de186	0.92922246
11	0x3f6f9471	0.9358588
12	0x3f7fe45f	0.9995784
13	0x3f87de3e	1.0614698
14	0x3f863ade	1.0486715
15	0x3f57352f	0.84065527

layer1.0.bn2.bias f4 [16]
0	0x3e191d1b	0.14952509
1	0x3e1d17d5	0.15341122
2	0xbe8a232e	-0.26979965
3	0xbdf1fd2d	-0.118158676
4	0xbc2c3186	-0.010509854
5	0xbdaf2c58	-0.0855338
6	0x3cf0f8ba	0.029415477
7	0xbda0e01f	-0.07855248
8	0xbdd8a6c5	-0.10578684
9	0xbdd6be4d	-0.10485516
10	0x3d75608c	0.059906527
11	0xbe27dd13	-0.16392927
12	0xbe8fe500	-0.281044
13	0x3ea71315	0.32631746
14	0xbe2e6ae5	-0.17032965
15	0xbe00b345	-0.12568386

layer1.0.bn2.running_mean f4 [16]
0	0xbfceef01	-1.6166688
1	0xbf931df6	-1.1493518
2	0x3f857d6e	1.0428903
3	0xbe60d4f2	-0.21956232
4	0xbf190caf	-0.5978498
5	0xbe954882	-0.29156882
6	0x3e1f71d4	0.15570766
7	0xbfa34daa	-1.2758076
8	0x3e879f5e	0.26488775
9	0xbe4f611c	-0.20251888
10	0xbfa3165c	-1.2741199
11	0xbf104045	-0.5634807
12	0x3e5650ce	0.20929262
13	0xbf88c9a9	-1.0686542
14	0xbd914e9d	-0.070950724
15	0x3e098976	0.13431343

layer1.0.bn2.running_var f4 [16]
0	0x3fbec720	1.4904518
1	0x3fd2092f	1.6409053
2	0x3fa0081a	1.2502472
3	0x3f75f5f7	0.9607844
4	0x3f722654	0.94589734
5	0x3f85c5a8	1.0450945
6	0x3f6c97ad	0.9241894
7	0x400047e7	2.0043886
8	0x3fbccc2b	1.4749807
9	0x3f3ea92f	0.74476904
10	0x3fa476eb	1.2848791
11	0x3fa82435	1.313605
12	0x3f4f959d	0.81087667
13	0x3f84d784	1.037827
14	0x3f5efcfd	0.8710478
15	0x3f8ddaf8	1.1082449

layer1.1.conv1.weight f4 [16, 16, 3, 3]
0	0x3e6f7221	0.2338338
1	0x3d99d4be	0.075112805
2	0xbd42927d	-0.047502983
3	0xbe1b6d81	-0.15178491
4	0xbe12561c	-0.1429066
5	0x3d94e756	0.07270686
6	0xbdb02c45	-0.08602194
7	0x3d55f7f0	0.052238405
8	0xbd845332	-0.06461181
9	0x3df34518	0.11878413
10	0xbe03fca9	-0.12889351
11	0xbb5fd26e	-0.0034152525
12	0xbe05292e	-0.1300399
13	0xbda6d1c4	-0.08145478
14	0x3e804b80	0.25057602
15	0xbc8b9da5	-0.017042944
16	0x3e458602	0.19289401
17	0xbc7a1c16	-0.015265485
18	0x3e1368f1	0.143955
19	0xbd66ae5d	-0.05631863
20	0xbd51f4b8	-0.051258773
21	0x3d3eb4c2	0.046559103
22	0xbdcf1f71	-0.10113419
23	0xbdebe3cf	-0.115180604
24	0xbb0418dc	-0.002015642
25	0xbd0d2c62	-0.034466155
26	0xbc2f09d8	-0.010683499
27	0xbdd37e11	-0.1032678
28	0xbe44a2a6	-0.1920267
29	0x3dcf2549	0.101145335
30	0xbe551e8d	-0.20812435
31	0x3dd5373b	0.10410925
32	0x3e404157	0.18774925
33	0xbcaa1aae	-0.020764675
34	0x3de348b8	0.110978544
35	0x3d5016cf	0.050803002
36	0x3d422abb	0.047404032
37	0xbdd74ca6	-0.105126664
38	0xbe21e3f0	-0.15809608
39	0xbb6a0a45	-0.0035711688
40	0x3dafe6a1	0.08588911
41	0x3d83cbc8	0.064353526
42	0x3b2698f4	0.0025420757
43	0xbe3af312	-0.18256786
44	0xbe1e784c	-0.15475577
45	0x3dab26de	0.08357023
46	0xbe41db25	-0.18931253
47	0x3cc70c65	0.024297902
48	0xbe36e4ac	-0.17860669
49	0x3c7a5a07	0.015280253
50	0x3dd840fa	0.10559268
51	0x3c16d9cd	0.009207201
52	0x3e4e2aba	0.20133486
53	0x3a879cb9	0.001034639
54	0x3e821e22	0.25413615
55	0x3df8932e	0.12137447
56	0x3c2b26b6	0.010446241
57	0xbd8931e2	-0.066989675
58	0xbe6769d4	-0.22598964
59	0xbdac2071	-0.08404625
60	0xbdf93cb3	-0.121697806
61	0x3d031cdc	0.032009944
62	0x3e0b89d7	0.136268
63	0xbd2322e4	-0.039828196
64	0x3e055c36	0.13023457
65	0x3db76493	0.0895473
66	0x3d23d8f0	0.04000181
67	0xbdea0bf3	-0.114280604
68	0xbd952029	-0.07281525
69	0xbb7b4ee7	-0.003834659
70	0x3d51e6df	0.051245566
71	0x3e025bf2	0.12730387
72	0xbd2e6b40	-0.04258275
73	0xbcf534cc	-0.029932402
74	0xbd2f6c1a	-0.042827703
75	0x3dd3e685	0.103467025
76	0xbe09f208	-0.13471234
77	0xbda46221	-0.08026529
78	0xbd880138	-0.066408575
79	0x3d49bfb4	0.049255088
80	0x3dc93900	0.09825325
81	0xbc889158	-0.016670868
82	0x3e03a4f9	0.12855901
83	0x3d8db166	0.06918602
84	0x3e0814d9	0.13289203
85	0xbcefa4ea	-0.029253442
86	0xbd86ee61	-0.06588436
87	0xbc00e696	-0.007867476
88	0xbde7f4e9	-0.1132601
89	0x3db06823	0.086136125
90	0xbe5d92d1	-0.21638037
91	0x3d5b78c9	0.053581987
92	0x3dc47aa5	0.09593705
93	0x3cd6b579	0.02620958
94	0x3e1b62ed	0.15174456
95	0xbd2b8c32	-0.041881748
96	0x3dea2a22	0.114338174
97	0xbc9a5512	-0.018839393
98	0xbe5076f4	-0.20357877
99	0x3dd4fe92	0.10400118
100	0xbdce0680	-0.100598335
101	0xbde22af5	-0.1104335
102	0xbddd0101	-0.10791207
103	0xbc90d5fa	-0.017680157
104	0xbd301390	-0.042987406
105	0x3c2b5aa2	0.01045862
106	0x3cf1059a	0.029421616
107	0x3cf02ba9	0.029317694
108	0xbcccbafe	-0.024991509
109	0x3dd3f147	0.103487544
110	0xbce9731f	-0.028497277
111	0x3e64479e	0.22292945
112	0x3cb19ec0	0.021682143
113	0xbcb06c2b	-0.021535954
114	0xbc4301ac	-0.011902254
115	0xbe88c467	-0.26712343
116	0xbda90494	-0.08252826
117	0xbe77e484	-0.24208266
118	0x3e1c266f	0.15249036
119	0xbd500bc5	-0.050792474
120	0x3e2c8096	0.16845927
121	0xbdcf0953	-0.101092
122	0xbe315fad	-0.17321654
123	0xbe06e543	-0.13173394
124	0xbe2b4ae8	-0.16727793
125	0x3e32eb71	0.17472626
126	0x3e21a2fa	0.15784827
127	0xbc62dcb1	-0.013846562
128	0xbe77fdff	-0.24217986
129	0x3d7e0b16	0.06202229
130	0xbe582801	-0.2110901
131	0xbdb9b7be	-0.09068249
132	0xbe940de1	-0.2891684
133	0x3e4293b2	0.19001654
134	0x3d08b280	0.033373356
135	0x3de16d96	0.1100723
136	0x3c3fdb5b	0.011710013
137	0xbd875fe2	-0.06610085
138	0x3d620b0d	0.05518632
139	0xbd09bf37	-0.033629622
140	0x3d250704	0.040289894
141	0xbcb293f1	-0.02179906
142	0x3d1a629b	0.037691694
143	0xbe397cb4	-0.18113977
144	0xbded786d	-0.11595235
145	0x3d37378a	0.0447307
146	0x3c038dbc	0.008029398
147	0xbcfedb9c	-0.031110577
148	0x3c314108	0.010818727
149	0x3e3f2017	0.18664585
150	0xbca84d4e	-0.020544674
151	0xbda94fe9	-0.08267195
152	0x3e26c46d	0.16285868
153	0xbd0a21f4	-0.033723786
154	0xbdc5138b	-0.09622868
155	0xbde9dd11	-0.11419118
156	0x3e0e4a09	0.1389543
157	0x3d7a8b9b	0.061168294
158	0xbd194abf	-0.0374248
159	0x3dd0759c	0.10178682
160	0x3d857c89	0.06517894
161	0x3daf7356	0.085669205
162	0xbdbe51b8	-0.0929293
163	0xbbcae4f9	-0.0061918464
164	0x3de75e05	0.1129723
165	0xbd325be1	-0.043544654
166	0x3cec90b7	0.0288776
167	0xbc63f427	-0.013913191
168	0xbdebeeaf	-0.11520135
169	0xbe0803c4	-0.13282686
170	0xbe24d258	-0.16095865
171	0x3c5b7077	0.013393513
172	0xbbd58ee5	-0.0065172785
173	0xbd03ef75	-0.032210786
174	0xbd21a4c1	-0.039463762
175	0xbc924eb6	-0.017859798
176	0xbd983945	-0.07432798
177	0x3db5b135	0.0887169
178	0x3b1f4868	0.0024304632
179	0xbe21d80f	-0.15805076
180	0xbe3d5ded	-0.18492861
181	0xbe57ccb7	-0.21074186
182	0x3be3dfc9	0.0069541675
183	0xbe342fea	-0.17596403
184	0xbdceb4ee	-0.10093103
185	0xbe18fd12	-0.14940289
186	0xbd3bb741	-0.04582906
187	0xbd66e6dc	-0.05637251
188	0xbde2daa0	-0.11076856
189	0xbdb2b432	-0.08725776
190	0xbe33f2b2	-0.1757305
191	0xbda4f37f	-0.08054256
192	0x3cab890e	0.020939376
193	0x3db7a347	0.089666896
194	0x3c9a9927	0.018871857
195	0x3e2a4f23	0.16631751
196	0x3d99c709	0.07508666
197	0x3d8eb241	0.06967593
198	0xbdc9a609	-0.09846122
199	0xbdf2fa67	-0.11864167
200	0xbda8a6ad	-0.08234916
201	0xbe5bf8e4	-0.21481663
202	0xbe8b2488	-0.2717631
203	0xbe2c50b9	-0.16827668
204	0xbdd294ff	-0.10282325
205	0xbd5f13eb	-0.054462355
206	0xbdbcd0e7	-0.092195325
207	0x3ddc03fa	0.10742946
208	0x3cb4af79	0.022056328
209	0x3d63bb77	0.055598702
210	0x3e06794b	0.13132207
211	0x3dc0d196	0.09414975
212	0x3d8f4029	0.069946595
213	0x3e0680a4	0.1313501
214	0x3da6ed01	0.08150674
215	0x3d3e0eda	0.046400882
216	0x3d904d20	0.070459604
217	0xbddd6cf8	-0.108118
218	0xbdd55792	-0.10417093
219	0xbd337dd9	-0.04382119
220	0x3d82c850	0.06385863
221	0x3d120fd4	0.035659626
222	0xbd4752d1	-0.048662964
223	0x3db1ccf1	0.086816676
224	0x3c07960c	0.00827552
225	0xbdc62103	-0.09674265
226	0xbd3e9c4c	-0.046535775
227	0xbc3ba759	-0.011453473
228	0xbe10e2d9	-0.14149036
229	0xbeb1e445	-0.34744468
230	0xbc959b55	-0.018262545
231	0xbd0ced2b	-0.03440587
232	0xbe5c3735	-0.21505435
233	0xbe2c05b0	-0.16799045
234	0x3c902269	0.017594533
235	0x3d46b3d5	0.048511345
236	0x3d102e77	0.035200562
237	0x3e185f55	0.14880116
238	0x3dbad1b2	0.091220275
239	0xbac5033b	-0.001503087
240	0x3d730759	0.05933318
241	0x3d62b967	0.055352595
242	0xbcad6687	-0.021167053
243	0xbd902ca6	-0.07039766
244	0xbd055c5a	-0.032558776
245	0xbd400ae8	-0.0468854
246	0xbdbd9f5c	-0.09258911
247	0x3d3418cb	0.043968957
248	0x3e057837	0.1303414
249	0xbd1be75b	-0.038062435
250	0xbdb1d541	-0.08683253
251	0x3ccf6a23	0.025319165
252	0x3da0bd9f	0.07848667
253	0x3c731504	0.0148365535
254	0x3d47c493	0.048771452
255	0x3d779772	0.060447164

layer1.1.bn1.weight f4 [16]
0	0x3f9dd541	1.2330705
1	0x3f6578fd	0.8963774
2	0x3fa76736	1.3078372
3	0x3f64f4e7	0.8943619
4	0x3f8768bc	1.0578837
5	0x3f64b42a	0.8933741
6	0x3f850314	1.0391564
7	0x3f7b25a9	0.9810434
8	0x3f5c34ce	0.86018074
9	0x3f76d0ec	0.9641254
10	0x3f7f160b	0.9964301
11	0x3f595089	0.8488851
12	0x3f74429f	0.95414156
13	0x3f7af6f2	0.9803306
14	0x3f70b446	0.94025075
15	0x3f760a9e	0.9610995

layer1.1.bn1.bias f4 [16]
0	0xbe47231a	-0.19446984
1	0xbdf7088c	-0.12062177
2	0x3e9d062f	0.3066878
3	0xbdd16bde	-0.10225652
4	0xbd9427bd	-0.07234142
5	0xbe24b7e6	-0.16085777
6	0xbe42e15b	-0.19031279
7	0xbd19c2cf	-0.0375393
8	0xbd93b153	-0.07211556
9	0xbe49199e	-0.19638678
10	0xbe11c3a5	-0.14234789
11	0xbe758251	-0.23975493
12	0xbe438297	-0.19092785
13	0xbe5c3d38	-0.21507728
14	0xbc185dba	-0.00929969
15	0xbe8ef148	-0.27918458

layer1.1.bn1.running_mean f4 [16]
0	0xbf65005f	-0.8945369
1	0xc017e7f8	-2.3735332
2	0xbf800fdc	-1.000484
3	0xc00b803f	-2.1797025
4	0xbfd26f2c	-1.6440177
5	0x3fd770d4	1.6831307
6	0xbef7e564	-0.484172
7	0xbeedb610	-0.46427965
8	0xb9bae4fc	-0.0003564729
9	0xbedf86e7	-0.4365761
10	0xc029f18b	-2.6553676
11	0xc02c278e	-2.6899142
12	0xbefd3806	-0.49456805
13	0xbef5afdb	-0.4798573
14	0xc0387c7b	-2.8825977
15	0x40639edb	3.5565708

layer1.1.bn1.running_var f4 [16]
0	0x4023c005	2.558595
1	0x40a8f479	5.279843
2	0x407a9de9	3.915888
3	0x4059d71c	3.4037542
4	0x4073e6a7	3.810953
5	0x406fc741	3.7465365
6	0x405b8129	3.4297583
7	0x40727ebd	3.7889855
8	0x400896c5	2.1342022
9	0x402ab465	2.6672604
10	0x4018731c	2.3820257
11	0x40559cea	3.3377023
12	0x402d3a40	2.7066803
13	0x40a545fa	5.164792
14	0x401b0638	2.4222546
15	0x403d2044	2.9550943

layer1.1.conv2.weight f4 [16, 16, 3, 3]
0	0x3d89b149	0.067232676
1	0x3df2cdb1	0.11855639
2	0xbdad7c21	-0.08470941
3	0x3d7ddcd3	0.061978173
4	0xbe4ea69b	-0.20180742
5	0xbd97b004	-0.07406619
6	0xbd7c0848	-0.061531335
7	0xbdb1df78	-0.086852014
8	0x3e04ada1	0.12956859
9	0x3dfef510	0.12449086
10	0xbdaa4817	-0.08314531
11	0xbd21c757	-0.039496746
12	0x3d8ec911	0.06971944
13	0x3dc6f62a	0.09714921
14	0xbe0a4202	-0.13501742
15	0xbd5dc52c	-0.054143116
16	0x3d46bec9	0.04852179
17	0xbdcab83e	-0.09898423
18	0xbdb439c9	-0.08800084
19	0xbe5f1b58	-0.21787775
20	0xbd095108	-0.033524543
21	0xbdefa990	-0.11702263
22	0xbe935767	-0.2877762
23	0x3e2c1ded	0.16808291
24	0xbd8ae6f7	-0.06782334
25	0xbde3ab07	-0.11116605
26	0x3dde3d75	0.10851566
27	0xbdbd2c06	-0.092369124
28	0x3df4515b	0.1192958
29	0x3d22b4d2	0.039723225
30	0x3d76e1d4	0.06027396
31	0x3da1d88c	0.07902631
32	0x3dae9284	0.085240394
33	0x3c1b05d2	0.009461837
34	0x3e26129b	0.16218035
35	0xbb45d59b	-0.0030187133
36	0x3db6ff9e	0.08935474
37	0x3d41b532	0.047291942
38	0xbd9d7504	-0.076883346
39	0x3d9f4d3d	0.07778404
40	0x3e528fb2	0.20562628
41	0xbe1f9c59	-0.15586986
42	0xbdaa5142	-0.0831628
43	0x3e139e25	0.14415796
44	0xbd931c6d	-0.07183156
45	0x3e114ba6	0.14189014
46	0x3cdaf5fd	0.026728624
47	0xbc044193	-0.008072275
48	0x3e1f89aa	0.15579858
49	0x3e193f67	0.14965592
50	0xbc184aa5	-0.00929514
51	0x3e2aef62	0.1669288
52	0x3e0cbf82	0.1374493
53	0xbd049eaa	-0.032377876
54	0x3e5b2cdf	0.21403836
55	0x3dd4eee2	0.10397126
56	0x3dfc5779	0.123213716
57	0x3ceb89cb	0.028752228
58	0x3d9743bd	0.07385967
59	0x3e4651a9	0.19367088
60	0x3ca531c4	0.020165332
61	0xbdb7576d	-0.08952222
62	0x3d0e6baa	0.034770645
63	0xbd0a9881	-0.033836845
64	0xbd4f28c1	-0.050575975
65	0xbd8db179	-0.06918616
66	0x3c196260	0.009361833
67	0xbde380e4	-0.11108568
68	0x3d4c5fe9	0.049896155
69	0x3de3177b	0.11088463
70	0xbd81643e	-0.06317948
71	0xbce9cc34	-0.028539754
72	0x3d3e80f8	0.046509713
73	0xbd3b31ce	-0.045701794
74	0xbd96c659	-0.073620506
75	0xbd8f9261	-0.070103414
76	0xbd12e354	-0.03586133
77	0xbdc3738b	-0.095435224
78	0xbd92a37f	-0.07160091
79	0xbd92e95c	-0.07173416
80	0x3be3bfb6	0.006950344
81	0x3ded8852	0.11598267
82	0x3cc39f27	0.0238796
83	0xbe068133	-0.13135223
84	0x3ca3530d	0.019937063
85	0x3d330807	0.043708827
86	0xbd9de378	-0.07709402
87	0xbb89f171	-0.0042096903
88	0xbcd1ffb4	-0.025634624
89	0xbdf4df5c	-0.11956665
90	0x3d3164f3	0.043309163
91	0x3d32a89e	0.043617837
92	0x3d95f629	0.07322342
93	0x3de808e2	0.11329819
94	0x3de7f809	0.11326606
95	0x3dc90212	0.09814848
96	0x3cfd2de9	0.03090568
97	0x39529eba	0.00020086291
98	0xbdd9ed7b	-0.10640999
99	0x3a404805	0.00073349505
100	0xbdad236f	-0.08454024
101	0xbd07ddcc	-0.033170506
102	0x3ced36bb	0.028956762
103	0xbd407878	-0.046989888
104	0xbd3facf8	-0.046795815
105	0xbd7ae9de	-0.06125819
106	0xbdeb6c57	-0.114952736
107	0xbd9b1936	-0.07573168
108	0xbc369274	-0.011143316
109	0xbe85f291	-0.26161626
110	0xbd78e0b4	-0.06076117
111	0xbca8f757	-0.020625753
112	0xbec15c86	-0.37765902
113	0xbc84b656	-0.016200226
114	0xbe3a6a8c	-0.18204707
115	0xbedb025e	-0.42775244
116	0xbc7cc999	-0.015428924
117	0x3cad90ef	0.021187274
118	0x3cf67737	0.030086143
119	0xbcce15f9	-0.025156962
120	0x3d7b5a2d	0.061365295
121	0x3e6472b5	0.22309382
122	0x3dc7ad00	0.09749794
123	0x3dbdc786	0.09266572
124	0x3e25dc8d	0.16197415
125	0x3ddbdfb5	0.10736028
126	0xbe466b16	-0.19376788
127	0xbd577c68	-0.052608877
128	0x3d79fad6	0.06103023
129	0xbd300e3e	-0.042982332
130	0x3d93fa6d	0.07225499
131	0x3cdd60d7	0.027023716
132	0xbded9a43	-0.11601689
133	0x3d9a9505	0.075479545
134	0x3de0212e	0.109438285
135	0xbd79aa49	-0.060953412
136	0xbe64c1b5	-0.22339518
137	0xbe501929	-0.20322098
138	0x3d2fe61e	0.042944066
139	0xbd507fb9	-0.050903056
140	0xbe420a62	-0.18949273
141	0x3d6cfa0a	0.057855643
142	0xbc5b98ed	-0.01340316
143	0xbdc12315	-0.094305195
144	0x3c65a4d3	0.014016348
145	0x3dadafb8	0.08480781
146	0xbd841843	-0.0644994
147	0xbcf86e9a	-0.030326176
148	0xbe469ed0	-0.1939652
149	0xbdc38116	-0.095461056
150	0xbe3dc550	-0.185323
151	0x3aeed5ca	0.0018221673
152	0x3e68445f	0.22682332
153	0x3e156b30	0.1459167
154	0x3e25c53b	0.16188519
155	0x3e1f3b10	0.15549874
156	0xbd0ef1b8	-0.03489849
157	0x3db67813	0.08909621
158	0x3dcfc028	0.10144073
159	0xbdfb0661	-0.12257076
160	0xbe0e8187	-0.13916598
161	0xbdaa2de6	-0.08309536
162	0xbe21d2d1	-0.15803076
163	0xbe010e43	-0.12603097
164	0xbd2da11d	-0.042389978
165	0xbe777284	-0.24164778
166	0xbe6d84c5	-0.23195179
167	0x3e455377	0.1927012
168	0xbe289c6e	-0.16465923
169	0xbdc37a70	-0.095448375
170	0x3e0f4e74	0.13994771
171	0x3d70b422	0.058765538
172	0x3d4c2f37	0.049849715
173	0xbe1c86cb	-0.15285794
174	0x3cf066f1	0.029345961
175	0x3d90e407	0.07074743
176	0xbd847375	-0.06467334
177	0xbaaa9efe	-0.0013017354
178	0xbbb8f2cb	-0.0056441776
179	0x3cfd6832	0.030933473
180	0x3cc863e3	0.024461692
181	0x3dec5068	0.11538774
182	0xbdc4074a	-0.09571703
183	0x3d2f60b7	0.042816844
184	0x3dfd4a63	0.12367704
185	0xbd842fd4	-0.06454435
186	0x3deee874	0.11665431
187	0x3e1ea8ff	0.15494154
188	0xbdb0208b	-0.08599957
189	0xbce87adf	-0.028378902
190	0xbd0432ac	-0.032274887
191	0xbd4397da	-0.04775224
192	0xbdbac9d2	-0.091205254
193	0xbe1a1681	-0.15047647
194	0xbe24c6c2	-0.16091445
195	0x3be92cc0	0.0071159303
196	0xbe02a7dd	-0.12759347
197	0xbe337733	-0.1752594
198	0xbb5660b5	-0.003271145
199	0xbd753c80	-0.05987215
200	0x3dac2906	0.08406262
201	0x3d470c50	0.048595726
202	0xbe074521	-0.13209964
203	0x3cf1d273	0.029519295
204	0x3c4a3be3	0.01234338
205	0xbe642cfe	-0.22282788
206	0x3c23eb93	0.010004896
207	0x3d231c08	0.039821655
208	0xbe1c3127	-0.15253125
209	0xbdf0010a	-0.11718948
210	0xbc4bd498	-0.012440823
211	0xbe53e3dc	-0.2069239
212	0xbdfba6dd	-0.12287686
213	0xbd804e91	-0.06264985
214	0xbd959425	-0.07303647
215	0xbdcffcdf	-0.10155653
216	0x3d360e0a	0.044446982
217	0x3d85a527	0.06525641
218	0x3d94d238	0.072666585
219	0xbddc06fc	-0.1074352
220	0xbc21b2da	-0.009869302
221	0x3df2e8bf	0.11860799
222	0xbd3b4337	-0.045718398
223	0x3d952eaa	0.07284291
224	0x3e24a46c	0.16078347
225	0x3d764472	0.06012387
226	0x3cba8306	0.022767555
227	0xbdcbee76	-0.09957592
228	0x3ca41416	0.020029109
229	0x3ca59bb2	0.020215843
230	0xbd84488a	-0.06459148
231	0xbd86e862	-0.06587292
232	0xbd44b17c	-0.048020825
233	0xbd523a6f	-0.051325258
234	0x3de71fe3	0.11285379
235	0x3cd2dadc	0.025739126
236	0x3e1541ac	0.14575833
237	0xbc781301	-0.01514125
238	0xbda38e9e	-0.079861864
239	0xbce9f46a	-0.028558929
240	0xbd434b0a	-0.047678985
241	0x3c79338c	0.015210044
242	0x3dca4c75	0.09877864
243	0x3dd026fe	0.10163687
244	0x3c6a8196	0.014313122
245	0x3da90644	0.08253148
246	0x3b988a66	0.0046551703
247	0xbd86be57	-0.06579273
248	0xbcba22a4	-0.022721596
249	0xbda57d02	-0.08080484
250	0xbdca8fd9	-0.09890718
251	0x3d791be2	0.060817607
252	0x3dc6bdda	0.0970418
253	0xbcbfc260	-0.023408115
254	0xbc164b15	-0.009173174
255	0xbd93bae8	-0.07213384

layer1.1.bn2.weight f4 [16]
0	0x3f7c5e74	0.98581624
1	0x3f7ad1a1	0.9797612
2	0x3f56f965	0.83974296
3	0x3f7a97f0	0.9788809
4	0x3f6fa955	0.93617755
5	0x3f82c5ea	1.0216649
6	0x3f8614d8	1.0475111
7	0x3f866541	1.049965
8	0x3f4909db	0.78530663
9	0x3f76469e	0.96201503
10	0x3f7eca38	0.9952731
11	0x3f5acd8a	0.8546988
12	0x3f9011c3	1.125542
13	0x3f8c4db9	1.0961219
14	0x3f6c5c7f	0.9232864
15	0x3f62f13f	0.8864936

layer1.1.bn2.bias f4 [16]
0	0x3e627898	0.22116315
1	0x3e02036c	0.12696618
2	0xbe10a376	-0.14124855
3	0xbe1e54a0	-0.1546197
4	0xbe635bb5	-0.22202952
5	0xbe5e908a	-0.21734825
6	0xbdcc4743	-0.099745296
7	0x3db2f4d3	0.08738103
8	0xbcaf6e58	-0.02141492
9	0xbe7b482c	-0.2453925
10	0x3c946d34	0.018118478
11	0xbe6b8c3a	-0.23002711
12	0xbed16fac	-0.4090551
13	0x3dbb8d8e	0.09157859
14	0xbd67a989	-0.056558166
15	0xbe64f3dc	-0.2235865

layer1.1.bn2.running_mean f4 [16]
0	0xbedc45dd	-0.4302205
1	0xbf79e7fb	-0.976196
2	0x3d90350d	0.07041369
3	0xbf08bcf2	-0.5341331
4	0x3d598349	0.05310372
5	0xbb4a1a30	-0.0030838363
6	0xbfdad818	-1.7097197
7	0xbf77bebf	-0.9677543
8	0xbec7bf37	-0.39013073
9	0xbeb98350	-0.36232996
10	0xbf00c130	-0.5029478
11	0xbf83ea24	-1.0305829
12	0x3eabffec	0.3359369
13	0xbf0f5976	-0.5599588
14	0xbddb7281	-0.10715199
15	0x3d13bae1	0.036066893

layer1.1.bn2.running_var f4 [16]
0	0x4009ff21	2.1561968
1	0x3f87e8ae	1.0617883
2	0x3f4f839f	0.8106021
3	0x3f85709e	1.0424993
4	0x3f8ef4e2	1.1168482
5	0x3f843a52	1.0330298
6	0x3fb264ef	1.3937052
7	0x3fd18e6d	1.637159
8	0x3f87ae90	1.0600147
9	0x3fd3b240	1.6538773
10	0x3fd49571	1.6608106
11	0x3f882b1d	1.0638157
12	0x3f89a3fa	1.0753167
13	0x3f98ee8d	1.19478
14	0x3fa22985	1.2668921
15	0x3f9779e0	1.1834068

layer2.0.conv1.weight f4 [32, 16, 3, 3]
0	0xbe4d3c34	-0.20042497
1	0x3db35a27	0.087574296
2	0x3e3ea23d	0.18616576
3	0xbd1a3196	-0.037644945
4	0xbe0005d5	-0.12502225
5	0x3df265a5	0.118357934
6	0x3e4106be	0.18850228
7	0x3bb310a5	0.0054646307
8	0xbe1b133e	-0.15144059
9	0xbdb22ad4	-0.08699575
10	0x3da29a52	0.079395905
11	0x3cc71a38	0.024304494
12	0xbe13d01a	-0.14434853
13	0xbd2bec37	-0.04197332
14	0x3e44b581	0.19209863
15	0x3d475a70	0.048670232
16	0xbe65ef6a	-0.2245461
17	0xbdad5c8d	-0.08464918
18	0x3d3d69ea	0.046243586
19	0xbd017f70	-0.031615674
20	0xbd80a473	-0.06281366
21	0x3d3d9a87	0.046289947
22	0xbcd24e0b	-0.02567198
23	0x3d37c9f8	0.044870347
24	0xbdc4944c	-0.09598598
25	0x3d4186c4	0.047247663
26	0xbd5ea74e	-0.054358773
27	0xbdca2a4f	-0.09871351
28	0xbd1ed84a	-0.038780488
29	0xbd9b3c6d	-0.07579885
30	0xbe099baf	-0.13438295
31	0xbd6b20d2	-0.057404347
32	0xbc172038	-0.00922399
33	0xbcfd20b8	-0.03089939
34	0xbbae0c87	-0.005311552
35	0x3d9b45dd	0.07581685
36	0x3bd5c396	0.00652356
37	0xbe53aeae	-0.20672104
38	0xbdf9e072	-0.12201013
39	0xbce8bb28	-0.028409556
40	0x3e1e060d	0.15431996
41	0xbdfc8810	-0.12330639
42	0xbe46c1a8	-0.19409811
43	0x3cdb8200	0.026795387
44	0x3e0266b5	0.12734492
45	0xbd9bb5bb	-0.07603022
46	0xbced967d	-0.029002422
47	0xbdc859b6	-0.09782736
48	0xbe57e585	-0.21083649
49	0xbe0532b9	-0.1300763
50	0xbbd97a2d	-0.006636879
51	0x3d17c7e9	0.037055884
52	0xbe0f7597	-0.140097
53	0x3d57cbb6	0.05268451
54	0x3e2993d5	0.165603
55	0xbc072c62	-0.008250328
56	0xbc4a9aa4	-0.012365971
57	0xbd82a4ba	-0.06379075
58	0x3e8491ff	0.25892636
59	0x3e132c27	0.14372312
60	0xbdc8df81	-0.09808255
61	0x3df2f64f	0.11863386
62	0x3e3dd5f2	0.18538645
63	0x3de03038	0.10946697
64	0xbce75fe6	-0.02824397
65	0x3ca81a86	0.02052046
66	0xbd20cb4b	-0.039256375
67	0x3d01f00f	0.03172308
68	0xbdab5334	-0.08365479
69	0xbdcf4118	-0.101198375
70	0x3dd0b39d	0.101905085
71	0x3de70469	0.11280138
72	0xbe3c5bd9	-0.18394412
73	0xbdd575fd	-0.10422895
74	0x3db07755	0.08616511
75	0xbe0412f5	-0.12897857
76	0xbd6a2e8e	-0.057173304
77	0xbd78a44e	-0.06070357
78	0xbccf5e4e	-0.025313523
79	0xbde9ae96	-0.11410253
80	0x3dd25221	0.10269571
81	0x3cd5a12f	0.026077835
82	0xbd8e75ad	-0.069560386
83	0x3e10096a	0.14066091
84	0x3e289423	0.1646276
85	0xbcb14f45	-0.021644244
86	0xbe2bbe3f	-0.16771792
87	0x3d47b004	0.048751846
88	0x3cfbfba1	0.030759634
89	0xbe01d94f	-0.12680553
90	0x3d20da11	0.039270464
91	0xbd66ce85	-0.056349296
92	0xbe35455e	-0.17702243
93	0xbd8ad8a0	-0.06779599
94	0xbce7f336	-0.028314214
95	0xbc7856e6	-0.015157437
96	0x3d832739	0.064039655
97	0xbdc2e8d2	-0.09517063
98	0x3de0d2f8	0.10977739
99	0xbd6b4f25	-0.057448525
100	0xbbf1a57e	-0.0073744645
101	0xbc4f16a9	-0.01263968
102	0xbd46d555	-0.048543293
103	0xbcf1d5a6	-0.02952082
104	0xbc0387fd	-0.008028028
105	0xbd791b21	-0.060816888
106	0xbc87d9dc	-0.016583376
107	0xbd512241	-0.051058058
108	0x3e3a96e5	0.18221624
109	0xbd954870	-0.07289207
110	0xbd88d1b1	-0.066806205
111	0x3aa74251	0.0012760853
112	0x3e9d9413	0.30777034
113	0x3d679227	0.056535866
114	0x3d69289c	0.056923494
115	0xbcd7891e	-0.0263105
116	0x3cb497e9	0.022045093
117	0x3cc7afde	0.024375852
118	0xbd870bb9	-0.06594033
119	0x3d3bffdb	0.0458983
120	0xbdb33482	-0.087502494
121	0x3d6201f2	0.055177636
122	0xbbfabbc9	-0.0076517803
123	0xbd0738b1	-0.03301305
124	0xbc177f54	-0.009246666
125	0x3e1d623c	0.15369505
126	0xbba30c77	-0.004975851
127	0x3ceba260	0.02876395
128	0x3c4ce2b6	0.012505224
129	0x3d9df6b7	0.07713073
130	0x3c6f158f	0.014592542
131	0xbc9844ea	-0.018587548
132	0xbbdfb9ab	-0.0068275533
133	0xbdb52f58	-0.08846921
134	0x3de23e51	0.11047042
135	0xbe954a37	-0.29158184
136	0xbdaaca6e	-0.08339392
137	0xbdab980f	-0.08378612
138	0x3ddbbc83	0.10729315
139	0xbe892ad6	-0.26790494
140	0xbdff2399	-0.124579616
141	0x3d89edc4	0.06734803
142	0x3e16d493	0.14729528
143	0x3b9b0611	0.004730948
144	0xbe62b141	-0.2213793
145	0x3d34ea53	0.04416878
146	0xbd016e3c	-0.03159927
147	0xbe1fd568	-0.15608752
148	0x3e0a4270	0.13501906
149	0xbb8b6ff0	-0.0042552873
150	0xbdb49028	-0.08816558
151	0x3e564e95	0.20928414
152	0xbc0af6f7	-0.008481733
153	0xbd11dfd9	-0.03561387
154	0x3dba8f56	0.091093704
155	0xbdddd9aa	-0.10832532
156	0xbdaa866a	-0.08326419
157	0x3e1cc85c	0.15310806
158	0xbcca664f	-0.024706988
159	0xbdd9aea6	-0.10629015
160	0x3e4d1172	0.20026186
161	0xbd6ebbad	-0.05828445
162	0xbd00c39f	-0.03143656
163	0xbdb5fba2	-0.08885886
164	0xbde3a91a	-0.11116238
165	0x3d273bdc	0.04082857
166	0x3cf0cdfc	0.029395096
167	0x3d02c8b2	0.03192968
168	0xbd65fb7d	-0.05614804
169	0xbbd33e02	-0.006446601
170	0xba45a250	-0.000753914
171	0xbd76279c	-0.06009637
172	0x3dccefb3	0.100066565
173	0xbd8f9444	-0.07010701
174	0x3cfdf089	0.030998485
175	0x3da6c37a	0.08142753
176	0xbd18393e	-0.037163965
177	0x3dbfc72a	0.093641594
178	0xbdce1771	-0.10063065
179	0xbdc9fc04	-0.09862521
180	0xbc750634	-0.014955092
181	0xbc9f0fde	-0.019416746
182	0xbdf0e20a	-0.117618635
183	0xbd903a42	-0.07042362
184	0xbd7ce04e	-0.06173735
185	0xbd443b4e	-0.04790812
186	0xbd7733ef	-0.060352262
187	0x3cf326c5	0.029681573
188	0xbd2df3c0	-0.042468786
189	0xbe1ce32c	-0.15321034
190	0x3dbb9855	0.091599144
191	0xbe173755	-0.14767201
192	0xbe86d97e	-0.26337808
193	0x3e281fbd	0.16418357
194	0xbe021d49	-0.12706484
195	0xbce71aa9	-0.028210955
196	0x3e073a0d	0.13205738
197	0xbdfc0fa1	-0.123076685
198	0x3cd7ab56	0.026326817
199	0xbd56fdfe	-0.05248832
200	0xbc95f64f	-0.018305926
201	0x3c135b07	0.008993871
202	0xbdb7f6ee	-0.08982645
203	0x3e016ebf	0.12639903
204	0xbb44fca3	-0.003005781
205	0xbd913e13	-0.07091918
206	0x3d56f54b	0.052480023
207	0x3d3dad96	0.046308123
208	0x3e06d6cb	0.13167875
209	0xbddb761e	-0.107158884
210	0x3c2a8d65	0.010409688
211	0x3c643e5d	0.013930884
212	0xbd17a43f	-0.03702187
213	0xbc8c01b5	-0.017090658
214	0x3dfa4e69	0.12221987
215	0x3c89d27d	0.016824001
216	0x3d4f5d9e	0.05062639
217	0xbb8b3273	-0.0042479574
218	0x3da970e2	0.08273484
219	0xbd152114	-0.0364085
220	0xbd492a14	-0.049112394
221	0xbcb8ecb6	-0.02257381
222	0xbd363098	-0.044479936
223	0xbdb1aa0b	-0.08675011
224	0x3de9f2b5	0.11423246
225	0x3d339b3e	0.043849222
226	0xbdad24cd	-0.08454285
227	0x3dfbd9ba	0.122973874
228	0x3d807a70	0.06273353
229	0xbe37b44f	-0.17939876
230	0x3d30cafb	0.043162327
231	0x3d1b3c22	0.037899144
232	0x3d00b338	0.031420916
233	0x3cd59d01	0.026075842
234	0x3c4cb7bf	0.01249498
235	0xbded5ccd	-0.11589966
236	0x3d6f49b6	0.058419906
237	0x3e02c0b6	0.12768826
238	0xbdd89efc	-0.10577199
239	0x3d4d6925	0.0501491
240	0x3d2976b0	0.041372955
241	0xbe002dee	-0.12517521
242	0x3e049ca0	0.12950373
243	0xbd89d16e	-0.06729399
244	0xbc01b918	-0.007917665
245	0xbdb73aca	-0.0894676
246	0xbd19f097	-0.03758296
247	0x3e1abb04	0.15110403
248	0xbd0b4add	-0.034006942
249	0xbb7eac84	-0.0038860152
250	0xbc62918f	-0.013828649
251	0xbd22a8b2	-0.03971166
252	0x3e00d0d5	0.12579663
253	0xbdd0cd5b	-0.101954184
254	0x3d6bd4ac	0.057575867
255	0x3cdac697	0.026706023

layer2.0.bn1.weight f4 [32]
0	0x3f6e7e26	0.9316124
1	0x3f9987ab	1.1994528
2	0x3f7a45e2	0.9776288
3	0x3f88dccb	1.0692381
4	0x3f6d085e	0.9259089
5	0x3f641cb4	0.891063
6	0x3f7279d0	0.9471712
7	0x3f7a364c	0.977391
8	0x3f7d7f82	0.99022686
9	0x3f80919b	1.0044435
10	0x3f827697	1.0192441
11	0x3f66f92c	0.90223956
12	0x3f8304d5	1.023585
13	0x3f5bb7b3	0.8582718
14	0x3f834bd3	1.0257515
15	0x3f6829cc	0.90688777
16	0x3f86a36d	1.0518624
17	0x3f500b01	0.8126679
18	0x3f5dd517	0.86653274
19	0x3f90a7bd	1.130119
20	0x3f816dc6	1.0111625
21	0x3f663a2b	0.8993251
22	0x3f713306	0.9421848
23	0x3f66469b	0.89951485
24	0x3f7fa216	0.998567
25	0x3f829445	1.0201498
26	0x3f72cb21	0.948412
27	0x3fa4357d	1.2828823
28	0x3f835075	1.0258929
29	0x3f923c01	1.1424562
30	0x3f82625c	1.0186267
31	0x3f4df058	0.8044486

layer2.0.bn1.bias f4 [32]
0	0xbe30cf93	-0.17266683
1	0xbe6225f5	-0.22084792
2	0xbea48b17	-0.32137367
3	0xbe5c57dd	-0.21517892
4	0xbe0dd0a9	-0.13849129
5	0xbeaeab8a	-0.3411525
6	0xbe8501a3	-0.2597781
7	0xbe26333f	-0.16230486
8	0xbe912424	-0.28347886
9	0xbe257ca6	-0.16160831
10	0xbe565da4	-0.20934159
11	0xbe45601a	-0.19274941
12	0xbde3338c	-0.11093816
13	0xbe203b36	-0.15647587
14	0xbe781a88	-0.24228871
15	0xbe58bb8e	-0.21165296
16	0xbd3cc5b7	-0.046086993
17	0xbe42f589	-0.19038977
18	0xbe987234	-0.2977463
19	0xbdd48d36	-0.10378496
20	0xbe2ccfa8	-0.1687609
21	0xbe51bd5d	-0.20482393
22	0xbeb8f3d7	-0.36123535
23	0xbe514050	-0.2043469
24	0xbb9a0b0b	-0.0047010235
25	0xbe8670ed	-0.2625803
26	0xbe3ad0fe	-0.18243787
27	0xbe5d89b8	-0.21634567
28	0xbdfe8918	-0.12428492
29	0xbe4ba46d	-0.19886942
30	0xbc3e840c	-0.011628162
31	0xbe588d91	-0.21147753
