resnet/Adaptor Results/retrain.pth (torch, 815633 bytes, 77 tensors)

conv.weight f4 [16, 3, 3, 3]
0.030835774 0.23044151 0.15111184 -0.065480545 0.014122109 0.09384552 0.1255951 -0.13354388
-0.07219098 -0.00541718 0.022291405 -0.086145796 0.1756212 -0.123248406 -0.2734546 0.07399382
-0.3176632 0.0007225843 -0.18633665 0.08894846 0.0058052456 0.018446935 0.0046988726 -0.33084965
-0.022499343 -0.5466351 -0.3558268 -0.07250931 -0.09849327 0.16636607 0.07107102 0.22807257
0.1370958 0.13039266 -0.21496207 0.040289793 0.11346846 0.05892213 -0.3506306 0.13634516
0.22264872 -0.23665674 -0.09809707 -0.26915213 0.023386428 0.1803927 -0.14980969 -0.115532205
0.20454712 0.30255896 -0.1759404 0.057714578 0.068399385 -0.14722303 -0.11692883 -0.033239514
-0.03467964 -0.1532578 -0.3785558 -0.07185131 0.054184396 -0.30339506 0.06154459 -0.18413454
-0.15984577 -0.11561226 -0.08696634 -0.040787242 0.03538728 0.024901824 -0.025697948 -0.20187922
-0.2562762 0.15385076 0.14694308 0.053019553 0.15457453 0.2564192 -0.18369393 -0.18990476
-0.023219196 -0.0050646253 0.22891413 0.06972534 0.008630989 0.44092447 0.1715828 0.15736501
0.015108798 0.0058045248 -0.24366522 -0.071214564 -0.09744267 -0.024659703 0.036592826 -0.096777275
-0.12880827 -0.1106959 -0.25885814 0.033832002 0.009000206 0.121279776 -0.15245253 -0.0031581505
0.12047456 0.046310086 -0.061047517 0.02186694 0.21725333 0.15682027 0.21488912 -0.15067881
0.10155147 0.20959376 -0.0305135 -0.2892181 -0.13369937 0.19270521 0.20588264 0.088134065
-0.121743046 -0.16019258 0.10952083 -0.20112988 -0.32573485 -0.06499292 -0.0359049 -0.12438291
0.024858687 0.15760243 0.026788957 0.09177019 0.024977215 -0.093950845 -0.025212158 -0.02411703
0.07037657 -0.14425866 -0.22033243 -0.21528684 0.019734142 -0.23224957 0.053650454 -0.090061106
0.09731289 0.21866633 -0.119662516 0.28656164 0.3886068 0.16252032 0.25541326 0.058229394
-0.044989005 -0.1736969 -0.17849816 0.12790194 -0.14188825 0.040649623 -0.053806752 -0.09271827
-0.039950386 -0.052375123 0.032764655 -0.13732298 -0.039897785 0.06616308 -0.13704753 -0.31899747
-0.16765782 0.021408387 -0.2055951 -0.035178106 0.16870458 0.15252632 0.032841213 -0.12211436
-0.24250986 0.16092587 -0.09926724 -0.14114127 0.16016865 0.22019061 0.16340762 0.2328287
-0.08215401 0.017756984 0.051906314 0.068891704 0.20437567 0.037797123 0.17179759 0.19022189
-0.12072145 -0.0088011855 0.23240645 -0.18900774 -0.206969 0.002969306 0.072183326 0.17298855
-0.26425228 -0.07608904 0.22484775 0.093189456 0.077694915 0.11612726 0.11353692 0.08591625
0.39050797 0.007759766 -0.009718987 -0.03263695 0.0050181495 -0.20109877 0.15766607 -0.17501682
0.27806085 -0.046255372 0.12435186 0.17427973 -0.18515915 -0.08124423 -0.1667571 -0.069417916
0.012589619 0.24852939 0.34334025 0.12977143 0.33366078 0.32457432 0.10627048 -0.09575006
0.0485548 -0.02206461 0.25174686 -0.13824178 -0.20885728 -0.002312384 -0.16128904 -0.041402776
0.07148268 -0.20026523 0.050967358 -0.16823159 -0.33362713 0.0905044 -0.19155777 -0.044722006
0.051810488 0.08926962 -0.049475666 0.016675415 0.1280842 -0.113921136 0.015304266 0.15114735
00000000: 4e9b fc3c dcf8 6b3e 10bd 1a3e aa1a 86bd
00000010: 6b60 673c 1432 c03d 009c 003e babf 08be
00000020: ddd8 93bd 9982 b1bb 779c b63c 356d b0bd
00000030: 0bd6 333e a969 fcbd 3e02 8cbe 128a 973d
00000040: c0a4 a2be d06b 3d3a 09cf 3ebe 9c2a b63d
00000050: ee39 be3b 071e 973c 00f9 993b 2065 a9be
00000060: 8b50 b8bc 47f0 0bbf ee2e b6be c37f 94bd
00000070: d7b6 c9bd de5b 2a3e af8d 913d db8b 693e
00000080: d762 0c3e a785 053e 041f 5cbe e906 253d
00000090: 2762 e83d 5558 713d db85 b3be 119e 0b3e
000000a0: 07fe 633e 2556 72be 1ee7 c8bd 4fce 89be
000000b0: e594 bf3c ddb8 383e b667 19be 269c ecbd
000000c0: cd74 513e 02e9 9a3e b829 34be 1f66 6c3d
000000d0: fa14 8c3d a2c1 16be 6278 efbd 2826 08bd
000000e0: 3d0c 0ebd 9def 1cbe 11d2 c1be c826 93bd
000000f0: 75f0 5d3d 9956 9bbe 2e16 7c3d c48d 3cbe
00000100: 9cae 23be 1fc6 ecbd 691b b2bd 8610 27bd
00000110: 41f2 103d e9fe cb3c 8184 d2bc 6db9 4ebe
00000120: a236 83be 0e8b 1d3e 3f78 163e 082b 593d
00000130: c948 1e3e 6149 833e 431a 3cbe 6576 42be
00000140: 2f36 bebc 28f5 a5bb 7768 6a3e 29cc 8e3d
00000150: fe68 0d3c dac0 e13e 67b3 2f3e 4b24 213e
00000160: e48a 773c e233 be3b 6083 79be f1d8 91bd
00000170: 0690 c7bd 2503 cabc 5ce2 153d 2a33 c6bd
00000180: 51e6 03be 88b4 e2bd 0e89 84be 6d93 0a3d
00000190: 9a75 133c 8861 f83d 841c 1cbe f9f8 4ebb
000001a0: 5ebb f63d a5af 3d3d f60c 7abd 4c22 b33c
000001b0: a877 5e3e 7e95 203e e50b 5c3e 8c4b 1abe
000001c0: 38fa cf3d bf9f 563e 73f7 f9bc 6514 94be
000001d0: 7de8 08be 8454 453e e6d2 523e a27f b43d
000001e0: 6b54 f9bd 8609 24be 754c e03d fef4 4dbe
000001f0: b8c6 a6be 021b 85bd 0411 13bd 78bc febd
00000200: 72a4 cb3c 8862 213e 8474 db3c 02f2 bb3d
00000210: 049d cc3c 4d69 c0bd ba89 cebc 1491 c5bc
00000220: 9721 903d 8bb8 13be d39e 61be 2774 5cbe
00000230: 7fa9 a13c d5d2 6dbe 94c0 5b3d f571 b8bd
00000240: fb4b c73d 11ea 5f3e 9f11 f5bd 35b8 923e
00000250: 78f7 c63e ba6b 263e 87c5 823e f281 6e3d
00000260: 6446 38bd 9add 31be 39c8 36be baf8 023e
00000270: 274b 11be 3880 263d 7864 5cbd 14e3 bdbd
00000280: 04a3 23bd 4c87 56bd 3b34 063d 659e 0cbe
00000290: dc6b 23bd 8280 873d 3056 0cbe a353 a3be
000002a0: 7eae 2bbe a460 af3c 8687 52be eb16 10bd
000002b0: e5c0 2c3e dc2f 1c3e 8284 063d 1817 fabd
000002c0: 8154 78be c0c9 243e 9f4c cbbd 5687 10be
000002d0: 4003 243e a679 613e 5454 273e a66a 6e3e
000002e0: 5d40 a8bd 1877 913c b79b 543d 1817 8d3d
000002f0: db47 513e 28d1 1a3d b5eb 2f3e 87c9 423e
00000300: cf3c f7bd d932 10bc f5fb 6d3e 3f8b 41be
00000310: aeef 53be b098 423b dad4 933d e923 313e
00000320: 134c 87be 92d4 9bbd 7d3e 663e 1dda be3d
00000330: 831e 9f3d 21d4 ed3d 0b86 e83d dcf4 af3d
00000340: a9f0 c73e a345 fe3b 633c 1fbc 53ae 05bd
00000350: 4a6f a43b d6ec 4dbe 3773 213e 9c37 33be
00000360: fe5d 8e3e 4676 3dbd 30ac fe3d 6376 323e
00000370: 5c9a 3dbe 6063 a6bd 60c2 2abe fb2a 8ebd
00000380: b044 4e3c 7d7e 7e3e 4bca af3e cde2 043e
00000390: 96d5 aa3e 9b2e a63e 56a4 d93d 9c18 c4bd
000003a0: 66e1 463d d7c0 b4bc f7e4 803e 418f 0dbe
000003b0: afde 55be 5e8b 17bb f428 25be f595 29bd
000003c0: 8365 923d 5412 4dbe 26c3 503d e744 2cbe
000003d0: 2dd1 aabe 5f5a b93d b827 44be 6c2e 37bd
000003e0: 3c37 543d fed2 b63d ffa6 4abd e19a 883c
000003f0: 8128 033e 7c4f e9bd bebe 7a3c 5fc6 1a3e

bn.weight f4 [16]
0.77446455 0.9150569 1.0200171 0.9181432 1.0415128 1.1234617 0.7288799 0.70501894
0.81520504 0.945663 0.99584585 0.880478 1.1806103 1.2164177 1.1617893 1.1367731
00000000: 4f43 463f 2b41 6a3f ec8f 823f 6f0b 6b3f
00000010: 4b50 853f 98cd 8f3f e097 3a3f 1f7c 343f
00000020: 47b1 503f f816 723f c1ef 7e3f 0267 613f
00000030: 3d1e 973f 93b3 9b3f 83b5 943f c881 913f

bn.bias f4 [16]
-0.27741382 0.3605761 -0.1810618 0.13954121 0.28304008 0.15884233 0.09876481 -0.14731792
-0.17890415 -0.062849104 0.16278762 0.23581327 0.86771375 0.533238 0.096401006 0.3401511
00000000: 2f09 8ebe 6e9d b83e 4468 39be e4e3 0e3e
00000010: a1ea 903e 90a7 223e 3445 ca3d 82da 16be
00000020: a632 37be 08b7 80bd ccb1 263e 0979 713e
00000030: 7d22 5e3f 4982 083f e46d c53d 4928 ae3e

bn.running_mean f4 [16]
-0.6144682 0.1048072 -0.75407887 0.12586452 0.027120415 0.006550794 -0.054640107 0.39686763
0.50522244 -0.17778595 0.06760164 -0.04835784 0.012422707 0.004485836 -0.20522009 -0.05147957
00000000: ca4d 1dbf 28a5 d63d 500b 41bf a1e2 003e
00000010: a22b de3c 0ba8 d63b 4ece 5fbd 3c32 cb3e
00000020: 4256 013f 850d 36be bb72 8a3d df12 46bd
00000030: 9c88 4b3c ebfd 923b 3725 52be 3edc 52bd

bn.running_var f4 [16]
0.15472645 0.023707185 0.1314166 0.016884582 0.044160996 0.008975355 0.036733907 0.05386911
0.08417136 0.023127278 0.05732862 0.027214505 0.006440839 0.006751435 0.026752131 0.0046963487
00000000: 9c70 1e3e 9235 c23c 1392 063e 8951 8a3c
00000010: 29e2 343d 5e0d 133c 4b76 163d dba5 5c3d
00000020: 0962 ac3d 6b75 bd3c 6ad1 6a3d f4f0 de3c
00000030: ac0d d33b 243b dd3b 4927 db3c d4e3 993b

layer1.0.conv1.weight f4 [16, 16, 3, 3]
0.065971926 0.07516942 0.120066114 0.0017348317 -0.13953406 0.15418364 0.06963978 -0.07134461
-0.1198557 0.0037663593 -0.24021536 -0.15153842 0.1500822 -0.02356756 -0.16606013 -0.12946245
-0.00068208546 -0.06931248 -0.03172554 -0.012728901 0.11479888 -0.069683716 -0.16143082 0.06569453
0.02804084 -0.12593035 -0.121923886 -0.07036136 -0.111782685 0.1103779 0.10932736 0.13637683
0.040801108 0.13067134 0.13981001 -0.023475176 -0.025073124 0.045565948 0.07204051 -0.12839991
-0.2409596 -0.16166952 0.0907963 -0.069760546 0.015531813 0.13114083 0.018475588 0.11260434
0.0068303696 -0.031157253 -0.009991028 -0.09518618 0.0037739805 -0.17361736 0.1841048 0.04926283
-0.0444712 -0.08571979 -0.088357665 0.16673063 0.07683868 -0.01749341 0.17991497 0.08793176
0.15728088 0.06592412 -0.041596275 -0.04136696 -0.023615848 -0.02683126 0.08310354 -0.01058906
0.0750461 0.034117676 -0.012799533 0.004483333 0.008646967 -0.018150752 0.07562212 0.04572062
-0.0031201607 -0.061978962 0.024124017 0.035559513 0.18687901 -0.059896544 -6.422785e-05 -0.036229007
-0.16498865 -0.09203993 -0.072417185 0.0014250566 -0.020749636 0.050059322 0.023104994 0.10683741
-0.082322896 -0.11919525 0.05948988 0.14231738 0.0014596285 -0.024238348 -0.05445799 0.0720427
-0.15179898 0.08002607 0.098362 -0.033902545 -0.14213277 0.1458059 0.008293437 0.32416734
-0.61385244 0.13971946 0.041253034 -0.05889718 0.016462894 0.16297342 0.06875871 -0.010702272
-0.121007144 -0.14147772 0.00019761146 -0.15119655 -0.08186228 0.049579263 0.21455692 0.0077603147
0.042660657 -0.09323361 -0.00254467 0.10042727 -0.07447173 -0.08760961 0.020971766 0.17326938
0.19002034 0.1037494 0.023789994 0.07414408 0.13275786 0.06885161 0.019467458 -0.22879806
0.07017725 0.11682311 0.18611722 0.0042379037 0.0253395 0.0780875 -0.066185065 -0.08304509
-0.08712376 0.11742638 -0.06579624 -0.004055492 0.089312986 0.029366728 0.026653543 0.22138788
0.21686201 0.20084836 -0.09120896 0.0012279977 0.06532235 -0.17223932 -0.021475112 0.07675663
-0.2583668 -0.21405743 -0.04343156 -0.15064056 -0.114079654 0.00079619675 -0.05748934 -0.015634678
0.019495258 0.1837233 0.10641488 0.020634472 -0.27904052 -0.18725392 -0.066743016 -0.24505138
-0.27281177 -0.26661298 -0.09206832 -0.21740417 -0.4209742 0.11407866 0.040813375 -0.15815187
0.10826925 0.10350119 -0.047681082 0.2376421 0.14337288 -0.10061337 -0.07775703 -0.021170978
-0.023074359 0.023123214 0.05424792 0.053541105 -0.107726574 -0.05540688 0.08242464 -0.040746223
-0.038784962 0.01574376 0.05274847 -0.024331553 -0.19368282 0.06201056 -0.10310061 -0.16256775
0.12855291 -0.06381956 0.034813177 0.12043273 -0.035121344 -0.0863972 0.08644913 0.11123222
-0.042795405 -0.07007237 0.04533468 0.06624833 -0.05653166 0.15186775 0.04605864 0.043958902
0.096474886 -0.03301733 -0.11794418 0.16507678 0.04810061 -0.018041722 0.14100507 -0.16496985
-0.113616996 0.0723876 0.03459193 0.06641254 -0.16007516 -0.067615464 0.08184519 -0.18525948
-0.07384509 -0.13278736 -0.17086849 -0.023959843 -0.12113087 0.24865778 0.024572875 -0.06145951
00000000: 4a1c 873d 6df2 993d 39e5 f53d 4b63 e33a
00000010: 04e2 0ebe 51e2 1d3e 4d9f 8e3d 1f1d 92bd
00000020: e876 f5bd 06d5 763b 04fb 75be e32c 1bbe
00000030: 26af 193e c110 c1bc ab0b 2abe ce91 04be
00000040: fbcd 32ba b4f3 8dbd a4f2 01bd e18c 50bc
00000050: ad1b eb3d 56b6 8ebd 1f4e 25be db8a 863d
00000060: e7b5 e53c e3f3 00be 3bb3 f9bd 9e19 90bd
00000070: 52ee e4bd cf0d e23d 06e7 df3d 5ea6 0b3e
00000080: 101f 273d b5ce 053e 5b2a 0f3e 034f c0bc
00000090: 2766 cdbc 5ca3 3a3d fa89 933d 447b 03be
000000a0: 1dbe 76be b28c 25be 69f3 b93d 9ede 8ebd
000000b0: 2579 7e3c c849 063e 1e5a 973c 1b9d e63d
000000c0: 4bd1 df3b 7f3d ffbc 69b1 23bc f9f0 c2bd
000000d0: e354 773b c0c8 31be f885 3c3e d2c7 493d
000000e0: 6f27 36bd db8d afbd ddf4 b4bd 6fbb 2a3e
000000f0: 995d 9d3d 574e 8fbc a13b 383e 9115 b43d
00000100: 3d0e 213e 3a03 873d db60 2abd 6770 29bd
00000110: 0676 c1bc 3bcd dbbc 3032 aa3d bd7d 2dbc
00000120: c5b1 993d fabe 0b3d 22b5 51bc ece8 923b
00000130: 02ac 0d3c e3b0 94bc c5df 9a3d 8b45 3b3d
00000140: 9c7b 4cbb a7dd 7dbd bb9f c53c daa6 113d
00000150: 365d 3f3e 1456 75bd 10b2 86b8 de64 14bd
00000160: c9f2 28be 6e7f bcbd 764f 94bd f7c8 ba3a
00000170: 24fb a9bc 010b 4d3d af46 bd3c 92cd da3d
00000180: e898 a8bd a41c f4bd a9ab 733d a6bb 113e
00000190: 0151 bf3a 808f c6bc 570f 5fbd 208b 933d
000001a0: 3171 1bbe b5e4 a33d 0472 c93d 65dd 0abd
000001b0: 418b 11be 244e 153e 32e1 073c 43f9 a53e
000001c0: 6f25 1dbf 9e12 0f3e f1f8 283d 2b3e 71bd
000001d0: 31dd 863c 81e2 263e 5ed1 8c3d 9558 2fbc
000001e0: 98d2 f7bd 89df 10be ec35 4f39 45d3 1abe
000001f0: 69a7 a7bd a013 4b3d cfb4 5b3e 3d4a fe3b
00000200: f1bc 2e3d 43f1 bebd 7ac4 26bb d0ac cd3d
00000210: a284 98bd ab6c b3bd fbcc ab3c 876d 313e
00000220: b194 423e 917a d43d 3ce3 c23c dad8 973d
00000230: adf1 073e 1302 8d3d 387a 9f3c 0a4a 6abe
00000240: 17b9 8f3d f440 ef3d 8395 3e3e 1dde 8a3b
00000250: c894 cf3c 57ec 9f3d 098c 87bd 8b13 aabd
00000260: f16d b2bd 3e7d f03d 2ec0 86bd efe3 84bb
00000270: bae9 b63d 7e92 f03c 8858 da3c 81b3 623e
00000280: 1311 5e3e 31ab 4d3e c3cb babd c4f4 a03a
00000290: b9c7 853d 815f 30be 93ec afbc 9432 9d3d
000002a0: a748 84be df31 5bbe 4be5 31bd 8541 1abe
000002b0: 98a2 e9bd dcb7 503a f179 6bbd 4c14 80bc
000002c0: 85b4 9f3c f621 3c3e 0bf0 d93d a009 a93c
000002d0: 66de 8ebe 7ebf 3fbe 90b0 88bd c0ee 7abe
000002e0: fcad 8bbe 7f81 88be 518e bcbd 339f 5ebe
000002f0: ee89 d7be 13a2 e93d ed2b 273d 90f2 21be
00000300: 45bc dd3d 6ff8 d33d 3d4d 43bd 7358 733e
00000310: 57d0 123e 620e cebd 143f 9fbd c26e adbc
00000320: 7006 bdbc e56c bd3c 1133 5e3d eb4d 5b3d
00000330: c09f dcbd 53f2 62bd 40ce a83d 83e5 26bd
00000340: fbdc 1ebd 0ff9 803c c80e 583d f752 c7bc
00000350: ca54 46be c9fe 7d3d 6a26 d3bd 2978 26be
00000360: 60a3 033e d4b3 82bd 4398 0e3d 6fa5 f63d
00000370: 66db 0fbd 04f1 b0bd 3e0c b13d b8cd e33d
00000380: 3c4a 2fbd 1a82 8fbd dbb0 393d 34ad 873d
00000390: be8d 67bd 3883 1b3e fca7 3c3d 400e 343d
000003a0: a094 c53d 2e3d 07bd b88c f1bd e309 293e
000003b0: 2505 453d 3ccc 93bc a263 103e dbed 28be
000003c0: 07b0 e8bd f33f 943d 45b0 0d3d 4c03 883d
000003d0: beea 23be fa79 8abd 739e a73d a9b4 3dbe
000003e0: 183c 97bd 69f9 07be 26f8 2ebe 6f47 c4bc
000003f0: 7613 f8bd 25a0 7e3e 0e4d c93c f8bc 7bbd

layer1.0.bn1.weight f4 [16]
1.0498309 0.911656 0.9581263 0.8850539 0.865859 0.9850313 0.94229966 1.1264924
0.78943396 1.1124074 1.0144892 0.9031175 1.2534033 0.9575977 0.9343963 1.1482422
00000000: dc60 863f 4a62 693f c447 753f e492 623f
00000010: efa8 5d3f 032b 7c3f 8d3a 713f e730 903f
00000020: 5818 4a3f 5e63 8e3f c8da 813f b532 673f
00000030: 856f a03f 1f25 753f 9934 6f3f 9af9 923f

layer1.0.bn1.bias f4 [16]
0.2280389 -0.21233256 -0.18871148 0.016432578 -0.31668633 0.08837274 -0.029345332 -0.028896715
-0.18316372 0.35921478 -0.18186726 -0.1755357 0.45304972 -0.24619281 -0.2238814 0.3288397
00000000: 0883 693e b56d 59be 953d 41be 9d9d 863c
00000010: b624 a2be c4fc b43d 9f65 f0bc ceb8 ecbc
00000020: 458f 3bbe 00eb b73e 693b 3abe a1bf 33be
00000030: 22f6 e73e f819 7cbe 2a41 65be ad5d a83e

layer1.0.bn1.running_mean f4 [16]
-0.13375844 -0.74030715 -1.049842 -1.6280887 1.7393879 -1.2404618 0.536951 -0.6348785
-0.34544152 0.10245528 0.593995 -0.92541456 -0.61190253 0.07012348 0.14633654 -1.6702939
00000000: f9f7 08be c584 3dbf 3961 86bf 3665 d0bf
00000010: 43a4 de3f 74c7 9ebf 9f75 093f 6687 22bf
00000020: b6dd b0be 13d4 d13d 0e10 183f f8e7 6cbf
00000030: a5a5 1cbf e69c 8f3d 3fd9 153e 31cc d5bf

layer1.0.bn1.running_var f4 [16]
1.051717 3.0439095 2.1751752 2.922137 2.0102608 2.7143707 1.1002715 1.1293094
2.0593328 1.0622127 1.5035148 1.2655096 1.1373043 0.9193546 1.4525545 1.4626938
00000000: aa9e 863f 6acf 4240 1236 0b40 4b04 3b40
00000010: 1da8 0040 40b8 2d40 b2d5 8c3f 368d 903f
00000020: 1ccc 0340 96f6 873f 2c73 c03f 38fc a13f
00000030: 3093 913f d35a 6b3f 4eed b93f 8d39 bb3f

layer1.0.conv2.weight f4 [16, 16, 3, 3]
0.012885576 0.0781508 -0.004061739 -0.16842279 0.07165526 -0.21181647 -0.052183487 -0.22064026
-0.08405141 -0.058242124 -0.12472869 -0.053364597 -0.036562916 -0.06233915 -0.03478916 0.048659682
-0.019532958 -0.022625415 -0.073764645 -0.0923879 -0.040209524 -0.082085304 -0.06638098 -0.11413213
-0.06915939 -0.06490429 -0.047048926 -0.12535784 -0.088600375 -0.09094769 -0.14402154 -0.09400353
0.12453761 -0.08824504 0.017844822 0.07513175 0.17787255 -0.11005319 0.03782041 0.0034545118
-0.105128005 -0.09099088 0.13910374 -0.037435096 0.051759414 -0.002153668 -0.16247666 -0.0430791
0.12214157 -0.07199962 -0.1686196 -0.032577876 -0.088303015 -0.1227738 0.099796124 -0.068746515
-0.15698357 0.05433854 0.14017907 -0.14510213 0.16340758 0.0936949 0.030765403 0.059708342
-0.16100344 0.018147118 0.030055074 -0.25025007 0.07326751 -0.03654059 -0.07383581 -0.058921404
0.06729275 -0.1167502 -0.04373661 0.057439826 -0.13222387 -0.16834094 -0.03255706 -0.24227275
-0.28550538 -0.1536325 -0.1371526 -0.17237346 -0.1550534 -0.03575719 -0.03504279 0.1476751
0.10187067 -0.1126005 -0.054779366 -0.04730579 -0.08326626 -0.14177415 -0.16049403 -0.11303925
-0.11210037 -0.1105517 -0.13320026 0.165028 -0.08538029 0.12691043 0.20233904 -0.08010622
0.047506347 0.23399535 -0.10021704 -0.2258748 0.019149274 -0.0029209645 0.025830531 0.0676595
0.27253112 -0.30345246 -0.0015103761 0.035939436 -0.25353035 -0.17774905 -0.22716606 -0.30840436
-0.1403491 -0.14703009 -0.0311504 0.14489575 0.028216856 -0.026013818 0.0037484847 -0.056319304
0.075616755 0.019614028 -0.1411026 -0.06344261 -0.064399764 -0.09127526 -0.03151001 -0.025483856
0.040315215 -0.17344593 0.006527547 0.21320027 0.22751963 -0.010637243 -0.007252747 0.038227413
0.116010115 0.19070546 0.092316456 0.019314088 0.0071937223 0.018629951 0.13311969 -0.28546467
-0.14089133 0.16931349 0.024940306 0.08924407 0.0880505 -0.24344257 0.07480776 -0.010587621
-0.13848098 -0.05344912 0.26047012 0.31707758 0.19783263 0.059794743 -0.025199486 0.11613437
-0.11946416 -0.076773785 -0.17495911 0.035049938 -0.012138142 0.18899095 -0.11839575 -0.065549135
0.02120029 -0.06290484 0.11010927 -0.042993724 0.11874969 -0.050608575 -0.09637273 0.11212585
-0.0623496 -0.052867144 -0.032969214 0.053031623 -0.024115482 0.15005396 0.14983499 -0.027998948
0.1388798 0.061100356 -0.12116048 0.080698244 0.034150604 0.071310565 -0.25203076 0.0049613854
-0.023263361 -0.15294136 0.026241316 0.040658817 0.0949711 -0.15234673 0.032953396 -0.03901007
-0.29303488 -0.11691195 -0.19975148 -0.14814341 -0.1475495 0.064079426 0.07796237 0.056865897
-0.047403436 -0.12390823 0.0697999 -0.022781562 0.021561215 -0.0015138554 0.086384505 -0.045571655
-0.0860717 -0.1473853 -0.061185643 -0.17006205 -0.33471152 -0.07979365 -0.32046863 -0.12318301
-0.0540325 -0.059632044 -0.10315145 -0.16035926 -0.031045 -0.15040146 -0.096034706 -0.10995275
-0.058225077 0.03297179 0.060548138 0.065009475 -0.091098405 0.084384084 0.027377853 0.04776127
0.12677144 -0.047480445 0.0960049 0.021374471 -0.12726793 -0.061315857 -0.0031019675 -0.19055241
00000000: 061e 533c 870d a03d 5618 85bb 0677 2cbe
00000010: febf 923d 6be6 58be 5abe 55bd 85ef 61be
00000020: 2523 acbd 4b8f 6ebd c171 ffbd d694 5abd
00000030: ffc2 15bd 5657 7fbd 147f 0ebd 604f 473d
00000040: 9503 a0bc ef58 b9bc eb11 97bd de35 bdbd
00000050: beb2 24bd 571c a8bd c0f2 87bd 1bbe e9bd
00000060: 70a3 8dbd 8aec 84bd 60b6 40bd ce5d 00be
00000070: 1d74 b5bd c842 babd 627a 13be ec84 c0bd
00000080: 930d ff3d d1b9 b4bd 4e2f 923c adde 993d
00000090: 3924 363e 9163 e1bd 93e9 1a3d 1765 623b
000000a0: 5a4d d7bd 6d59 babd 3671 0e3e 8b55 19bd
000000b0: ae01 543d 8e24 0dbb 4860 26be b673 30bd
000000c0: 5c25 fa3d 8974 93bd 9eaa 2cbe 6170 05bd
000000d0: 36d8 b4bd d470 fbbd e961 cc3d f9ca 8cbd
000000e0: 4dc0 20be 1792 5e3d 1a8b 0f3e a795 14be
000000f0: 5154 273e 1de3 bf3d ba07 fc3c bc90 743d
00000100: 16de 24be 44a9 943c 0f36 f63c c720 80be
00000110: 470d 963d 96ab 15bd 3b37 97bd 9257 71bd
00000120: c8d0 893d bb1a efbd 2925 33bd 0646 6b3d
00000130: b265 07be 9161 2cbe 8d5a 05bd 5916 78be
00000140: c32d 92be d751 1dbe bb71 0cbe ab82 30be
00000150: 52c6 1ebe 2276 12bd 0789 0fbd 2438 173e
00000160: 92a1 d03d 179b e6bd 5460 60bd b7c3 41bd
00000170: 8087 aabd 3e2d 11be 8c58 24be 1f81 e7bd
00000180: e194 e5bd ee68 e2bd a665 08be 1afd 283e
00000190: dddb aebd cff4 013e f731 4f3e bb0e a4bd
000001a0: 0496 423d 7a9c 6f3e 973e cdbd b94b 67be
000001b0: f0de 9c3c a76d 3fbb 8d9a d33c 1091 8a3d
000001c0: 3389 8b3e 1f5e 9bbe d0f7 c5ba 3b35 133d
000001d0: bbce 81be d903 36be 389e 68be 2de7 9dbe
000001e0: adb7 0fbe 0e8f 16be 202f ffbc 8d5f 143e
000001f0: 0927 e73c ee1a d5bc 23a9 753b 12af 66bd
00000200: f5dc 9a3d 99ad a03c 337d 10be 33ee 81bd
00000210: 06e4 83bd 86ee babd a410 01bd 85c3 d0bc
00000220: 9121 253d cf9b 31be 08e5 d53b 2c51 5a3e
00000230: e8fa 683e d547 2ebc 74a8 edbb 5994 1c3d
00000240: b696 ed3d 4b48 433e 6910 bd3d 9438 9e3c
00000250: 51b9 eb3b d79d 983c 8750 083e 6d28 92be
00000260: d145 10be 8460 2d3e 9d4f cc3c 98c5 b63d
00000270: d253 b43d 0249 79be d034 993d b377 2dbc
00000280: f5cd 0dbe 77ed 5abd 575c 853e fe57 a23e
00000290: a394 4a3e 55eb 743d 276f cebc dbd7 ed3d
000002a0: a0a9 f4bd 933b 9dbd 7b28 33be 8690 0f3d
000002b0: 0fdf 46bc d886 413e 7979 f2bd a03e 86bd
000002c0: 3bac ad3c 41d4 80bd f880 e13d 301a 30bd
000002d0: 0a33 f33d f04a 4fbd 115f c5bd 3da2 e53d
000002e0: 4b62 7fbd 388b 58bd ba0a 07bd b037 593d
000002f0: d58d c5bc bfa7 193e 586e 193e 0d5e e5bc
00000300: 8236 0e3e 5e44 7a3d fc22 f8bd 1f45 a53d
00000310: 81e1 0b3d 460b 923d 2d0a 81be 1e93 a23b
00000320: ce92 bebc a99c 1cbe 07f8 d63c dc89 263d
00000330: 3580 c23d c800 1cbe 24fa 063d 06c9 1fbd
00000340: ab08 96be 886f efbd a78b 4cbe e8b2 17be
00000350: 3717 17be 133c 833d bcaa 9f3d 37ec 683d
00000360: 1b2a 42bd 99c3 fdbd 40f3 8e3d 66a0 babc
00000370: 25a1 b03c 8f6c c6ba 5cea b03d 58a9 3abd
00000380: 5c46 b0bd 2cec 16be cc9d 7abd bf24 2ebe
00000390: 4f5f abbe da6a a3bd 7714 a4be 6047 fcbd
000003a0: 2f51 5dbd bb40 74bd 1141 d3bd 3835 24be
000003b0: 1552 febc d702 1abe d8ad c4bd e82e e1bd
000003c0: 6b7d 6ebd 6d0d 073d 5301 783d b023 853d
000003d0: cd91 babd 90d1 ac3d 8547 e03c 52a1 433d
000003e0: 5fd0 013e db7a 42bd 389e c43d 8419 af3c
000003f0: 8652 02be 5626 7bbd 614a 4bbb 2c20 43be

layer1.0.bn2.weight f4 [16]
1.04703 1.0618044 0.9103398 0.93020713 0.9305935 0.9532526 1.0922277 1.0427439
0.92453474 1.0940504 0.9058847 0.98785895 0.9874382 1.1124846 1.0535296 0.80731624
00000000: 1405 863f 35e9 873f 070c 693f 0e22 6e3f
00000010: 603b 6e3f 5d08 743f 1ece 8b3f a278 853f
00000020: 4fae 6c3f d809 8c3f 0fe8 673f 53e4 7c3f
00000030: c0c8 7c3f e565 8e3f 0fda 863f 47ac 4e3f

layer1.0.bn2.bias f4 [16]
0.21685573 0.16695201 -0.29097587 -0.11395868 -0.015266056 -0.11129789 0.039039984 -0.071676835
-0.11992657 -0.04277532 0.055056594 -0.17024194 -0.28721178 0.4115946 -0.19412169 -0.10539751
00000000: 6e0f 5e3e 78f5 2a3e cafa 94be 2b63 e9bd
00000010: 7b1e 7abc 26f0 e3bd 64e8 1f3d 4ecb 92bd
00000020: 109c f5bd 2d35 2fbd 0683 613d e753 2ebe
00000030: 6c0d 93be 87bc d23e d6c7 46be a6da d7bd

layer1.0.bn2.running_mean f4 [16]
-1.9115502 -1.3365749 1.2033564 -0.15427434 -0.6264234 -0.20504244 -0.028909657 -0.76389354
0.46121532 -0.2086731 -1.4429642 -0.32969692 0.10485009 -1.0238299 0.2386121 0.34344095
00000000: adad f4bf e314 abbf 9507 9a3f 18fa 1dbe
00000010: 495d 20bf a5f6 51be f2d3 ecbc 878e 43bf
00000020: 6a24 ec3e 67ae 55be 0db3 b8bf 09ce a8be
00000030: a5bb d63d dc0c 83bf bb56 743e 7ed7 af3e

layer1.0.bn2.running_var f4 [16]
1.8319505 2.2245343 1.7066087 1.2765028 1.1768322 1.432759 1.2886729 2.0716052
1.6063132 1.248827 1.6894518 1.5837727 1.0265193 1.4872901 1.3416888 1.4908214
00000000: 5b7d ea3f c55e 0e40 2772 da3f 7264 a33f
00000010: 70a2 963f a664 b73f 3cf3 a43f 2e95 0440
00000020: ac9b cd3f 90d9 9f3f f53f d83f 10b9 ca3f
00000030: fc64 833f 865f be3f 75bc ab3f 3cd3 be3f

layer1.1.conv1.weight f4 [16, 16, 3, 3]
0.28577626 0.13480426 -0.03443166 -0.15803343 -0.14670749 0.083394594 -0.067433424 0.066778675
-0.10256751 0.13616914 -0.12507811 -0.017636292 -0.17553489 -0.061778605 0.2709373 -0.0061268606
0.2145425 -0.04830692 0.1344604 -0.06905592 -0.060486935 0.06077893 -0.068382405 -0.0808278
-0.022344556 -0.013866697 0.025551092 -0.1224505 -0.24218847 0.10297277 -0.26517755 0.098703705
0.21033056 -0.014672808 0.11716982 0.043792307 0.07559474 -0.08689537 -0.14473465 -0.030407276
0.07620651 0.025641542 0.0013053967 -0.20342247 -0.14571305 0.082982376 -0.2471978 0.020882413
-0.21445401 0.021463102 0.13850945 0.008649231 0.2190878 0.020188736 0.24746203 0.12620331
0.00695316 -0.019582342 -0.22285 -0.053538557 -0.10880697 0.09178325 0.18342233 -0.0574201
0.13895963 0.10103387 0.054005187 -0.13426273 -0.079825275 0.0040838756 0.073562205 0.16871792
-0.081268065 -0.033938706 -0.021726124 0.07884968 -0.14855057 -0.08782238 -0.12613793 0.014988119
0.08667997 -0.0082536945 0.13828819 0.10757212 0.18385178 -0.008259282 -0.090275906 0.018551296
-0.08887567 0.09787623 -0.24919164 0.011287262 0.092205025 0.03796284 0.15501478 -0.017911227
0.17771664 -0.017812695 -0.15932122 0.12919983 -0.12044496 -0.08778147 -0.09508309 -0.01100161
0.004538403 0.03747727 0.053287007 0.054570556 -0.05718249 0.08704406 -0.050464828 0.22411703
0.02278881 -0.08692445 -0.02151564 -0.29670006 -0.06627678 -0.28505966 0.16794823 -0.028005728
0.20449944 -0.11678983 -0.18043692 -0.19625583 -0.1839559 0.19398034 0.08475491 -0.01714708
-0.27536917 0.09794559 -0.23909782 -0.092081845 -0.31688714 0.25613317 -0.0013629319 0.1261085
0.0205976 -0.0849029 0.06538681 -0.026991466 0.058614887 -0.031578846 0.0552559 -0.17747937
-0.117167205 0.055682603 -0.0056680953 -0.062242765 -0.0052313283 0.1559167 -0.050071545 -0.13968833
0.14365363 -0.08813893 -0.14615792 -0.17497484 0.099800296 0.030833634 -0.10058132 0.06931912
0.063406266 0.07354357 -0.1770319 -0.034761228 0.09148211 -0.12482319 -0.025811253 -0.023523709
-0.23194835 -0.24570492 -0.22932853 0.06270516 0.026925763 -0.030775191 -0.0049895956 -0.018905682
-0.08616474 0.17809556 0.029388804 -0.15361041 -0.17993714 -0.22471504 0.05822906 -0.25866947
-0.23547637 -0.15474874 -0.09145768 -0.114220165 -0.18768051 -0.10598366 -0.14636402 -0.06277532
0.025911562 0.109880164 0.03079048 0.13712059 0.07773764 0.059669543 -0.031035932 -0.08427805
-0.06307012 -0.21732533 -0.31214955 -0.216436 -0.07033792 -0.08661019 -0.15619797 0.11259275
0.05350512 0.06144174 0.100370795 0.08614018 0.05716092 0.11690116 0.10097405 0.055651363
0.103838965 -0.079195306 -0.123584025 -0.044789914 0.07612087 0.015959894 -0.025904736 0.12081837
0.03392818 -0.09733438 0.005817129 0.0084339185 -0.13534716 -0.37971237 -0.028208429 0.02273762
-0.1995492 -0.21183325 -0.003328166 0.05806378 0.062991664 0.17486972 0.13261051 0.01853349
0.08497139 0.1158085 -0.0039024856 -0.1021202 -0.05560271 -0.045454618 -0.10562083 0.058148194
0.16765928 -0.033509344 -0.06266514 0.059295453 -0.0147670135 -0.024105415 0.069137886 0.042669415
00000000: 4451 923e 210a 0a3e 3608 0dbd 84d3 21be
00000010: 7d3a 16be c9ca aa3d 891a 8abd 42c3 883d
00000020: ea0e d2bd ec6f 0b3e 7a14 00be fc79 90bc
00000030: 6bbf 33be 900b 7dbd 4bb8 8a3e d5c3 c8bb
00000040: 07b1 5b3e 7add 45bd fdaf 093e 316d 8dbd
00000050: 26c1 77bd 54f3 783d 130c 8cbd 0c89 a5bd
00000060: ee0b b7bc 2531 63bc 8650 d13c 54c7 fabd
00000070: 4100 78be 63e3 d23d 5ac5 87be 2b25 ca3d
00000080: e560 573e 3866 70bc bbf6 ef3d 905f 333d
00000090: 6ad1 9a3d 33f6 b1bd 5235 14be ae18 f9bc
000000a0: 2912 9c3d 360e d23c d819 ab3a fb4d 50be
000000b0: cd35 15be aaf2 a93d 6c21 7dbe 9811 ab3c
000000c0: d599 5bbe 63d3 af3c 6cd5 0d3e 81b5 0d3c
000000d0: 8d58 603e d962 a53c b066 7d3e 713b 013e
000000e0: 55d7 e33b 266b a0bc ca32 64be 3f4b 5bbd
000000f0: 30d6 debd dbf8 bb3d 10d3 3b3e 5731 6bbd
00000100: 6f4b 0e3e d8ea ce3d 8b34 5d3d 2b7c 09be
00000110: 6f7b a3bd 08d2 853b c8a7 963d 64c4 2c3e
00000120: df6f a6bd 5003 0bbd fcfa b1bc f17b a13d
00000130: a41d 18be 38dc b3bd 4d2a 01be ba90 753c
00000140: 4585 b13d 813a 07bc 6b9b 0d3e c64e dc3d
00000150: a443 3c3e f151 07bc 93e2 b8bd e3f8 973c
00000160: 7304 b6bd 5573 c83d 182c 7fbe 35ee 383c
00000170: fdd5 bc3d ec7e 1b3d 32bc 1e3e 91ba 92bc
00000180: 5afb 353e eeeb 91bc 1a25 23be f64c 043e
00000190: d9ab f6bd c5c6 b3bd ecba c2bd 1940 34bc
000001a0: e2b6 943b c481 193d 7a43 5a3d 6085 5f3d
000001b0: 3038 6abd 2844 b23d 35b4 4ebd ef7e 653e
000001c0: 99af ba3c 7205 b2bd 9141 b0bc 12e9 97be
000001d0: 1fbc 87bd 57f3 91be 9ffa 2b3e 456c e5bc
000001e0: 4d68 513e 822f efbd 75c4 38be 4af7 48be
000001f0: ef5e 3cbe c8a2 463e fb93 ad3d 0878 8cbc
00000200: 30fd 8cbe b397 c83d 0fd6 74be 6895 bcbd
00000210: 083f a2be e323 833e 68a4 b2ba 9622 013e
00000220: 4cbc a83c 92e1 adbd 85e9 853d 351d ddbc
00000230: 2a16 703d d258 01bd 0354 623d 27bd 35be
00000240: 5cf5 efbd 7113 643d 6ebb b9bb 45f2 7ebd
00000250: 906b abbb a1a8 1f3e d217 4dbd 750a 0fbe
00000260: f019 133e 2f82 b4bd 6caa 15be 9b2c 33be
00000270: 1964 cc3d d196 fc3c 94fd cdbd 2ff7 8d3d
00000280: 25db 813d 039e 963d da47 35be ca61 0ebd
00000290: f95a bb3d 4da3 ffbd 1f72 d3bc cbb4 c0bc
000002a0: de83 6dbe 129a 7bbe 19d5 6abe 906b 803d
000002b0: 6b93 dc3c 411c fcbc c37f a3bb 17e0 9abc
000002c0: 2477 b0bd af5e 363e cac0 f03c 0c4c 1dbe
000002d0: 7141 38be b31b 66be 9881 6e3d 5370 84be
000002e0: b820 71be 7476 1ebe 2a4e bbbd 43ec e9bd
000002f0: 522f 40be f60d d9bd 73e0 15be 5990 80bd
00000300: 7c44 d43c da08 e13d 513c fc3c 5769 0c3e
00000310: e934 9f3d 0d68 743d 113f febc f899 acbd
00000320: e82a 81bd 888a 5ebe 11d2 9fbe 66a1 5dbe
00000330: 540d 90bd af60 b1bd 5cf2 1fbe 0797 e63d
00000340: 2f28 5b3d 55aa 7b3d 348f cd3d 436a b03d
00000350: 9221 6a3d e069 ef3d 7ccb ce3d aff2 633d
00000360: 86a9 d43d 2631 a2bd 9f19 fdbd a175 37bd
00000370: 42e5 9b3d 53be 823c 2b36 d4bc 9f6f f73d
00000380: 46f8 0a3d 3f57 c7bd 9d9d be3b 6b2e 0a3c
00000390: 7298 0abe a969 c2be 5d15 e7bc 3f44 ba3c
000003a0: a056 4cbe d1ea 58be 5c1d 5abb 49d4 6d3d
000003b0: c601 813d 0c11 333e 0dcb 073e 8cd3 973c
000003c0: 7b05 ae3d 022d ed3d d8c0 7fbb 6524 d1bd
000003d0: abbf 63bd 9f2e 3abd bc4f d8bd cd2c 6e3d
000003e0: e0ae 2b3e 1841 09bd 9556 80bd cadf 723d
000003f0: 58f1 71bc b878 c5bc 2a98 8d3d 20c6 2e3d

layer1.1.bn1.weight f4 [16]
1.2730073 0.8805775 1.2867404 0.8615154 1.0186769 0.8664314 1.0296242 1.0297238
0.83758867 0.95923215 0.962618 0.895547 0.928872 0.97512627 0.9432792 0.9758759
00000000: e7f1 a23f 876d 613f e9b3 a43f 468c 5c3f
00000010: 0164 823f 73ce 5d3f baca 833f fdcd 833f
00000020: 366c 563f 3d90 753f 226e 763f 9142 653f
00000030: 8eca 6d3f e0a1 793f bf7a 713f 01d3 793f

layer1.1.bn1.bias f4 [16]
-0.20291533 -0.12973638 0.4198941 -0.13311797 -0.00972788 -0.21622038 -0.20813729 -0.06527927
-0.19689797 -0.15989779 -0.21486531 -0.26433936 -0.21544567 -0.24811172 0.06260364 -0.31497118
00000000: 09c9 4fbe 9dd9 04be 5cfc d63e 1450 08be
00000010: b061 1fbc e068 5dbe f121 55be 23b1 85bd
00000020: 9f9f 49be 3fbc 23be a705 5cbe 7d57 87be
00000030: ca9d 5cbe 0011 7ebe 5636 803d e743 a1be

layer1.1.bn1.running_mean f4 [16]
-0.8706763 -3.4903789 -1.1361365 -2.1331244 -2.1423993 1.8284484 -0.7891041 -0.8208725
0.55599654 -0.6364045 -2.9551766 -2.8038764 -0.6738062 -1.7296326 -3.1022804 4.6133757
00000000: a4e4 5ebf 5e62 5fc0 ec6c 91bf 1c85 08c0
00000010: 121d 09c0 990a ea3f ba02 4abf b324 52bf
00000020: ca55 0e3f 68eb 22bf 9d21 3dc0 b672 33c0
00000030: 907e 2cbf 9a64 ddbf c38b 46c0 c6a0 9340

layer1.1.bn1.running_var f4 [16]
3.7499251 6.413351 5.3897023 3.7820766 5.126706 4.6868896 4.8453712 4.835469
2.7829106 3.4855382 3.2516923 3.5800176 3.7770278 6.863126 3.6956036 3.117743
00000000: c6fe 6f40 2c3a cd40 7178 ac40 8b0d 7240
00000010: fa0d a440 00fb 9540 480d 9b40 29bc 9a40
00000020: 351b 3240 0f13 5f40 ba1b 5040 021f 6540
00000030: d3ba 7140 ba9e db40 c584 6c40 1a89 4740

layer1.1.conv2.weight f4 [16, 16, 3, 3]
0.033391226 0.105392076 -0.009809151 0.013762878 -0.23934567 -0.06696709 -0.011998595 -0.07091166
0.12065605 0.15127109 -0.07296565 -0.019185066 0.09640102 0.1303005 -0.10501035 -0.063626304
0.051187973 -0.09516897 -0.05607864 -0.22103347 -0.032427568 -0.11916844 -0.37729672 0.1774725
0.002511469 -0.13085009 0.06395809 -0.118271336 0.09215295 0.024078103 0.07763897 0.1075937
0.13122317 -0.025809377 0.17065822 0.06389777 0.12733132 0.0565015 -0.07455141 0.10247687
0.20784654 -0.16562338 -0.077026434 0.11650309 -0.058734532 0.19907054 0.049909696 -0.0052751945
0.19231787 0.17031206 -0.015442281 0.16085911 0.1444375 -0.035204127 0.2504835 0.11689276
0.09499081 0.0434636 0.07294089 0.2149325 0.06955337 -0.13948554 0.10933174 0.020431643
-0.104654774 -0.07734093 0.03624263 -0.11156983 0.07233683 0.11439001 -0.06579892 -0.024061216
0.03177881 -0.01915521 -0.117348924 -0.060164254 -0.008676787 -0.1254357 -0.0172144 -0.05792668
-0.06801353 0.016830152 -0.009846245 -0.19168036 -0.06953953 0.0068890397 -0.15305823 -0.06747164
-0.06738662 -0.16943394 0.022271393 0.02130355 0.067836344 0.11977537 0.11797665 0.13870372
0.025061907 0.0019595341 -0.11380121 -0.0422141 -0.1150255 -0.085939735 0.001350775 -0.060715422
-0.07717992 -0.13368978 -0.18923269 -0.103024125 -0.05177078 -0.30862153 -0.09557071 -0.07974417
-0.41640997 -0.065940335 -0.13132009 -0.47042385 -0.058597952 0.03020074 0.040305693 -0.04726707
0.061394524 0.26638663 0.10553583 0.112757534 0.14824618 0.15058364 -0.20516132 -0.07214617
0.013463004 -0.032697234 0.079711765 0.025089959 -0.13903563 0.0574636 0.09693218 -0.09868307
-0.29428044 -0.29147524 0.044393755 -0.059820883 -0.21994945 0.114357725 0.018811967 -0.09801238
0.048482724 0.13819665 -0.023852332 -0.021926278 -0.20692918 -0.09641586 -0.20872128 0.0164047
0.20330313 0.16924237 0.20245244 0.21884346 -0.007848216 0.11261231 0.1731264 -0.07825021
-0.13133103 -0.08152576 -0.095238425 -0.114659816 -0.03524499 -0.26179928 -0.2447828 0.19362228
-0.19179584 -0.08376092 0.13372742 0.1149742 0.063528806 -0.13718669 0.020486703 0.05968442
-0.08111175 -0.0018555921 -0.047671758 0.02809312 0.057322264 0.12113491 -0.10155031 0.08043208
0.1526064 -0.06001509 0.13260047 0.14184445 -0.1350787 -0.098002404 -0.044628393 -0.03088819
-0.13855004 -0.20770086 -0.15774916 -0.020902678 -0.1616469 -0.14135927 0.01873418 -0.07318301
0.10683727 0.094561644 -0.2041519 0.02244552 0.09302056 -0.2347514 -0.029200729 0.12267539
-0.14175324 -0.15363678 -0.0331909 -0.20883107 -0.15762974 -0.08554116 -0.12089192 -0.1563641
0.08063464 0.10310479 0.09308831 -0.15421028 -0.056234285 0.11511369 -0.10073609 0.031803343
0.15876135 0.011179072 0.028929641 -0.044711575 -0.0303431 -0.029822534 -0.082948536 -0.065709986
-0.051805597 -0.009150444 0.11995593 0.026067311 0.14128304 -0.024011089 -0.10074242 -0.0259705
-0.031012304 0.043497715 0.15296732 0.16722043 0.11152792 0.08468541 0.02195692 -0.059323885
-0.042861648 -0.08035924 -0.13814747 0.042260334 0.14632632 -0.009930337 -0.039033547 -0.104700826
00000000: 3dc5 083d cdd7 d73d 90b6 20bc b27d 613c
00000010: 0817 75be 0b26 89bd c195 44bc 223a 91bd
00000020: 851a f73d cfe6 1a3e 046f 95bd 002a 9dbc
00000030: e66d c53d 7f6d 053e ab0f d7bd 824e 82bd
00000040: 7baa 513d f3e7 c2bd b7b2 65bd 9956 62be
00000050: c5d2 04bd 950e f4bd 092d c1be 5abb 353e
00000060: 7597 243b 91fd 05be 76fc 823d 3e38 f2bd
00000070: b0ba bc3d 713f c53c 2e01 9f3d 165a dc3d
00000080: 5e5f 063e 306e d3bc 07c1 2e3e d6dc 823d
00000090: 2463 023e 1e6e 673d 69ae 98bd 65df d13d
000000a0: b9d5 543e 2d99 29be 09c0 9dbd 2c99 ee3d
000000b0: 9f93 70bd 26d9 4b3e 1c6e 4c3d 8adb acbb
000000c0: faee 443e 4966 2e3e 9f01 7dbc 40b8 243e
000000d0: 6de7 133e 3432 10bd 603f 803e 7965 ef3d
000000e0: 8b8a c23d e306 323d 0962 953d 4417 5c3e
000000f0: ff71 8e3d 4cd5 0ebe 52e9 df3d 4360 a73c
00000100: 3e55 d6bd ec64 9ebd 2773 143d b97e e4bd
00000110: 5525 943d 4f45 ea3d 96c1 86bd 071c c5bc
00000120: 7f2a 023d 63eb 9cbc a254 f0bd cb6e 76bd
00000130: 1529 0ebc 3772 00be 3705 8dbc 8744 6dbd
00000140: ad4a 8bbd 63df 893c 2552 21bc db47 44be
00000150: be6a 8ebd 74bd e13b 4cbb 1cbe 922e 8abd
00000160: ff01 8abd 1780 2dbe 7f72 b63c c884 ae3c
00000170: c8ed 8a3d ca4c f53d be9d f13d 5908 0e3e
00000180: a14e cd3c 876b 003b 9c10 e9bd b1e8 2cbd
00000190: 7d92 ebbd 2c01 b0bd 7d0c b13a bcb0 78bd
000001a0: 8210 9ebd f9e5 08be 37c6 41be 50fe d2bd
000001b0: 990d 54bd a403 9ebe 94ba c3bd e950 a3bd
000001c0: b033 d5be ba0b 87bd c678 06be 65db f0be
000001d0: 6804 70bd 8b67 f73c 9517 253d 1d9b 41bd
000001e0: d378 7b3d d463 883e 2b23 d83d 6ced e63d
000001f0: d9cd 173e 9932 1a3e cf15 52be 5fc1 93bd
00000200: ee93 5c3c 89ed 05bd ec3f a33d 7589 cd3c
00000210: 5b5f 0ebe f45e 6b3d 6184 c63d 591a cabd
00000220: edab 96be 3e3c 95be 3ad6 353d be06 75bd
00000230: 6e3a 61be 6234 ea3d 8e1b 9a3c b7ba c8bd
00000240: d295 463d 6c83 0d3e f765 c3bc bd9e b3bc
00000250: 3ee5 53be ae75 c5bd 08bb 55be 2663 863c
00000260: b22e 503e df4d 2d3e b14f 4f3e 8018 603e
00000270: ce95 00bc 48a1 e63d 0c48 313e a541 a0bd
00000280: a47b 06be faf6 a6bd 5d0c c3bd c4d2 eabd
00000290: 0d5d 10bd 8e0a 86be 58a8 7abe eb44 463e
000002a0: 2166 44be d88a abbd d7ef 083e 9877 eb3d
000002b0: 641b 823d ab7a 0cbe bbd3 a73c a677 743d
000002c0: eb1d a6bd 5737 f3ba 7643 43bd 8b23 e63c
000002d0: c0ca 6a3d 9415 f83d 9cf9 cfbd 93b9 a43d
000002e0: da44 1c3e 62d2 75bd 6bc8 073e ac3f 113e
000002f0: 1252 0abe 7cb5 c8bd 43cc 36bd 3b09 fdbc
00000300: 10e0 0dbe 89af 54be ff88 21be 183c abbc
00000310: c486 25be 7cc0 10be 6c78 993c f9e0 95bd
00000320: 80cd da3d 89a9 c13d 320d 51be abdf b73c
00000330: 9081 be3d ac62 70be 5e36 efbc 3c3d fb3d
00000340: c327 11be f652 1dbe 2ef3 07bd d0d7 55be
00000350: b169 21be 3430 afbd 2f96 f7bd e91d 20be
00000360: c623 a53d 9b28 d33d 15a5 be3d 4de9 1dbe
00000370: ec55 66bd bac0 eb3d b94e cebd 3944 023d
00000380: 5692 223e 6d28 373c dbfd ec3c 7c23 37bd
00000390: 1892 f8bc 634e f4bc ece0 a9bd f592 86bd
000003a0: 1b32 54bd beeb 15bc 74ab f53d 1d8b d53c
000003b0: 80ac 103e e7b2 c4bc 0b52 cebd 16c0 d4bc
000003c0: 840d febc a92a 323d 77a3 1c3e d53b 2b3e
000003d0: c068 e43d 8b6f ad3d 00df b33c 9afd 72bd
000003e0: b28f 2fbd 6393 a4bd 8876 0dbe 2c19 2d3d
000003f0: 91d6 153e dab2 22bc a4e1 1fbd 636d d6bd

layer1.1.bn2.weight f4 [16]
1.0237242 0.9880299 0.8381125 0.9814542 0.91962934 1.0287615 0.9967664 1.0586554
0.75872314 1.0272206 0.96107966 0.8216082 1.0921028 1.0941194 0.9228934 0.8850435
00000000: 6509 833f 87ef 7c3f 8a8e 563f 9540 7b3f
00000010: d46c 6b3f 75ae 833f 152c 7f3f 0582 873f
00000020: ae3b 423f f77b 833f 5109 763f ea54 523f
00000030: 06ca 8b3f 1b0c 8c3f be42 6c3f 3692 623f

layer1.1.bn2.bias f4 [16]
0.21879758 0.16433778 -0.14474642 -0.13399433 -0.22231284 -0.21965481 -0.13651441 0.124738626
0.030604888 -0.18199061 0.03208988 -0.2702739 -0.45633775 0.091127984 -0.104452625 -0.25882939
00000000: 790c 603e 2a48 283e 6838 14be cf35 09be
00000010: faa5 63be 31ed 60be 6fca 0bbe f776 ff3d
00000020: 1ab7 fa3c bf5b 3abe ae70 033d 5761 8abe
00000030: 1aa5 e9be 4fa1 ba3d 42eb d5bd 4985 84be

layer1.1.bn2.running_mean f4 [16]
-0.7647433 -0.8093178 -0.26852494 -0.7948719 0.102959774 0.20836729 -1.9995214 -1.0174439
-0.31526145 -0.56806123 -0.50214094 -1.0285169 0.38461235 -0.6758024 0.19193421 0.29153478
00000000: 38c6 43bf 742f 4fbf 1a7c 89be ba7c 4bbf
00000010: 93dc d23d 3c5e 553e 51f0 ffbf 9a3b 82bf
00000020: f369 a1be 766c 11bf 4f8c 00bf 71a6 83bf
00000030: e9eb c43e 6301 2dbf 678a 443e 0c44 953e

layer1.1.bn2.running_var f4 [16]
2.2311544 1.235685 1.0274639 1.1393068 1.4872965 1.1041585 1.4244298 1.7226508
1.1521038 2.002139 2.039833 1.2247242 1.3338972 1.4807435 1.3236221 1.2803674
00000000: 3ccb 0e40 ed2a 9e3f f083 833f ced4 913f
00000010: bb5f be3f 1155 8d3f b753 b63f d27f dc3f
00000020: 2378 933f 0c23 0040 a08c 0240 c3c3 9c3f
00000030: 25bd aa3f 0189 bd3f 736c a93f 14e3 a33f

layer2.0.conv1.weight f4 [32, 16, 3, 3]
-0.21217194 0.085907005 0.23420109 0.0031798666 -0.18573743 0.12568858 0.23208481 0.016026186
-0.14139168 -0.13844849 0.034040634 0.0028430976 -0.20689115 -0.122001566 0.16385901 0.07303557
-0.27763638 -0.13343094 0.027199527 -0.057130463 -0.0036772648 0.028074134 -0.062637605 0.1158366
-0.07864283 0.03441795 -0.061567698 -0.095834225 0.015274909 -0.03759012 -0.09096552 -0.074333675
-0.032435372 -0.027520873 -0.04513562 0.041411277 0.005843533 -0.21531264 -0.13312894 -0.055207193
0.16156733 -0.15041797 -0.24604924 0.0071398565 0.10145167 -0.15690841 0.007345621 -0.060233396
-0.18533382 -0.13818868 0.050094128 0.1403805 -0.11997048 0.049762912 0.1934116 0.04336502
-0.010894927 -0.05831235 0.25929415 0.15405416 -0.074322484 0.08290484 0.12729228 0.1644202
-0.0030997687 0.07337947 -0.048151433 0.01632659 -0.10652835 -0.13340494 0.0905766 0.12196753
-0.22272483 -0.16811548 0.07923708 -0.1347687 -0.09752585 -0.10449709 -0.02230763 -0.15066594
0.06237264 0.03333169 -0.09974509 0.14630707 0.20313229 0.03463414 -0.18733747 0.018276598
0.15297371 -0.13062754 -0.011477461 -0.09332709 -0.2107252 -0.11366442 -0.07158854 -0.053252347
0.06770678 -0.12764433 0.07630851 -0.0050882883 0.06837543 0.0021010027 -0.064710476 -0.011772058
0.0028520152 -0.04576016 0.0016095481 -0.06575332 0.19024916 -0.059008986 -0.1313259 0.0072898967
0.32803664 0.010783092 0.13327254 -0.007838976 0.03330952 0.04395761 -0.014484608 0.026160806
-0.08157784 0.07850443 -0.01187905 -0.04492458 5.8511418e-05 0.21054047 0.055194292 0.039472762
-0.009486445 0.052628744 0.06990232 0.019241553 -0.04863589 -0.052182563 0.094066426 -0.33720332
-0.091569364 -0.11328408 0.15155539 -0.31257665 -0.14267194 0.06302204 0.18419212 -0.024929734
-0.24457897 0.066601455 0.0365411 -0.17163345 0.1765148 -0.010321956 -0.15581892 0.245999
-0.027352452 0.04536018 0.08064743 -0.06842179 -0.07427227 0.16389292 -0.010446388 -0.0832037
0.23369934 -0.018219253 -0.035298333 -0.06607156 -0.10318382 0.043711293 0.04443599 -0.0062838397
-0.05639419 0.00015170207 0.0030258093 -0.11690532 0.13073266 -0.08604617 -0.020859843 0.11806824
-0.054397676 0.08444995 -0.050636243 -0.07635421 0.019342577 0.030184919 -0.1270435 0.018390318
-0.02216147 -0.033655602 -0.0401661 0.10623837 0.003988048 -0.1080032 0.118535034 -0.05830381
-0.25638533 0.22950616 -0.1556264 -0.03021342 0.18663675 -0.13875663 0.003977113 -0.044817284
0.030245302 0.027132785 -0.10069105 0.12743893 0.03360777 -0.026627453 0.07568841 0.024870155
0.1472489 -0.07144837 0.020028787 -0.008501402 -0.022142528 -0.054146938 0.10526961 0.017355941
0.023484608 -0.049443662 0.029720338 -0.066850215 -0.08340168 -0.021292837 -0.057417855 -0.11176387
0.13197477 0.07787168 -0.14239238 0.120342955 0.08747895 -0.2658148 0.03742587 0.07397335
-0.04454002 0.02412181 0.039976764 -0.08689287 0.08688629 0.110327065 -0.1441945 0.046465576
0.022821413 -0.1446313 0.14269772 -0.05372433 -0.006759894 -0.024033971 -0.0688099 0.13379219
-0.015718091 0.011006339 -9.2338276e-05 -0.035549074 0.13975579 -0.1363569 0.023886565 0.05404
00000000: 9a43 59be 03f0 af3d 69d2 6f3e 4f65 503b
00000010: f431 3ebe 82b4 003e a4a7 6d3e 5949 833c
00000020: fbc8 10be 71c5 0dbe 316e 0b3d 4353 3a3b
00000030: 46db 53be f5db f9bd a8ca 273e ac93 953d
00000040: 5b26 8ebe 1fa2 08be 8bd1 de3c a201 6abd
00000050: 44fe 70bb bafb e53c 2548 80bd bd3b ed3d
00000060: 7e0f a1bd d6f9 0c3d 692e 7cbd bc44 c4bd
00000070: 9d43 7a3c 19f8 19bd 214c babd 413c 98bd
00000080: f4da 04bd 7473 e1bc 21e0 38bd df9e 293d
00000090: 1c7b bf3b eb7a 5cbe f452 08be f020 62bd
000000a0: e871 253e 2b07 1abe 55f4 7bbe 75f5 e93b
000000b0: e5c5 cf3d 99ac 20be 89b3 f03b 4bb7 76bd
000000c0: 26c8 3dbe 5581 0dbe 802f 4d3d e8bf 0f3e
000000d0: 15b3 f5bd 32d4 4b3d b10d 463e 859f 313d
000000e0: a380 32bc eed8 6ebd 34c2 843e 60c0 1d3e
000000f0: 6336 98bd 03ca a93d e858 023e c55d 283e
00000100: 7d25 4bbb fa47 963d 703a 45bd 57bf 853c
00000110: 892b dabd 4e9b 08be 3980 b93d 1dca f93d
00000120: fa11 64be 7726 2cbe 0d47 a23d ce00 0abe
00000130: a2bb c7bd 9202 d6bd 7ebe b6bc 2c48 1abe
00000140: 747a 7f3d cf86 083d 2747 ccbd 85d1 153e
00000150: e901 503e 87dc 0d3d 65d5 3fbe ceb8 953c
00000160: 24a5 1c3e 3ac3 05be f60b 3cbc 4622 bfbd
00000170: 59c8 57be e4c8 e8bd 039d 92bd 221f 5abd
00000180: daa9 8a3d 32b5 02be a347 9c3d a8bb a6bb
00000190: 6b08 8c3d fab0 093b ed86 84bd 97df 40bc
000001a0: e0e8 3a3b 016f 3bbd 79f7 d23a ada9 86bd
000001b0: add0 423e 68b3 71bd 4c7a 06be 16e0 ee3b
000001c0: 6bf4 a73e 91ab 303c 9978 083e 0c6f 00bc
000001d0: 906f 083d e50c 343d d950 6dbc 304f d63c
000001e0: 4812 a7bd eec6 a03d 59a0 42bc d602 38bd
000001f0: 286a 7538 ec97 573e 6913 623d 31ae 213d
00000200: 096d 1bbc 3d91 573d f328 8f3d 76a0 9d3c
00000210: 6d36 47bd 62bd 55bd e6a5 c03d eaa5 acbe
00000220: b888 bbbd 7c01 e8bd 5631 1b3e 0c0a a0be
00000230: 9818 12be b311 813d dc9c 3c3e 7139 ccbc
00000240: e972 7abe 5866 883d 1fac 153d aec0 2fbe
00000250: 4cc0 343e 6c1d 29bc ff8e 1fbe 29e7 7b3e
00000260: 4012 e0bc 99cb 393d 7b2a a53d b920 8cbd
00000270: 0f1c 98bd 8cd3 273e 5427 2bbc b466 aabd
00000280: e14e 6f3e 8b40 95bc fc94 10bd 8750 87bd
00000290: 0a52 d3bd 9d0a 333d 8302 363d abe8 cdbb
000002a0: 98fd 66bd 3712 1f39 a84c 463b 0e6c efbd
000002b0: c8de 053e f938 b0bd 43e2 aabc c3cd f13d
000002c0: 19d0 5ebd 18f4 ac3d f367 4fbd 995f 9cbd
000002d0: 5374 9e3c 5d46 f73c b117 02be 4ba7 963c
000002e0: f98b b5bc 75da 09bd 3585 24bd 8193 d93d
000002f0: 2cae 823b c830 ddbd 7fc2 f23d facf 6ebd
00000300: f044 83be aa03 6b3e 875c 1fbe 2282 f7bc
00000310: b41d 3f3e 3816 0ebe 7152 823b 5492 37bd
00000320: ffc4 f73c 9345 de3c 1c37 cebd 5a7f 023e
00000330: 4da8 093d d121 dabc 8602 9b3d 7fbc cb3c
00000340: 6ac8 163e 8653 92bd 6913 a43c 7749 0bbc
00000350: 3f64 b5bc 2ec9 5dbd 9897 d73d 0c2e 8e3c
00000360: cb62 c03c 7085 4abd 1178 f33c c4e8 88bd
00000370: 80ce aabd 516e aebc fc2e 6bbd 75e4 e4bd
00000380: 6524 073e 307b 9f3d 4fcf 11be 5e76 f63d
00000390: 2a28 b33d e118 88be de4b 193d 577f 973d
000003a0: 996f 36bd 1a9b c53c adbe 233d e4f4 b1bd
000003b0: 70f1 b13d 28f3 e13d b9a7 13be b052 3e3d
000003c0: f9f3 ba3c 3a1a 14be 5a1f 123e 0b0e 5cbd
000003d0: 1a82 ddbb e4e2 c4bc 34ec 8cbd d200 093e
000003e0: 3ac3 80bc ef53 343c bca5 c1b8 e89b 11bd
000003f0: 241c 0f3e 25a1 0bbe c2ad c33c 0c59 5d3d

layer2.0.bn1.weight f4 [32]
0.8918118 1.2051543 0.9814295 1.0795982 0.9383209 0.9023843 0.96025056 0.94153637
1.0486321 0.9931316 1.0444306 0.8923748 1.0234255 0.88073087 0.9985845 0.88326466
1.1064084 0.81782925 0.83912957 1.1374612 1.0314239 0.9062988 0.96173155 0.9297372
0.9760263 0.98536235 0.9545116 1.2716364 1.0771788 1.1869023 1.0042423 0.7650142
00000000: c74d 643f 7f42 9a3f f73e 7b3f 4630 8a3f
00000010: cc35 703f a802 673f fbd2 753f 8708 713f
00000020: 9439 863f df3d 7e3f e7af 853f ad72 643f
00000030: 9bff 823f 9477 613f 3ca3 7f3f a21d 623f
00000040: ca9e 8d3f 425d 513f 32d1 563f 5498 913f
00000050: b305 843f 3303 683f 0a34 763f 4203 6e3f
00000060: dcdc 793f b540 7c3f df5a 743f fbc4 a23f
00000070: ffe0 893f 6aec 973f 038b 803f f8d7 433f

layer2.0.bn1.bias f4 [32]
-0.20446922 -0.19796592 -0.29232594 -0.18674318 -0.13758543 -0.30289575 -0.23950045 -0.1617535
-0.2766105 -0.1881608 -0.1972788 -0.17998229 -0.12357263 -0.11621162 -0.22286099 -0.25164354
0.00033904298 -0.19207609 -0.26041594 -0.09638569 -0.1752749 -0.19262871 -0.39015573 -0.24781826
-0.04286294 -0.27548692 -0.18406615 -0.2634367 -0.16329117 -0.1702669 0.0119652 -0.22666396
00000000: 6160 51be 94b7 4abe bfab 95be 9b39 3fbe
00000010: 32e3 0cbe 2715 9bbe 9b3f 75be b6a2 25be
00000020: e49f 8dbe 3aad 40be 7403 4abe 474d 38be
00000030: a613 fdbd 5c00 eebd ac35 64be 6cd7 80be
00000040: 94c1 b139 98af 44be 3d55 85be dc65 c5bd
00000050: 437b 33be 7640 45be 7ec2 c7be 12c4 7dbe
00000060: 0d91 2fbd 9f0c 8dbe d67b 3cbe 2de1 86be
00000070: cd35 27be 725a 2ebe b009 443c 991a 68be

layer2.0.bn1.running_mean f4 [32]
-1.1811813 -0.13991225 3.23131 -2.3819122 -3.7551541 -0.90871936 -2.0491362 -4.864637
-0.37704027 -2.2201927 -2.204916 0.8676743 -2.7408571 -1.5861886 -0.5426037 1.4618243
-2.3245237 -5.9185634 0.025007764 -1.4415296 0.6941694 -4.3384037 -3.4321663 0.21526338
-4.584862 1.1273453 -3.33449 -0.21959186 -2.383741 1.4852796 -4.3403344 -1.5885811
00000000: f330 97bf 2845 0fbe c8cd 4e40 4071 18c0
00000010: 7254 70c0 d5a1 68bf 0c25 03c0 1bab 9bc0
00000020: 6c0b c1be a317 0ec0 581d 0dc0 e71f 5e3f
00000030: 346a 2fc0 3a08 cbbf 13e8 0abf 0f1d bb3f
00000040: ffc4 14c0 df64 bdc0 15dd cc3c 0b84 b8bf
00000050: 16b5 313f 34d4 8ac0 9da8 5bc0 016e 5c3e
00000060: 31b7 92c0 da4c 903f 4968 55c0 b0dc 60be
00000070: 368f 18c0 a41d be3f 05e4 8ac0 a056 cbbf

layer2.0.bn1.running_var f4 [32]
5.5655327 10.467885 11.292282 10.572156 9.558587 5.594802 7.4384866 5.829332
5.986435 7.4484744 10.404023 8.700236 11.003362 7.318396 10.588812 7.2556467
8.193284 7.2839947 9.086329 11.883143 9.779312 11.352073 6.517106 5.1109767
9.549311 7.5740147 7.6106706 10.654028 8.242259 10.003644 9.01365 5.8217125
00000000: d818 b240 757c 2741 30ad 3441 8d27 2941
00000010: f9ef 1841 9e08 b340 1508 ee40 e389 ba40
00000020: e090 bf40 e759 ee40 e176 2641 2b34 0b41
00000030: c50d 3041 4d30 ea40 c66b 2941 422e e840
00000040: b117 0341 7c16 e940 9b61 1141 5b21 3e41
00000050: 1078 1c41 17a2 3541 228c d040 1f8d a340
00000060: fac9 1841 545e f240 9d8a f340 e676 2a41
00000070: 4be0 0341 ed0e 2041 e937 1041 784b ba40
