resnet/resnet.ckpt (torch, 815633 bytes, 77 tensors)

conv.weight f4 [16, 3, 3, 3]
000000 4f 8d 64 3b 7a 1b b8 bd 0e 88 c6 3d cd d2 00 3d
       0.0034874266 -0.08989616 0.09693919 0.031451035
000010 1a 96 07 3e df 8a e1 3c 37 b1 16 3c 8c 74 cf 3c
       0.13240853 0.02753204 0.009197525 0.025324129
000020 0a 9c 12 3e 56 34 05 be 10 16 26 3e 75 18 a1 3d
       0.14317337 -0.13008246 0.16219354 0.07865993
000030 99 bd 6b 3d d1 8f be 3c 3d 70 74 3e 67 eb 33 be
       0.05755386 0.023261936 0.2387094 -0.17570268
000040 49 2b 20 3d cb 96 df 3d da df 83 3d 5f 19 e1 bd
       0.03910378 0.10917433 0.06439181 -0.10991167
000050 ed f8 d3 3d f0 92 97 bd f3 24 a9 bd 0c 14 c1 bd
       0.10350213 -0.07401073 -0.08259001 -0.09427652
000060 20 54 2e bd 7f d4 54 bd b9 c0 c1 bd d3 36 30 bd
       -0.042560697 -0.051960465 -0.09460587 -0.043021034
000070 88 dd 0e bd 5f 6d ae 3d 4b 87 96 bb 7c f6 20 3e
       -0.034879237 0.08516955 -0.004593765 0.15719026
000080 f7 19 0e bd a5 2f 06 be cb 79 b5 3c 63 1a a1 3d
       -0.03469273 -0.13104112 0.022152802 0.07866361
000090 71 34 fa bd 41 6c 1a be 17 a3 08 bd e2 34 c9 bd
       -0.12217034 -0.15080358 -0.03335866 -0.0982454
0000a0 91 e7 a1 bd 79 0b 57 3d db 69 68 be 50 48 8d 3c
       -0.07905496 0.052501176 -0.2269663 0.017246395
0000b0 64 95 06 3e 1e 1c 85 bd 8d fd b1 3c f4 ca 56 3e
       0.13142926 -0.064995036 0.021727348 0.20975858
0000c0 1b 1c 85 bc 71 33 23 be f4 45 33 bd b3 0a 3a 3e
       -0.016248753 -0.15937592 -0.043767884 0.18168144
0000d0 69 5d f7 bd da 0b d2 bd 43 7d 1d 3d c7 2a 56 3e
       -0.120783634 -0.10256167 0.038449537 0.20914756
0000e0 87 e7 db bd 23 67 36 be 4b 36 32 be 2e 67 d1 bd
       -0.1073752 -0.17812781 -0.17403524 -0.10224758
0000f0 25 28 01 be 70 65 2a 3e 33 eb 22 be cf 22 94 bd
       -0.1261297 0.16640258 -0.15910034 -0.07233202
000100 bf 83 e9 3d 3b 9a 35 3e b5 07 f8 3d ad 2f 0d 3e
       0.11402082 0.17734616 0.12110845 0.13787718
000110 13 1f 17 be 0b 94 e7 bd 3d bc 0d 3e 49 74 cf bd
       -0.14757948 -0.11307534 0.13841338 -0.101296015
000120 da ce 9a bd 35 85 86 3d d6 f6 2d be f2 da ef 3c
       -0.07558985 0.06568376 -0.16988692 0.029279206
000130 59 fa 54 3d aa 56 ad 3d 8b 2b 36 bd f6 5b 07 bc
       0.051996563 0.084637955 -0.04447512 -0.008261671
000140 e0 66 0a 3e fa 9d 1c 3e 60 cf a2 3d 64 18 97 bd
       0.13515806 0.15294638 0.0794971 -0.07377699
000150 6f e3 97 3d f2 b7 29 be af d0 1b 3e 2a b3 12 3e
       0.074164264 -0.16574076 0.15216325 0.14326158
000160 7c f0 32 be cf f8 fb bd 81 f2 81 bd fb c8 b0 3d
       -0.1747455 -0.12303316 -0.06345082 0.08632084
000170 25 57 0f 3c e3 01 f9 3c ad 56 e7 3d 5c 2f 97 bd
       0.008748804 0.030396407 0.11295829 -0.0738208
000180 04 0a 4d be e7 9c e8 3d ee ee e6 bd b8 3b ae 3d
       -0.20023352 0.11358052 -0.11276041 0.08507484
000190 ea b5 2a 3e 31 2e c1 3d e6 6d 93 3d eb d4 39 be
       0.16670957 0.094326384 0.07198696 -0.18147628
0001a0 5f 31 ac bd 83 0c df bc 2b 0b 3d bd db 9a a4 bd
       -0.08407854 -0.027227646 -0.04615323 -0.08037349
0001b0 07 ba be bc 40 3b cd bc a1 5a 45 be ce 54 04 3e
       -0.023282064 -0.025052667 -0.19272853 0.12922975
0001c0 f1 c4 64 3b c6 a0 45 3d b1 70 c4 bd 2c a5 3f be
       0.0034907425 0.04824903 -0.09591807 -0.18715352
0001d0 14 64 27 be 7f 71 59 bc 27 97 09 bd 5c 42 01 3e
       -0.1634677 -0.0132716885 -0.033591416 0.1262297
0001e0 e3 c4 75 bd 5d 39 c7 3d 6d 9d ec bd 45 98 24 bd
       -0.06000222 0.09727738 -0.11553464 -0.040184278
0001f0 7c e8 78 bd ba 1e 1b be f9 d9 ab bd 7c 7e 3e 3e
       -0.06076859 -0.1514844 -0.08391184 0.18602937
000200 47 5b ab bd 4b 8c eb bd 9b bc 2e be 24 d2 dd bd
       -0.08367019 -0.11501368 -0.17064135 -0.10831097
000210 24 91 20 be f6 96 13 bd 75 7d 11 be 87 1e df 3c
       -0.15680367 -0.03603264 -0.14208014 0.027236236
000220 c6 d9 d7 3d a9 48 d1 3d f7 b9 e3 3d 51 2f 68 3c
       0.10539584 0.10218937 0.11119454 0.014171437
000230 7d 85 9e bd 83 b7 c3 3d 5d b6 e2 3c 5e 93 1c bd
       -0.077403046 0.095564865 0.027674848 -0.038226478
000240 cf b7 14 3e c8 d4 e4 3d 91 65 07 be 44 d1 21 be
       0.14523242 0.11173397 -0.13222338 -0.15802485
000250 e3 3e 37 be 33 5e 3b be 13 12 dd 39 c9 ab 91 3d
       -0.17895083 -0.18297653 0.0004216587 0.071128435
000260 47 9d 0e be 20 45 11 be c6 26 48 3e 87 b3 94 bc
       -0.13927184 -0.14186525 0.19546041 -0.018152012
000270 48 f1 ab bc a9 bd 32 3e 76 63 29 3e 1a 48 86 bd
       -0.020989075 0.17455162 0.16541848 -0.06556721
000280 34 c6 28 3e 22 66 10 3e 32 76 c1 3d 4d 24 63 bd
       0.16481858 0.1410146 0.09446372 -0.05545454
000290 f5 ab 9a bd 8e 24 ea bd 38 21 ed bd 8b ea 55 bd
       -0.075523295 -0.114327535 -0.115786016 -0.05222563
0002a0 5f 44 21 3e 9f 10 e2 bc 6c 62 9a bb 94 2f 54 3e
       0.15748738 -0.027595816 -0.00471144 0.20721275
0002b0 8f a5 c0 bd 42 b3 b9 bd 94 6f 29 3e fa 43 b5 bd
       -0.09406578 -0.09067394 0.1654647 -0.08850856
0002c0 28 02 b9 3d 17 9e cc 3d 23 c6 3c 3d a1 6c aa bc
       0.090336144 0.09991091 0.046087395 -0.020803751
0002d0 c8 f0 fe 3d 89 19 05 be 0c 19 b7 3a 57 50 40 3e
       0.12448269 -0.12998022 0.0013969257 0.18780647
0002e0 b0 bb e9 3d 7f 5c 56 be 6f d7 1f bd 68 8e af bc
       0.11412752 -0.20933722 -0.039023813 -0.02143021
0002f0 f7 c6 b1 bc 70 0d 32 be ad d4 4c 3e fb 2b cb 3c
       -0.02170132 -0.17387938 0.20003004 0.024801245
000300 aa b6 15 3e 3d f4 2f be 2c ac 40 3d 26 bd 79 3d
       0.14620462 -0.17183013 0.047039196 0.0609714
000310 0c 37 a3 3d d4 48 7e 3c 90 80 5b 3d d7 e9 e5 bd
       0.07969484 0.015520293 0.053589404 -0.11226242
000320 83 8b 05 be 7c ee 3d 3c 5a 77 99 bd bc 31 bc bd
       -0.13041501 0.011592504 -0.07493468 -0.091891736
000330 ad 12 ef 3d e7 cc 41 3d e7 0b 09 be 9a 94 14 3e
       0.11673484 0.04731455 -0.13383447 0.14509812
000340 09 1d c4 bd b0 ad 3a 3d 2f 94 1a be 4d ad 76 3d
       -0.095758505 0.045575798 -0.1509559 0.060223866
000350 ca c8 9b bc 1d 89 2d 3d f3 da 13 3e 15 12 d9 bc
       -0.019016642 0.04236709 0.14438991 -0.02649788
000360 5a 9f 21 3e 32 e2 84 bd 13 b6 03 bd b4 91 5e 3b
       0.15783444 -0.06488456 -0.03215606 0.0033961358
000370 1b 62 2e be af 1b e6 3d 6b df fd 3b 99 42 f7 bd
       -0.17029612 0.11235749 0.0077475808 -0.12073249
000380 40 2f 45 3e 78 91 c4 3d ef 28 04 bd b2 df 0d 3e
       0.19256306 0.095980585 -0.0322656 0.13854864
000390 65 19 c9 3b 90 4e 4c 3c f7 f6 99 3c 25 08 0d 3e
       0.0061370605 0.012469903 0.01879452 0.13772638
0003a0 f3 9b aa 3b 4f 97 b6 bd 32 38 87 bd 58 c4 19 3e
       0.005206579 -0.089155786 -0.06602515 0.15016305
0003b0 18 18 50 3e ff 6c 3d be 26 fb 36 be 31 3a 1c 3e
       0.20321691 -0.1849861 -0.17869243 0.15256573
0003c0 ed fc 94 3d 5b 75 e9 3d 6e 84 92 3d e5 44 46 3e
       0.07274804 0.11399337 0.07154165 0.19362219
0003d0 da 38 6d bc c9 01 8e 3a 33 a8 ba bd 0b f6 de 3d
       -0.0144788865 0.0010834272 -0.09114113 0.10886773
0003e0 9a ed 8f bd 78 12 a7 bd 26 8d d8 bc 82 15 f7 3a
       -0.07027741 -0.081578195 -0.026434492 0.0018851014
0003f0 d3 d6 92 bd cd 7f 2d 3e ec 39 94 bd 53 42 90 bd
       -0.07169881 0.16943283 -0.0723761 -0.070439

bn.weight f4 [16]
000000 09 e9 7a 3f f4 b3 7e 3f a3 c4 82 3f b8 14 82 3f
       0.98011833 0.99493337 1.0216259 1.0162573
000010 80 23 79 3f 88 ca 77 3f d5 5e 82 3f 64 2c 82 3f
       0.97319794 0.96793413 1.018519 1.0169797
000020 a6 fc 76 3f 24 1d 75 3f a8 80 90 3f 52 50 80 3f
       0.9647926 0.9574759 1.1289263 1.0024512
000030 0d aa 81 3f 6f 40 82 3f d8 84 84 3f d9 8e 6f 3f
       1.013002 1.0175914 1.0353041 0.93577343

bn.bias f4 [16]
000000 96 e4 f6 3b c6 30 a7 3b 50 c2 fd 3c 34 bf b8 3c
       0.007534574 0.00510225 0.030976444 0.02255211
000010 ca 5c 2f bd 64 89 fb bc 50 32 56 3d 67 0e b5 3d
       -0.0428131 -0.030705161 0.052294075 0.08840638
000020 b8 7d 20 3c 84 d5 c9 bc 20 3d e8 3c e7 af 35 bc
       0.009795599 -0.024637945 0.02834946 -0.011089302
000030 a3 73 6c 3b e8 f3 cc 3c a6 0c 22 3d 9e 61 29 bd
       0.0036079667 0.025018647 0.039562844 -0.04135286

bn.running_mean f4 [16]
000000 7d 79 4d 3e 94 d4 70 be 6a 9f 3f bd e4 c9 78 bc
       0.20065875 -0.23518592 -0.04678289 -0.015184853
000010 23 47 27 bf 66 0d 5f 3e 8f 4e 4e 3d ae 2a ac 3c
       -0.6534292 0.21782455 0.050367888 0.021016445
000020 8e 9e 9c 3e 4c b2 38 be 9e ad 16 3b 0a 61 fd bd
       0.30589718 -0.18036765 0.0022991668 -0.12372024
000030 e8 eb 0e be c8 1d ce bc 45 a0 e0 3c 0e 29 32 3e
       -0.13957179 -0.025160685 0.027420172 0.17398474

bn.running_var f4 [16]
000000 6c 97 91 3c c6 6e a3 3c 3f d1 e3 3b e9 c6 55 3c
       0.017772399 0.019950282 0.0069524343 0.013047912
000010 22 f1 e9 3d 5c 74 91 3c 50 aa 80 3c e9 d7 9b 3b
       0.114229456 0.01775568 0.015706211 0.004755963
000020 2c 6a fc 3c 01 98 8f 3c 41 dc 01 3b 80 11 3e 3c
       0.030812345 0.017528536 0.001981512 0.011600852
000030 f4 bd 0d 3c 10 aa a8 3b 93 41 8f 3b 69 e3 43 3c
       0.008651245 0.005147226 0.0043718307 0.011956074

layer1.0.conv1.weight f4 [16, 16, 3, 3]
000000 c8 50 3f bd 15 86 71 bd 60 10 c4 bc 1f 07 bb bb
       -0.0467079 -0.05896576 -0.02393359 -0.005707636
000010 43 3a 87 bc 40 e2 f7 3c 0b 1c 4e 3c 76 3b 0d bd
       -0.016507274 0.030259252 0.012579928 -0.034480534
000020 d3 f1 93 bd 00 1e 86 bd 57 36 8e bd bd 66 65 bd
       -0.07223859 -0.06548691 -0.06943958 -0.056006182
000030 86 d4 0f 3d 3b f9 b8 bd 53 6f cb 3c ba 57 17 bc
       0.035114788 -0.09031912 0.024833357 -0.009237224
000040 41 97 86 bd 47 0f c8 bc 91 af b3 3c 2d 35 07 3d
       -0.06571818 -0.024421347 0.021934303 0.033009697
000050 42 99 06 bd 75 96 e7 bc 46 26 8d 3d 69 35 f2 bc
       -0.032861 -0.028269986 0.06892066 -0.029566484
000060 c3 8d 7b bc 62 2a 45 3d 74 47 38 3d 48 22 52 bd
       -0.015353623 0.048136123 0.044990018 -0.051302224
000070 d7 f4 e1 bd 81 56 70 bd 62 99 38 3d 75 5c 3d 3d
       -0.110330276 -0.058676247 0.045068152 0.046230752
000080 97 50 1e bd f5 97 b2 bc 94 f5 a0 bd 14 0d 89 bd
       -0.038651075 -0.021800974 -0.0785934 -0.066919476
000090 2a 27 92 3a 0b d3 f8 bc 3f ba 95 bb e3 20 8e 3d
       0.0011150588 -0.03037407 -0.0045693214 0.069398664
0000a0 c7 a2 85 3d b6 f3 9e 3d a7 5e b5 bd 21 34 a9 3c
       0.06525188 0.07761328 -0.08855944 0.02065474
0000b0 b1 2f c9 bc 1e b2 a3 3d 05 99 15 bc da 20 23 bd
       -0.024558874 0.079929575 -0.009130721 -0.03982625
0000c0 4a 27 23 bd ff 45 5d 3d db 71 94 3d c6 c8 20 bc
       -0.03983239 0.05402183 0.07248279 -0.009813493
0000d0 27 b7 89 3d 71 fd 78 3d ca 04 10 3a d2 c6 b0 bd
       0.06724387 0.060788576 0.00054938777 -0.08631672
0000e0 0d 39 2c bd 1e a4 67 bd 4b a7 77 3d 0b b4 8e bc
       -0.042046595 -0.056553 0.060462277 -0.017419836
0000f0 5b da ad 3d 10 8f cd 3a a8 27 d9 3d d8 36 d0 bd
       0.084889136 0.0015682895 0.10603267 -0.101667106
000100 a7 cf b2 bd 3a dd 69 bd bf 6c 1c bc cd 9e dc bd
       -0.08731013 -0.057095744 -0.009547411 -0.10772476
000110 21 46 80 bd 75 a6 77 3c ad 1a 16 bd 99 63 ce 3d
       -0.06263376 0.01511537 -0.036646534 0.100775905
000120 bb 4e ae bb ca ad 9e bd 31 11 aa 3c 9f bb 8a 3d
       -0.005319444 -0.077479914 0.02076015 0.06774067
000130 e2 66 57 bd 62 5c 7a 3b a9 b2 5c 3d e0 2e 93 bc
       -0.05258835 0.0038202037 0.05388132 -0.017966688
000140 a2 76 72 bd 1c d2 9f 3d 33 ce 85 3d 01 d7 a8 3b
       -0.05919517 0.07803747 0.0653347 0.0051525836
000150 ab 43 8d bd fb b7 a1 3d 5e a7 84 3c 7c 8a c6 3c
       -0.06897672 0.078964196 0.016193088 0.024235956
000160 9d f8 16 bd 64 a7 c5 3d d8 3f b8 3c 51 c3 93 3d
       -0.03685819 0.09651068 0.02249138 0.07214988
000170 5e 51 98 39 e6 66 b9 3c 95 2b f8 bd 26 cf 24 bd
       0.00029052322 0.022632074 -0.121176876 -0.040236615
000180 ba ee fa bd be 95 ae bd 51 8c 0b bd 9d 4e 33 bd
       -0.12252565 -0.08524655 -0.034069363 -0.043776143
000190 87 87 99 3b 8d fc 4c 3d bc ff f6 bc 54 b7 8b bd
       0.0046853456 0.05004554 -0.03015124 -0.068220764
0001a0 1d fe a7 bd 56 97 ff 3c a0 10 3e 3d 08 35 90 3d
       -0.08202765 0.031200092 0.046402574 0.07041365
0001b0 23 f5 b3 bd 48 f5 8f 3c eb 9e fe bc 95 9a b9 bc
       -0.087869905 0.017573014 -0.031081637 -0.022656718
0001c0 f3 2d 17 3c 58 ce 14 bc 1a 2a bb 3c 2a 9a 96 bd
       0.009227264 -0.009082399 0.022847224 -0.07353623
0001d0 ae de 2f 3c 5f 17 07 bd 66 ca 70 bd af 04 7f 3d
       0.010734243 -0.032981273 -0.058786772 0.062260326
0001e0 f3 f2 ce 3d b7 2d af bc 93 a1 34 bc 11 0a 19 3d
       0.10104933 -0.021384103 -0.01102485 0.037363116
0001f0 e4 1e 47 3d a5 08 85 bd ac d8 50 bd d2 bf 92 3d
       0.048613444 -0.064957894 -0.050987884 0.07165493
000200 f4 8e bc 3b cb e2 86 3c 48 d6 10 bd 65 7c 9f bd
       0.005754346 0.016465565 -0.035360605 -0.07787398
000210 ad 0f 8f bc 59 7f a5 3d 63 41 14 3d d4 de b2 3c
       -0.01746353 0.0808093 0.03619517 0.021834768
000220 b8 f7 cd bc a9 e8 73 bd 1d 97 4a bc 97 db ac bb
       -0.025142536 -0.059548054 -0.01236513 -0.0052752006
000230 e0 61 b6 3b be ed 06 bd 1c 02 9e 3d 30 50 91 3d
       0.005565867 -0.032941572 0.07715246 0.07095373
000240 85 7e cc 3c e9 26 7d 3d f7 15 9e bd 2d ef 13 b9
       0.024962673 0.061804686 -0.07719033 -0.00014108112
000250 2a a0 40 bd 82 1c 4a 3d 04 dc 32 bd 1f 3b 0f bd
       -0.047027744 0.049343593 -0.043666855 -0.03496849
000260 da 23 e9 3b 65 4c 66 bd f5 7d 18 bd 42 85 da 3b
       0.0071148695 -0.0562252 -0.037229497 0.0066687176
000270 a0 a4 6c bd 8d 4f 63 3d 1e 6b f1 bc ab 5f bf 3c
       -0.057774186 0.055495787 -0.029470023 0.023361048
000280 92 e4 81 bc a6 f3 62 3b 3d da 14 3d b3 e2 0a 3d
       -0.015856061 0.003463009 0.03634094 0.033907603
000290 16 78 9e bd a4 74 07 3c 8c c1 76 3d e9 c6 c6 bc
       -0.07737748 0.008267555 0.060243174 -0.02426477
0002a0 32 53 de 3d ac d3 a9 3d 3b 2f 62 3d 8d 2d 93 3c
       0.10855712 0.08292326 0.055220824 0.017966056
0002b0 4c 81 55 bd e2 f9 ae bc a9 d1 9c 3d 41 f5 99 3d
       -0.05212526 -0.021359388 0.07657177 0.075174816
0002c0 fb 61 7b 3d c9 94 d0 3b 39 1d aa 3d fe 09 d1 3c
       0.06137274 0.006365393 0.08306355 0.02551746
0002d0 a1 2e 1f 3d c0 c1 41 3c 40 14 ab bd f5 22 c6 bb
       0.03886283 0.011825979 -0.08353472 -0.0060466477
0002e0 45 b1 87 3d eb 75 b0 bd 63 7e 79 bd 97 19 ae bd
       0.06625608 -0.08616241 -0.060911547 -0.085009746
0002f0 74 57 83 3d 22 4e 83 3d a5 c5 86 bd 92 dc fe 3c
       0.06413165 0.06411387 -0.065806665 0.031111035
000300 d4 fe 96 3c 43 30 5c 3c 8a 22 73 3c f9 04 8a 3d
       0.018432058 0.013439241 0.014839778 0.0673923
000310 c4 37 7b 3d 89 b5 7c bd f9 88 68 bd 4b a5 b3 3d
       0.06133248 -0.061696563 -0.056771252 0.087717615
000320 9d a4 2d 3d bc 35 87 bd b2 50 85 ba ff 4c 0b bd
       0.042393316 -0.06602046 -0.0010171144 -0.034008976
000330 3b ed 76 bd 4f 93 15 bd 86 38 5f 3d 06 53 e6 bb
       -0.060284834 -0.036517438 0.054497264 -0.00702894
000340 f0 f8 8b 3d 58 f9 da 3c 8c a1 00 3d 7f 23 25 3d
       0.068345904 0.026730224 0.031404063 0.040317055
000350 29 ef a3 bd 76 cf 04 3d a7 fd 7a 3d fc ba 16 bd
       -0.080046006 0.032424413 0.061277058 -0.036799416
000360 c8 77 5d bc a0 61 0f 3d bb 95 14 3c d3 6e a3 3d
       -0.013517328 0.03500521 0.009068902 0.079801224
000370 bc 66 3e 3d e4 c7 1d bd 89 27 b5 3d 81 99 7b 3d
       0.046484694 -0.03852071 0.08845431 0.06142569
000380 00 a9 ae 3d 93 6d bd bb 5c f1 93 3d 83 18 2e 3d
       0.08528328 -0.0057808845 0.0722377 0.042503845
000390 73 b0 9d bb 04 ce 60 bd 6a 70 aa 3d 01 f0 7b bd
       -0.004812294 -0.05488397 0.083222225 -0.061508182
0003a0 18 8e 2d 3d a8 02 3a 3d b8 17 b5 3b be 1d a9 3d
       0.04237184 0.04541269 0.005526509 0.08257626
0003b0 e6 d4 de 3c ed 20 a7 3d 70 52 b5 bb 3e 3b ce bd
       0.027201127 0.08160577 -0.005533509 -0.10069893
0003c0 6c b2 af 3d 79 fd 98 bd f7 2e c6 bd 85 eb a2 bd
       0.08578953 -0.07470221 -0.096769266 -0.07955078
0003d0 07 a4 d2 bc bc 09 24 bd ce 59 57 3d db 12 7b bd
       -0.02571298 -0.040048346 0.05257588 -0.06129728
0003e0 6b ec 89 3b c6 55 6b bd 84 89 79 bd fc cb 73 3d
       0.0042090914 -0.057454847 -0.06092216 0.059520707
0003f0 ad 4f 47 bc 7b 66 13 3c 06 38 03 3d 87 bb 40 3d
       -0.012164992 0.008996601 0.03203585 0.04705384

layer1.0.bn1.weight f4 [16]
000000 ec 18 84 3f 1e fa 7b 3f 9d bd 74 3f 46 6b 88 3f
       1.0320106 0.98428524 0.95601827 1.0657737
000010 66 e9 80 3f f1 67 80 3f bd 65 87 3f d4 04 88 3f
       1.0071228 1.003172 1.0577923 1.0626473
000020 de b1 77 3f 95 2f 7e 3f 2d 14 7b 3f 88 ac 76 3f
       0.9675578 0.99291354 0.9807766 0.9635701
000030 9c 49 80 3f c5 1d 83 3f 95 a0 82 3f 7f 48 80 3f
       1.0022464 1.024346 1.0205256 1.0022124

layer1.0.bn1.bias f4 [16]
000000 43 e2 39 3c 53 4b b4 bc cf 93 86 bc 7f 60 3c 3d
       0.011345449 -0.022008574 -0.016427903 0.045990463
000010 68 55 f0 bb 0b f8 1f bc 35 72 7b 3d 7a 5c 63 3d
       -0.0073344 -0.009763728 0.061388213 0.055508114
000020 b8 7e 83 bb 87 a1 2f bb 6c 91 e7 bb 83 55 19 bd
       -0.004012909 -0.0026799159 -0.007066896 -0.037435066
000030 b7 f3 5e bd 70 c8 91 bb 00 18 4a 3c 99 e1 16 3b
       -0.054431643 -0.004448943 0.012334824 0.002302265

layer1.0.bn1.running_mean f4 [16]
000000 6f 5e 9e be 42 6b 3b 3e 74 0e b7 3d 2a 0f 09 be
       -0.30931422 0.18302634 0.089383036 -0.13384691
000010 16 11 27 3f 1f 80 ba be 8c 13 e4 be 28 85 7b be
       0.65260446 -0.36425874 -0.44546163 -0.24562514
000020 26 81 90 be 72 ad 22 bc 58 e4 f6 bd 0f 66 4c 3e
       -0.28223532 -0.009929048 -0.12055272 0.19960807
000030 84 ba 2b 3e e0 01 bb be b0 1f 15 be 93 a1 80 be
       0.16770369 -0.36524868 -0.14562869 -0.2512327

layer1.0.bn1.running_var f4 [16]
000000 47 b2 10 3e ea f2 bc 3e cf 59 75 3e 6a 3d 1f 3e
       0.14130507 0.3690408 0.2396004 0.15550771
000010 01 b9 55 3e 1e 50 b7 3e 47 23 5e 3e 2f c3 93 3e
       0.20871355 0.35803312 0.21693145 0.2885985
000020 b0 e4 79 3e a0 ae 3d 3e 6a 8f 48 3e 9d 3a 5c 3e
       0.24403644 0.18523645 0.19585958 0.21506734
000030 d9 17 99 3e e7 23 62 3e f0 05 00 3e 65 15 96 3e
       0.29901007 0.22084008 0.12502265 0.29313198

layer1.0.conv2.weight f4 [16, 16, 3, 3]
000000 2c e5 c5 3c 1f 9e 75 bd 18 cc 34 3c d0 ed 3f bd
       0.02415713 -0.05996525 0.011034988 -0.046857655
000010 c4 d8 93 ba 05 79 90 3d 98 85 17 3d 50 b7 2a 3c
       -0.0011279811 0.07054333 0.03699264 0.010419682
000020 0d a8 11 bd d2 a3 aa bd ec b5 a3 3d cc fa 58 bd
       -0.035560656 -0.083320275 0.07993683 -0.052973554
000030 74 ce 13 bd 31 01 86 3d 90 14 8e 3d f4 f4 49 bd
       -0.03608556 0.06543196 0.06937516 -0.04930587
000040 c9 c0 b3 bc 0d d7 7d 3d c9 4c 90 bd 02 95 a8 3c
       -0.021942513 0.061972667 -0.070458956 0.020578865
000050 d7 6f ad 3d d7 a6 48 bd 71 74 61 3d f4 29 8e 3d
       0.084685974 -0.048987236 0.055042688 0.06941596
000060 23 e3 a7 3d 65 db 87 3d 1b d5 28 bd b2 4e 98 3d
       0.0819762 0.06633643 -0.04121886 0.07436885
000070 b5 cd 2a bd 83 78 3a 3d df 7b 39 3c ad ae 81 bc
       -0.041700084 0.045525085 0.011321037 -0.015830362
000080 d4 b8 1d 3d b2 83 63 bd 96 87 c2 bd 6c 5f e1 bc
       0.038506344 -0.055545516 -0.09498517 -0.027511321
000090 78 81 40 3d d2 82 75 bd 07 1d 8f bd 3e d2 95 bd
       0.04699847 -0.059939213 -0.069879584 -0.07315491
0000a0 a9 76 97 bb a9 83 9f 3d e3 83 ba bc 48 00 b5 bc
       -0.0046222997 0.07788784 -0.022767967 -0.02209486
0000b0 67 c7 a4 bc fd 70 c0 3c 7e 55 e2 3c 0d 16 6f bd
       -0.020114614 0.023491377 0.027628656 -0.05837064
0000c0 0f b9 97 bd df 39 1c 3d 30 df bc 35 cb 15 9e 3d
       -0.07408344 0.038141128 1.4072048e-06 0.077190004
0000d0 d8 ea 30 bd 05 c7 e8 3c 85 20 36 3d 30 6a a0 3d
       -0.043192714 0.028415212 0.044464607 0.07832754
0000e0 83 d9 c8 3c 16 35 a0 bc 93 7f 3c 3c 22 e5 ab 3d
       0.02451778 -0.019556563 0.011505025 0.08393313
0000f0 0c 01 ea 3c 99 b1 95 3d 3b 10 61 bd 0c d6 a7 3d
       0.028564952 0.07309265 -0.05494712 0.08195123
000100 3a 50 68 bd 1f 86 a0 bc 0e 0e 8e bd 4d 1b e1 bd
       -0.056717135 -0.019595204 -0.069362745 -0.10991535
000110 72 f4 59 3c ae 20 25 3c eb 5a 79 bd f1 9d 39 bd
       0.013302909 0.010078592 -0.06087772 -0.04531664
000120 b6 42 91 bd da 62 32 bd c3 ad 8b 3d fa c6 aa bc
       -0.07092802 -0.043551303 0.06820252 -0.020846833
000130 d6 4b b6 bd 6e 6d 21 3d e1 c7 af bd 00 d3 c3 bd
       -0.08901183 0.039411 -0.08583046 -0.095617294
000140 da e9 c1 bb 6f 46 82 bd db d5 35 3d ac 1a a1 bd
       -0.00591777 -0.063610904 0.0443934 -0.078664154
000150 d7 d8 68 bd 84 2a 8c bd 33 d4 a9 bd d0 0f a6 3d
       -0.05684742 -0.06844047 -0.08292427 0.08108485
000160 7e b7 87 3d 96 b2 a4 bd c4 62 d8 bc 85 1b 32 3d
       0.06626795 -0.08041875 -0.026414283 0.043483276
000170 a4 0f cf bd d5 fb c0 3c 60 64 14 3d b7 43 69 bd
       -0.10110405 0.023557583 0.036228538 -0.056949344
000180 56 ad 2c 3d 90 37 43 bd 3a e9 8b 3d a2 29 e3 3c
       0.042157494 -0.04766041 0.06831594 0.027729813
000190 a0 ac 6b 3d 1b 47 bc 3c 1c af 1a bb 48 89 42 bd
       0.057537675 0.022983124 -0.0023602908 -0.047494203
0001a0 e2 29 b6 bd 02 25 a1 3c 81 c1 ab 3d 67 09 b9 bd
       -0.08894707 0.019670967 0.08386517 -0.090349965
0001b0 d7 ef 2d bd 72 8e 80 bd fa aa 3c bd 5f 42 40 bd
       -0.042465057 -0.06277169 -0.046061493 -0.046938296
0001c0 df a3 a1 bd 5e f6 22 3d 15 d8 97 bc d2 5e 43 3d
       -0.07892584 0.039785735 -0.018535653 0.04769785
0001d0 43 d4 07 3d 6f 42 15 bd 7c a5 1e bc c0 8d fd 3c
       0.033161413 -0.03644031 -0.009683009 0.03095138
0001e0 12 29 84 3b 76 dd 3e bd b0 a8 68 3a 33 ac ce 3d
       0.0040332163 -0.04659792 0.0008875234 0.10091438
0001f0 9d be 40 bd 46 cb 11 39 fc eb 5f bd e7 e9 23 bd
       -0.047056783 0.00013904003 -0.05466841 -0.04001799
000200 2d e4 db 3d 14 d2 80 bd 24 3f d7 3d 80 a6 0e bd
       0.107368805 -0.06290069 0.1051009 -0.034826756
000210 c3 4a 61 bc 9f 3a 0a 3d 10 de ad ba 57 0b 92 3c
       -0.013750735 0.03374731 -0.0013265032 0.017827673
000220 ed 34 67 39 64 0f c2 bd ad 46 8e 3d f0 29 93 3d
       0.00022049593 -0.09475592 0.06947074 0.07185733
000230 23 d9 40 3c f4 3d ad bb 49 08 b0 3d 5c 26 f4 bc
       0.011770519 -0.0052869264 0.0859533 -0.029803447
000240 2f 98 39 bc 62 a0 f7 bc 80 10 9f 3d 8f 96 3f bd
       -0.011327787 -0.030227844 0.07766819 -0.046774443
000250 90 80 bb bd 38 2d 0c 3c e7 d8 93 bd 1d 54 8b bd
       -0.09155381 0.008555703 -0.07219105 -0.06803153
000260 56 6e ec b8 9c fa 29 bd b8 95 44 3d 8f 1c 23 3d
       -0.000112739086 -0.041498765 0.047994345 0.039822157
000270 14 ea 83 3d 87 a2 4c bd a3 50 c3 ba 57 ff 9c 3c
       0.06441131 -0.049959686 -0.0014901351 0.019164724
000280 30 f3 4e 3d 8d f3 ec bc fb d8 3d bd 46 7a ac bd
       0.05052489 -0.028924728 -0.046349507 -0.08421759
000290 71 55 3d bd 23 04 bc bc 17 c3 09 bc 87 6f ad 3c
       -0.04622406 -0.022951191 -0.008408329 0.021171344
0002a0 34 f0 46 3d 57 6c 1d 3b b7 82 61 bd 81 9d 66 3d
       0.04856892 0.0024020874 -0.0550563 0.05630255
0002b0 09 8e a3 3c d2 62 b5 3d 6e de 80 bd bd 34 a7 3d
       0.019965189 0.08856739 -0.06292425 0.08164356
0002c0 e1 93 b1 3b d5 00 88 3c 29 cb 8f bc 56 62 b1 3c
       0.00541924 0.01660196 -0.017552929 0.021653336
0002d0 15 98 dc bc 73 49 32 bd eb 6a 40 3d 6d 5f c5 bd
       -0.026927987 -0.043527078 0.046976965 -0.09637342
0002e0 96 85 12 bd c0 41 3f 3d 05 c9 a8 bd 5e e9 cc bc
       -0.03577193 0.046693563 -0.082414664 -0.025013622
0002f0 0b 92 25 3d 33 2c e2 3c 7c 18 ab bd 82 c9 d1 bc
       0.04042248 0.027608966 -0.083542794 -0.025608782
000300 98 e5 bd bb 37 ac a2 bd ee 94 d2 3c 76 97 ee bb
       -0.005795192 -0.079430036 0.02570578 -0.007281239
000310 d4 b3 a3 3d cf 37 9d 3b 77 b9 77 3d c2 a7 b0 bc
       0.07993284 0.0047979127 0.060479607 -0.021564368
000320 7e 1b fb 3c f8 ab e2 3d fb 38 98 3d b5 75 77 3d
       0.030652758 0.11067957 0.07432743 0.06041499
000330 9c 8b 7d 3d a1 95 16 bd 1e e3 75 3d f9 56 d8 3c
       0.06190072 -0.03676379 0.06003105 0.02640866
000340 32 13 40 3d 5a 26 bb bd d8 31 28 3d 40 7f a1 3c
       0.046893306 -0.09138174 0.04106316 0.019713998
000350 3e 63 1c 3d 1c a0 18 3a 20 4f 5f bc 3c 68 44 3d
       0.038180582 0.0005822198 -0.013629705 0.04795097
000360 6d 8b ea 3c 8b 2f 99 3d eb 9c 4d 3d 54 06 cf 3c
       0.028630937 0.07479771 0.050198477 0.025271572
000370 c7 62 59 bd 28 64 4c bd 40 d1 5d bc 3d 2d fa 3c
       -0.053072717 -0.049900204 -0.013538659 0.03053915
000380 7d 67 99 bd c1 a8 64 bd 8f e5 1c bd df 95 8c 3d
       -0.07490442 -0.055825 -0.03830486 0.06864523
000390 5a ae 57 3c 30 45 23 bc 4f e4 07 3d d0 03 10 3b
       0.013164127 -0.009965226 0.033176716 0.0021974929
0003a0 37 a5 4e 3d c7 f4 a1 3d 70 71 3f bd e4 fd 26 bc
       0.05045053 0.07908016 -0.04673904 -0.010192368
0003b0 7b 02 2f bd b0 55 45 3d 80 52 e5 3c 87 8c a2 3d
       -0.042726975 0.04817742 0.02799344 0.0793696
0003c0 47 5d e8 bc 21 2e 95 3d 19 c5 ce 3d dd d7 17 bc
       -0.02836479 0.07284189 0.10096187 -0.009267774
0003d0 98 b1 8c 3d b5 7d 48 bc 41 1f 1a bd 4d c4 74 3c
       0.06869811 -0.012237002 -0.037627462 0.01493938
0003e0 1b 08 90 bd 2e 0f 90 bd 35 07 af 3d f6 e2 ad 3d
       -0.07032796 -0.07034145 0.085462965 0.08490555
0003f0 7e 6b cb bd 07 d1 bf bd ab 65 d1 bd ac b5 90 bd
       -0.09932612 -0.09366041 -0.1022447 -0.07065901

layer1.0.bn2.weight f4 [16]
000000 24 d7 7a 3f ee 1c 70 3f 0a 18 7e 3f 47 60 7d 3f
       0.9798453 0.93794143 0.9925543 0.9897503
000010 f2 7b 7a 3f e9 26 77 3f 88 e0 7e 3f 5f 72 6f 3f
       0.97845376 0.9654375 0.9956136 0.9353389
000020 7d ee 82 3f 3f d1 7f 3f 3e db 78 3f e2 f5 85 3f
       1.0229031 0.9992866 0.9720954 1.0465662
000030 72 21 7d 3f ce a0 7e 3f 92 9f 7c 3f 99 0f 82 3f
       0.9887916 0.9946412 0.98680985 1.016101

layer1.0.bn2.bias f4 [16]
000000 e6 b1 3c 3c 9c 93 3f bd 46 a2 4d bd 7f 57 21 3c
       0.011517024 -0.04677163 -0.050203584 0.009847521
000010 d3 7b 1c bd 06 7e 11 3a d5 f8 71 3c c1 07 a3 3c
       -0.038204025 0.000555009 0.014768799 0.019901158
000020 ff 4d 77 3c 58 07 fa bb 6a b2 b5 bc 59 ad 82 3c
       0.015094279 -0.00763027 -0.022179801 0.0159518
000030 79 59 ae bc 21 6e 10 3c c4 fd 5f bc 50 42 54 bd
       -0.021282898 0.008815319 -0.013671342 -0.051821053

layer1.0.bn2.running_mean f4 [16]
000000 6c 73 24 be 9e f0 08 3e e2 ca ae bd 95 ee 1a be
       -0.16059655 0.13373038 -0.085347906 -0.15130074
000010 3c bb 22 3f b2 89 66 3d a9 bc 5e be f4 82 85 bd
       0.63566947 0.05628366 -0.21751656 -0.06519118
000020 8c df 67 3e 61 f7 04 bf 99 9d 12 bc 95 2d 09 bd
       0.2264387 -0.5193997 -0.008948707 -0.033490736
000030 59 5a 3f 3c 7c c8 2e be 27 20 8b 3c 11 ff 8a bd
       0.011679255 -0.17068666 0.016983105 -0.06786931

layer1.0.bn2.running_var f4 [16]
000000 cc 0c 12 3e b9 a4 52 3e d4 48 80 3e 43 2c 38 3e
       0.14262694 0.20570649 0.25055563 0.17985635
000010 c8 f2 82 3e 84 91 a4 3e f0 4f 4d 3e bb 4c 30 3e
       0.25575852 0.3214227 0.20050025 0.1721677
000020 7c 13 93 3e b6 57 3d 3e ad 34 52 3e 54 4b 20 3e
       0.28725803 0.1849049 0.20527907 0.15653735
000030 38 e9 30 3e 16 30 fb 3d a9 4a 71 3e 45 a8 9f 3e
       0.17276466 0.12265031 0.23563637 0.31183067

layer1.1.conv1.weight f4 [16, 16, 3, 3]
000000 ed 88 18 bd 1e 4a 89 3d 35 c5 89 bd a9 24 e8 3c
       -0.037239958 0.0670359 -0.067270674 0.028337793
000010 51 21 cc 3d 63 b4 2b 3d cb d7 c5 bc 6c 67 ca 3d
       0.09967292 0.041920077 -0.02415075 0.098830074
000020 65 9e 90 bc fd a2 1b bd 7f 2f 6c 3d c2 ff f6 bb
       -0.017653653 -0.037997235 0.057662483 -0.007537813
000030 b8 e6 7a 3d fb 72 b2 3b 4d ad 90 3d 8f 34 85 3d
       0.061255187 0.0054458356 0.070643045 0.065041654
000040 d6 01 3a 3d 36 68 93 bd 5a 68 80 3d 0d b2 1d 3d
       0.045411907 -0.07197611 0.062699035 0.03849988
000050 d6 29 f7 bc 8a 24 99 3d 7c 84 ef 3d ab b1 11 3c
       -0.030171316 0.074776724 0.11695191 0.008892457
000060 ba aa b2 3d 44 ce 0e 3c 91 5e aa 3c df 44 bd bd
       0.0872397 0.00871617 0.020797046 -0.09241652
000070 c8 70 85 bd c7 c2 10 3d 37 2e 2d 3d db d1 8a bc
       -0.06515652 0.035342004 0.042280402 -0.01694577
000080 83 5c 79 bc e9 dd 1b bd bd 9e 14 3d e6 23 4b 3d
       -0.01521981 -0.038053427 0.036284197 0.049594782
000090 fa 23 96 3d 75 86 67 bd c6 7a 48 3c c9 e9 20 bd
       0.07331081 -0.056524713 0.012236303 -0.039285455
0000a0 9e 5c cd 3c 44 07 5d 3c bd 43 9a 3c 42 17 a2 3d
       0.025068577 0.013490502 0.018831128 0.07914592
0000b0 ae 6e 57 bd f1 ed 73 3d 2e b0 a0 3d 2e 17 a9 bd
       -0.052595787 0.05955309 0.078461036 -0.08256374
0000c0 46 09 0c bd 72 01 59 bc 89 0e 25 3d 1a fc 5a 3d
       -0.03418853 -0.0132449735 0.040297065 0.05346308
0000d0 8e 6b a7 3d e7 5d 2c bd 38 fc 58 3d 98 56 90 bd
       0.08174811 -0.04208174 0.05297491 -0.070477664
0000e0 33 ec 12 bd 33 6d c8 3d 3b b0 22 bd 62 65 94 bb
       -0.03586979 0.09786453 -0.039718848 -0.0045286873
0000f0 56 d2 0b bb 44 54 36 bd b4 8b ac 3d 04 69 85 3d
       -0.0021335087 -0.044513956 0.08425084 0.06514171
000100 fd e1 1e bd 4d ab b8 3c 8b 60 48 bd 24 a8 1d 3d
       -0.038789738 0.02254262 -0.048920196 0.03849043
000110 99 2d 71 3c 22 a4 80 bd 39 e5 95 3b ed f4 d9 3c
       0.014720344 -0.06281306 0.0045744446 0.026606048
000120 eb bd 58 3d b9 78 48 bb 9f 9a 89 bd c1 a1 0b 3d
       0.052915495 -0.0030589534 -0.06718945 0.034089807
000130 69 73 7a bd 93 08 9a bd 63 82 0f bd 9c 8b 9a 3d
       -0.06114522 -0.07521167 -0.035036456 0.075461596
000140 ce b2 62 3d f3 c3 90 bd bc 0c 30 bb df d1 31 3d
       0.055346303 -0.07068624 -0.002686306 0.04341304
000150 88 e2 3d bd 44 2f 7d 3d 08 6b 68 3d c2 07 06 3d
       -0.046358615 0.061812654 0.056742698 0.032722242
000160 16 88 a7 3d c8 3a e2 bc b7 28 14 3d 1e 70 59 bd
       0.08180253 -0.02761592 0.03617164 -0.05308544
000170 7b ad 51 3d 36 48 c7 3c 6f 0b fe bd 98 7c 1e 3d
       0.051190834 0.024326425 -0.124045245 0.03869304
000180 70 d6 89 3c 82 f5 97 bd ce 42 28 3d fa 13 e1 bc
       0.016825885 -0.07419874 0.041079335 -0.027475346
000190 2c 40 ab bd ad 19 d3 3d 09 13 83 3d b6 ff 8b bd
       -0.08361849 0.10307632 0.06400115 -0.06835882
0001a0 e9 a4 c3 bc 51 10 31 bc bb 93 83 bd 75 82 d7 3d
       -0.023882346 -0.010807113 -0.06424662 0.105229296
0001b0 88 f6 d3 bd 29 19 ac bc 52 62 67 3d ed 01 01 bd
       -0.103497565 -0.021008091 0.05649025 -0.031495977
0001c0 09 b7 d7 3d 9e c7 5b bc 5f 71 4b 3c d8 d3 c6 3c
       0.10532958 -0.013414292 0.0124171665 0.024270937
0001d0 38 1d cc 3d 58 07 8b 3d e6 82 f0 ba 46 e9 cb bb
       0.099665105 0.0678851 -0.0018349558 -0.0062228767
0001e0 46 2b f1 3b a2 ca 87 3b c3 42 f6 3c 78 10 fa bc
       0.007359895 0.0041440288 0.030061131 -0.030525431
0001f0 79 83 30 3c 13 ee 20 3d 48 4e a6 3d e7 c8 8a 3d
       0.010773533 0.039289545 0.081204 0.067766
000200 47 cc d0 3b 1a e0 42 3d 91 b5 8b 3d 0a c7 92 3c
       0.006372008 0.047577 0.068217404 0.017917175
000210 af 3f 1d bd d2 78 25 bd 3e 9e 6a bd 98 06 be bd
       -0.03839081 -0.040398426 -0.057279818 -0.092786014
000220 ad f6 32 3d 0b 8a f2 bc f4 bd bc bb aa 10 c6 3b
       0.04369228 -0.02960684 -0.005759949 0.006044467
000230 35 95 27 3d 55 69 6c bd c8 d4 ac 3d 1d 40 cd bb
       0.04091378 -0.05771764 0.08439022 -0.0062637464
000240 fc c0 ad bc 0a 80 bb bb 0a 6e 9b bd f7 50 3d 3c
       -0.021210186 -0.0057220506 -0.07589348 0.011554948
000250 de 4f 55 3d 94 70 63 bc 37 4e 5b 3d e3 65 15 3d
       0.05207812 -0.013881821 0.05354139 0.03647412
000260 f6 3b 6b 3c 65 49 90 bc 79 6b 9d bd 52 f5 10 3d
       0.0143575575 -0.017613122 -0.076865144 0.035390206
000270 2b b2 43 3d c7 1c 99 bd cb 5f aa 3d 5e 07 32 3d
       0.047777336 -0.07476192 0.08319052 0.043464057
000280 ba 9c 02 bd 73 33 0c 3d a9 6d 18 3c 24 be d6 b9
       -0.031887747 0.034228753 0.009303489 -0.00040958927
000290 41 5a 16 3d 97 62 5c bd 3d 2c 0f bc 58 3d 52 bd
       0.036707167 -0.05380496 -0.008738575 -0.051328033
0002a0 16 90 46 bc 99 39 ce 3c f0 dc b3 3d b2 93 89 bc
       -0.012119314 0.02517395 0.08782375 -0.01679406
0002b0 35 b2 59 bd 61 e7 06 be 90 29 1d 39 26 19 3c 3d
       -0.053148467 -0.13174202 0.0001498817 0.04592242
0002c0 3b 57 1f bc 78 1c 15 3d 31 85 8b 3b 69 94 31 3b
       -0.009725387 0.036404103 0.004257821 0.0027096516
0002d0 d4 29 61 bd c1 6e 58 3d e3 47 37 bd c3 1f 27 bc
       -0.05497153 0.05284 -0.04474629 -0.010200444
0002e0 d6 0a f5 bc d0 09 e5 3b ed 0b de bd fa 19 f9 3c
       -0.029912394 0.006989695 -0.108421184 0.030407894
0002f0 b6 28 83 bd 36 43 97 bd 78 e0 01 bc 5c d1 8a 3d
       -0.06404249 -0.07385866 -0.007927053 0.067782134
000300 a8 a2 63 bd 71 81 37 3d 7f 19 89 3d 50 63 8d bd
       -0.055575043 0.04480118 0.06694316 -0.06903708
000310 af 4b 26 3d 28 e9 15 3d 5e c2 84 bc 88 da 86 3d
       0.04059952 0.03659931 -0.016205963 0.0658465
000320 6a 58 13 3d 7a db a7 bd 68 0d a9 bd 5b 5f ee 3c
       0.03597299 -0.08196159 -0.0825451 0.029098203
000330 24 d3 db bd e6 73 9c bd 27 ae 5c bd 8a 79 77 3d
       -0.10733631 -0.076392934 -0.053877022 0.060418643
000340 80 d4 00 3d 28 fc 13 3d 9e 72 aa bd 90 91 48 bc
       0.031452656 0.036129147 -0.08322643 -0.012241736
000350 f5 f0 43 3d e8 7a 6a 3d 31 15 c2 bd 08 66 98 3c
       0.047837216 0.05724612 -0.09476698 0.01860334
000360 bb d2 12 3d 79 99 05 3d 07 3f 8f 3d bb b8 ed bd
       0.0358455 0.032617066 0.069944434 -0.116075
000370 ed dd 1c bd 98 f6 fe 3c 2c 6f 6f bd e7 ba 6d 3c
       -0.038297582 0.031123444 -0.05845563 0.014509893
000380 9a c8 5c 3d e0 fa 9c bc 82 67 fa 39 8e ae 07 3d
       0.053902246 -0.019162595 0.00047760835 0.033125453
000390 65 0c 43 3d 86 35 38 3d 10 2f 99 bd 7d bd e2 ba
       0.047619242 0.04497292 -0.074796796 -0.0017298904
0003a0 c6 5f 9b 3d 97 9f 32 bc 71 b2 f7 bc fc 29 c0 bd
       0.07586627 -0.010902307 -0.030236455 -0.09383008
0003b0 1b 12 44 bd b3 fa e0 bd 0d 36 06 3c 1b c2 20 3c
       -0.04786883 -0.10985317 0.008191598 0.009811903
0003c0 a1 9a f7 3c 6d 2c b2 3d b9 ea eb 3c d1 2e a4 3d
       0.0302251 0.0869988 0.028798448 0.08016742
0003d0 d6 5d 8e 3d 8b 43 45 3d a0 9e 0b 3c 42 b0 83 3c
       0.069514915 0.048160117 0.008521706 0.016075257
0003e0 35 99 e0 3d b4 e0 09 3d a8 bd 04 3d 85 1e ee 3c
       0.10966722 0.03366156 0.032407433 0.029067287
0003f0 83 d0 91 3a 91 68 8c bd 96 9e 6d 3d f2 e8 a7 bd
       0.0011124763 -0.06855882 0.058012567 -0.08198728

layer1.1.bn1.weight f4 [16]
000000 53 ed 7e 3f 22 72 77 3f cf e4 81 3f b5 e4 81 3f
       0.9958088 0.9665853 1.0147952 1.0147921
000010 a6 a2 7b 3f 45 0f 79 3f 01 f9 86 3f f5 c4 75 3f
       0.98295057 0.97288924 1.054474 0.9600366
000020 e7 36 81 3f 99 a5 81 3f c7 41 82 3f 34 81 81 3f
       1.009488 1.0128661 1.0176324 1.0117555
000030 a4 a4 7d 3f 1b 13 7b 3f c0 08 82 3f dd 25 7f 3f
       0.99079347 0.9807603 1.015892 0.9966715

layer1.1.bn1.bias f4 [16]
000000 8c 70 04 bd e4 6f 80 bd 06 a9 f8 bc f2 57 30 bd
       -0.032333896 -0.062713414 -0.030354034 -0.04305262
000010 4d 17 3d bd b4 31 91 bd b8 76 a9 3c 88 f3 13 bd
       -0.0461648 -0.07089558 0.020686492 -0.03612092
000020 ef 41 17 bd 30 c7 9c 3c 88 86 a6 bc fa d4 1e 3d
       -0.036928114 0.019137949 -0.020327821 0.03877733
000030 86 7a c0 bc 06 8c 26 bd 29 34 c5 bc fc b6 a3 bc
       -0.023495924 -0.04066088 -0.024072723 -0.019984715

layer1.1.bn1.running_mean f4 [16]
000000 f4 94 5c 3f 1e f4 ad be 0e 3b 61 3e d2 37 75 bf
       0.86164784 -0.3397531 0.21995184 -0.957883
000010 95 5a ae be 76 ed 14 bf a9 4d b4 3e ec 5e a9 3d
       -0.34053484 -0.58174837 0.352155 0.08270058
000020 73 fc 54 be fb eb 37 bf cc a7 3a be f8 48 2f bf
       -0.20799427 -0.7184445 -0.18228072 -0.68470716
000030 ef b6 fd be f9 f1 4b 3e ed 84 47 bf bf 39 34 bf
       -0.4955363 0.19916524 -0.77937204 -0.70400614

layer1.1.bn1.running_var f4 [16]
000000 84 88 da 3e 0a f2 d0 3e e6 a1 4c 3f 46 8e 6d 3f
       0.42682278 0.4080966 0.7993454 0.9279522
000010 09 86 97 3e 6c 46 b9 3e 86 55 7e 3e 0e cc ab 3e
       0.29594448 0.3618654 0.24837312 0.3355412
000020 21 66 e1 3e 18 00 0e 3f 81 a2 9b 3e a3 e4 56 3f
       0.4402323 0.55468893 0.30397418 0.8394262
000030 ca 87 fc 3e 95 8a c1 3e 77 73 46 3f 1c e4 13 3f
       0.4932235 0.37801042 0.77519935 0.5776994

layer1.1.conv2.weight f4 [16, 16, 3, 3]
000000 66 dd 08 3d e7 9d a7 3c 49 a6 3c 3d 24 b6 07 3c
       0.033414267 0.020461036 0.04605702 0.008283172
000010 95 d5 2a bd d2 4f 4e bc 35 c4 ce bc 9a fc 2d bd
       -0.041707594 -0.012592273 -0.025240043 -0.042477228
000020 cf 1b 03 bd de 0f 64 bd 0b 4b dc 3d bd 51 33 bd
       -0.032008942 -0.055679195 0.10756501 -0.043779124
000030 b3 de 42 bd 09 c2 3e bd 9a aa a9 3d b0 81 3e bd
       -0.047575664 -0.046571765 0.08284493 -0.0465104
000040 65 84 10 3d f7 d6 4e 3d 8d 83 82 3d 29 ed 0c 3c
       0.03528251 0.050497975 0.063727476 0.008601465
000050 c0 a7 a5 bd f1 3d ed bc f2 78 f2 3c a6 6b 39 3d
       -0.080886364 -0.0289602 0.029598687 0.045268677
000060 4c 73 b1 bd fb b5 68 bd a5 bb 4d bd 7d 9e b6 3c
       -0.08664569 -0.056814175 -0.05022778 0.02229237
000070 4d 18 a5 bd 71 6a 6e 3d 67 0c 9a bd a2 36 11 3d
       -0.08061276 0.05820698 -0.07521897 0.035452493
000080 8c 0c b6 bb 3b 5d 53 3d 05 b9 9c 3c 7d bc 6a 3d
       -0.005555695 0.051602583 0.019131193 0.057308663
000090 72 63 fe 3b bd 48 a3 bd db 07 fb 3c 47 2b bd 3d
       0.0077633196 -0.07972858 0.030643394 0.0923677
0000a0 f4 f9 ba 3c 95 d9 1e bc d4 f5 cb 3d d0 f0 93 3d
       0.022824265 -0.00969543 0.09958997 0.07223666
0000b0 f9 bc 74 3d a6 d4 61 3d ef 9a 2d 3d f0 d0 77 bc
       0.05975053 0.055134438 0.042384084 -0.015125498
0000c0 15 fd 8f 3d db 22 8c 3b 74 3e 21 bc 84 3d 87 3d
       0.070306934 0.004276616 -0.00984155 0.0660353
0000d0 f5 57 dc bc c7 1a bf 3d 07 9d 31 bd 6d cf 32 3d
       -0.02689741 0.09331279 -0.043362644 0.043654848
0000e0 7c 13 b0 3a d0 ba bb bc 3f 72 7b 3d 7e 37 93 bc
       0.0013433541 -0.022916228 0.06138825 -0.017970797
0000f0 98 3d 81 3d 3d f6 a6 bd ed 33 95 3d f2 6e 87 bc
       0.06310576 -0.08152435 0.07285295 -0.016532395
000100 ec 72 3b 3b 80 cb d0 bc 4c dc 68 3d 36 32 81 3a
       0.0028602434 -0.025487661 0.056850716 0.0009856883
000110 e0 a5 33 bc b3 0a c0 3c d8 37 8e 3d 68 c0 85 3c
       -0.010964841 0.023442602 0.06944245 0.016327098
000120 48 81 48 bb 0b 57 0b bc 78 76 9d 3c d2 4b 43 3d
       -0.0030594636 -0.008504639 0.01922153 0.04767973
000130 f6 26 9d 3d 5e 88 76 bd 11 69 9d bd e4 24 80 3d
       0.07673447 -0.060188644 -0.076860555 0.06257036
000140 aa cb 1d 3d 58 33 48 3d 2e ce c1 bd 19 a2 8f bc
       0.038524307 0.04887709 -0.09463154 -0.017533349
000150 ee 0d 62 3d 4e 2c 2f bd 35 c6 c4 ba 70 22 44 3d
       0.055189066 -0.04276686 -0.0015012684 0.047884405
000160 23 2d c3 bd 7b d0 ad bd ee 69 39 3c d3 b9 9a 3c
       -0.095300935 -0.0848703 0.0113167595 0.018887436
000170 24 47 a9 bc 28 2f e5 3c 26 3d b7 3c 9e 07 46 bd
       -0.020663805 0.027976587 0.022368025 -0.048347108
000180 f2 73 07 3e 54 67 46 3d ac ba bc 3d 46 e0 66 bd
       0.13227823 0.048438385 0.09215292 -0.056366228
000190 4f 4f f4 bc 1e fe 3b 3d 0d f0 60 3d 11 db ac bd
       -0.029822974 0.045896642 0.05491643 -0.08440221
0001a0 12 a3 95 3c f1 79 14 bd c8 f9 3c bd 21 08 1c 3d
       0.018266235 -0.036249105 -0.046136647 0.03809369
0001b0 5e be 14 bd d4 91 72 bc dd dd 15 bd ee e3 91 3d
       -0.03631436 -0.014805276 -0.03658854 0.07123552
0001c0 09 c7 78 bd 8a 64 65 bd e4 c6 4f 3d e7 b3 70 bc
       -0.06073669 -0.056004085 0.050726786 -0.01469133
0001d0 9a 8b 09 bc a4 77 8e bd 31 72 0b 3d 08 e6 b0 bc
       -0.0083951 -0.069564134 0.03404445 -0.021594062
0001e0 9a 84 82 ba b6 0e 07 3d 99 66 9d 3d cc 27 d8 bc
       -0.0009957731 0.032973014 0.076855846 -0.026386164
0001f0 1b 41 5c 3d 9e 97 31 bd 56 9e 29 bd 59 25 a3 3d
       0.053773027 -0.043357484 -0.041410767 0.07966108
000200 87 c1 33 3d fb de f4 bc 08 2d 3d 3b bc b8 74 3d
       0.043885734 -0.029891482 0.0028865952 0.05974649
000210 73 f6 b8 3d 59 9c 84 3d 65 a7 c3 3c df 5f 27 bd
       0.090313815 0.064751334 0.02388353 -0.040862914
000220 02 ce aa bd 8d 4e 94 3d c9 64 e5 3b 8a 1f 79 bd
       -0.08340074 0.07241545 0.00700054 -0.060821094
000230 d5 31 a1 bd 87 62 d7 bc 54 7e a2 bd 9d f4 d6 bc
       -0.07870833 -0.026292099 -0.079342514 -0.026239688
000240 90 18 55 bd 21 15 6b 3c b4 5c 20 bc bc e1 95 bd
       -0.052025378 0.014348299 -0.009787727 -0.07318446
000250 c5 1c a3 bd 7e f2 73 bd 6b 72 18 3c b7 3a 0b 3d
       -0.07964472 -0.05955743 0.009304623 0.03399154
000260 6b 07 92 bd 23 11 1b bd d0 03 3b bc ad 13 a2 bc
       -0.07130321 -0.03785814 -0.011414483 -0.019784773
000270 70 ce 67 bd 16 74 b4 bd 27 a0 a5 bd 0f af 0e bd
       -0.05659336 -0.08811204 -0.08087187 -0.034834918
000280 11 43 e4 bd 3f 90 de 3c 7d 0a d1 bd 6f 1a 25 bc
       -0.111456044 0.027168391 -0.102070786 -0.010077103
000290 44 72 cd 3c 60 be 94 3d 6a 8d 91 bd ac e0 9c bb
       0.0250789 0.07262874 -0.07107051 -0.004787525
0002a0 d4 1e 12 3d c2 fb 3b 3d 7b 42 54 3d d4 92 20 3d
       0.03567393 0.04589439 0.051821213 0.039202526
0002b0 47 5c 13 3d 1f fb e4 3d 06 c1 66 bd 8a 13 73 3b
       0.035976674 0.1118071 -0.056336425 0.0037090504
0002c0 cc cc 36 3d ad 60 2b b9 27 10 a0 3a 4c 7c 64 3d
       0.044628903 -0.00016343845 0.0012211845 0.0557826
0002d0 4e c0 44 3d 95 e7 14 3d ec 4a a2 3d 52 dd 63 39
       0.04803496 0.036353666 0.079244465 0.00021730855
0002e0 ad 71 a9 3d 0a 9d 4d bd 59 b2 88 3d 16 ee ca 3d
       0.08273635 -0.050198592 0.06674642 0.099086925
0002f0 60 d0 16 3d 6f e0 7e 3c 2c d1 c5 bc dc 68 2d bd
       0.036819816 0.015556439 -0.024147592 -0.04233633
000300 3b 92 90 bd 02 c9 a0 3d d6 6c c7 3c 6b df 8e 3c
       -0.07059141 0.07850839 0.02434389 0.017440518
000310 6d 19 4f 3b 03 ae 3e bd d5 ee b3 bc 3e fa 50 3d
       0.0031600848 -0.04655267 -0.02196447 0.0510199
000320 06 25 c0 bc 2f 4c a7 3d 79 bb a6 bc 88 17 ab 3d
       -0.023455154 0.08168828 -0.020353066 0.083540976
000330 7e f6 9f 3d 7d 80 ec 3d a8 b0 2e bd 1c a7 ac bd
       0.078106865 0.11547945 -0.04264894 -0.08430311
000340 ec c2 fe bc e9 7e 26 3d 6d 44 a4 bd 0f 7c 18 3d
       -0.031098805 0.040648375 -0.08020864 0.037227686
000350 69 23 18 3b d3 9c 8f bd 38 0b 84 bc 10 d3 07 bd
       0.0023214465 -0.07012334 -0.01611863 -0.03316027
000360 15 2d 13 3c d0 63 00 3e eb 2f 6b bd c3 8b da 3c
       0.008982916 0.12538075 -0.057418745 0.026677972
000370 23 ee a0 3c 32 3b 89 bd 1b 40 35 3b 04 c1 7d 3d
       0.019644802 -0.06700744 0.0027656618 0.061951652
000380 55 48 24 3d 92 0e 2d 3a b6 48 a7 bb 42 41 89 bd
       0.040108044 0.00066015974 -0.0051051034 -0.067019
000390 30 03 70 3c df c9 60 3d 46 c3 92 3c b2 df 49 3d
       0.014649197 0.05488002 0.01791538 0.049285598
0003a0 ee 07 b7 3d 79 c6 51 3c e0 d1 8b 3d b0 dc 2a 3c
       0.08937059 0.012803667 0.0682714 0.010428593
0003b0 4c 3d a4 bc f5 ca 07 bd 49 63 2a bd 21 9c a8 bc
       -0.02004876 -0.03315254 -0.041598592 -0.02058226
0003c0 64 ff 56 3d a9 d1 39 bd 91 72 2b 3d d4 2b 88 bd
       0.052489653 -0.045365963 0.041857306 -0.066489846
0003d0 fd 12 35 3d f1 3c 69 bd 49 c3 b7 3d d4 d5 8f bb
       0.04420756 -0.056942884 0.089727946 -0.004389504
0003e0 95 49 aa 3d a6 88 53 bd 78 68 5d 3d 88 48 3f bd
       0.08314816 -0.05164399 0.054054707 -0.04670003
0003f0 d5 de de 3c 0c dd 75 bc 74 59 00 3c 25 14 93 3d
       0.027205864 -0.015006315 0.007833827 0.07181577

layer1.1.bn2.weight f4 [16]
000000 42 d8 83 3f e4 80 81 3f 65 d7 78 3f c0 74 81 3f
       1.0300372 1.0117459 0.97203666 1.0113754
000010 9f f3 76 3f 59 19 7b 3f fb a7 82 3f 5c 5d 83 3f
       0.96465486 0.9808555 1.0207514 1.0262866
000020 53 a6 82 3f 29 22 82 3f e5 09 85 3f d9 81 80 3f
       1.0207008 1.0166675 1.0393645 1.0039626
000030 7f e8 80 3f da af 83 3f 39 41 81 3f 68 4a 81 3f
       1.0070952 1.0288041 1.0098029 1.0100832

layer1.1.bn2.bias f4 [16]
000000 4f c5 e8 bc 0d 27 20 bd bd d6 59 bd c1 2c 9d 3c
       -0.028414397 -0.03909974 -0.053183306 0.01918638
000010 1c 8e 09 bd 40 ff c7 bb 68 15 93 3b 84 a0 8a bc
       -0.03358279 -0.006103426 0.004488636 -0.016922243
000020 e2 0e b1 3c 4a 25 e1 3c 8f ab ae bc 58 57 8a bc
       0.021613542 0.027483601 -0.02132204 -0.016887352
000030 bd c4 4b bc 12 32 e2 bb cc c6 f9 bb 24 0a db bc
       -0.012437043 -0.0069029415 -0.0076225754 -0.026738234

layer1.1.bn2.running_mean f4 [16]
000000 07 93 50 3e dc c1 e4 3e ea e5 87 be 49 9c fa be
       0.20368586 0.44679153 -0.26542598 -0.4894736
000010 53 ff e9 3e 1e f4 99 be 8e 76 00 bf 13 9e 12 bf
       0.4570261 -0.3006906 -0.501809 -0.5727245
000020 93 d4 64 be 64 88 34 bf 44 85 2c be dc aa c7 3e
       -0.22346716 -0.70520616 -0.16847712 0.38997543
000030 49 77 e7 be eb 15 8a be 14 0b a4 3c 50 87 b9 3e
       -0.45208195 -0.26969847 0.020024814 0.36236048

layer1.1.bn2.running_var f4 [16]
000000 d8 6f 8a 3e ec ca 4b 3e 05 e5 0a 3e 18 7a 6d 3e
       0.27038455 0.19901627 0.13563927 0.23191106
000010 f5 75 98 3e aa 41 55 3e 7d c1 60 3e 9b 5b 79 3e
       0.29777494 0.2082583 0.2194881 0.24351351
000020 94 31 85 3e ca 7e b2 3e 66 7e 35 3e 39 46 86 3e
       0.26014388 0.34862357 0.17723998 0.2622545
000030 6c 62 4d 3e 53 80 8b 3e f5 6f 9f 3e 32 2e 5c 3e
       0.20057076 0.2724634 0.31140104 0.21501997
