resnet/resnet.ckpt (torch, 815633 bytes, 77 tensors)

conv.weight f4 [16, 3, 3, 3]
0.3631718 0.3460797 1.1005845 -0.63009614 -1.434377 1.6905267 -0.109217845 -0.35338578
0.047259107 -0.20613791 -0.96571827 0.7975476 -0.8196952 -2.552201 1.5529749 0.33368972
-0.57626146 0.086625114 -0.07176267 -0.2556792 0.6917071 -0.90616804 -1.4678929 1.8380044
0.44678703 -0.08402877 0.9050479 -1.0823333 -0.95938444 -1.1309311 -0.6500362 0.5551434
-0.3391153 -0.18834877 0.033093352 -0.8301386 -0.5631029 -0.7617485 -1.054038 0.120620176
1.6494855 0.32054052 0.48619902 0.76277953 -0.26256695 -1.1112244 -1.1241715 -1.2989935
0.2620636 1.9263207 0.86768264 1.1347907 1.3799739 0.033526808 -0.6607032 -1.0875645
-1.1509482 -0.7382634 -0.40132245 -0.2466733 -0.006306297 -0.15775688 -0.60320455 0.41428438
0.8169987 0.764094 0.966036 2.3146198 1.7236696 0.9359035 1.4216377 0.92809325
-0.41416872 -0.7386944 -0.34129524 -0.5175769 -0.19840722 -0.22223653 -0.74961346 -1.2864485
-1.4528381 -0.3318824 0.14579906 -0.5087119 -0.27326927 1.6140053 -0.39663857 0.18596414
-2.0590684 0.47017786 0.06211244 1.281629 -0.42186812 0.29230115 2.3020177 -0.29789516
0.31436035 -1.7621208 0.48033297 0.03190898 0.23240697 -0.09222244 -0.27138156 1.8841097
-0.59014195 -0.024385097 -1.6261195 -0.49916044 0.37101275 -0.2406683 0.79832304 1.5420406
0.10684926 -1.2939961 0.8363153 -0.32236904 -1.1631004 0.31497192 -1.1453366 -0.2716049
1.3808525 -0.4221927 -1.6288918 1.4018636 -0.28047743 -0.9152924 0.024847766 -0.83075964
-0.7434106 1.4089202 0.009526663 -1.4286036 1.4061943 0.19635847 -0.45727727 -0.6752559
-0.853285 -0.7633763 -1.3371284 -1.011109 -1.132665 -0.83633965 -1.1028322 -0.7515152
0.10508563 0.8181959 0.4115765 -0.4134814 0.57872844 -0.08622339 -0.73100376 -0.21300004
-0.46972442 1.2132685 2.0350025 1.127826 0.7531251 1.992365 0.9631442 -0.3183771
0.75139946 0.22945626 1.3168036 1.5747957 0.465049 1.1968433 0.81948215 -0.86014766
0.24660982 -0.56791973 -1.4305044 -0.11342261 0.16011783 -0.9016773 -0.008493247 -0.100398384
-2.117317 -0.4215518 -0.83139795 -1.8886831 -0.55636525 0.16432847 0.07500833 -0.2530249
0.09377206 -0.82663953 -0.5732523 -0.10440588 -0.4962158 0.05925871 -1.1022519 -1.3203725
1.1103995 0.4066595 -0.46963137 0.8611307 1.1530206 0.7331386 -0.008371835 -1.1407101
-1.5233783 0.62517554 0.17426454 -0.76598656 0.07177117 0.40069312 0.3203523 -0.05321608
-1.3520226 -2.1943085 0.37280688 -0.3503036 -2.2430859 0.43629712 0.15934362 -0.7799617
-0.37119052 1.0613261 -0.15857488 -1.3827608 -0.24208151 -1.5338277 -0.97826517 -0.08899316
-0.9199806 0.33289498 2.1600575 0.7463996 -0.18417248 0.9853847 -0.33507845 0.1706665
1.0734754 -0.07370858 0.17050843 1.3927168 0.26386842 -0.88426155 0.2139014 -1.2648373
-0.3638137 0.69086325 -0.7734861 -1.2469035 -0.64123654 -1.1443166 0.16929114 -0.21262068
-1.1718414 1.3025576 2.3613458 1.6557443 -0.4047678 0.9427991 0.07446903 -0.29443002
00000000: a7f1 b93e 5c31 b13e f4df 8c3f fb4d 21bf
00000010: aa99 b7bf 2e63 d83f 9bad dfbd fbee b4be
00000020: c492 413d d115 53be 5039 77bf 142c 4c3f
00000030: 8bd7 51bf 4357 23c0 e2c7 c63f 61d9 aa3e
00000040: df85 13bf 8268 b13d 4ff8 92bd 62e8 82be
00000050: b713 313f a1fa 67bf eae3 bbbf ba43 eb3f
00000060: 45c1 e43e 4717 acbd 38b1 673f e689 8abf
00000070: 389a 75bf 5ac2 90bf c668 26bf e11d 0e3f
00000080: 85a0 adbe 80de 40be e58c 073d f783 54bf
00000090: 8327 10bf f301 43bf b8ea 86bf b607 f73d
000000a0: 5722 d33f e31d a43e 14ef f83e 8545 433f
000000b0: 2d6f 86be 9a3c 8ebf dae4 8fbf 6b45 a6bf
000000c0: 332d 863e ad91 f63f 7320 5e3f d240 913f
000000d0: fca2 b03f 6853 093d d823 29bf 5035 8bbf
000000e0: 4552 93bf d5fe 3cbf 237a cdbe ed97 7cbe
000000f0: 0ea5 cebb 058b 21be 9d6b 1abf 151d d43e
00000100: d426 513f aa9b 433f 234e 773f bb22 1440
00000110: 35a1 dc3f 5f97 6f3f 39f8 b53f 8597 6d3f
00000120: ec0d d4be 141b 3dbf 40be aebe eb7f 04bf
00000130: 432b 4bbe f991 63be abe6 3fbf 58aa a4bf
00000140: 99f6 b9bf 7dec a9be 594c 153e f13a 02bf
00000150: f3e9 8bbe ba97 ce3f 3614 cbbe 626d 3e3e
00000160: c7c7 03c0 27bb f03e 9d69 7e3d 6b0c a43f
00000170: 19ff d7be 7fa8 953e 4254 1340 b785 98be
00000180: d7f3 a03e 2d8d e1bf 34ee f53e feb2 023d
00000190: 18fc 6d3e 1edf bcbd 86f2 8abe 822a f13f
000001a0: 8b13 17bf 41c3 c7bc af24 d0bf f591 ffbe
000001b0: 62f5 bd3e c071 76be e65e 4c3f 9661 c53f
000001c0: c9d3 da3d aaa1 a5bf c218 563f 8e0d a5be
000001d0: 79e0 94bf 0044 a13e 649a 92bf cc0f 8bbe
000001e0: c6bf b03f a429 d8be 877f d0bf 4470 b33f
000001f0: bd9a 8fbe 9a50 6abf 8b8d cb3c aaac 54bf
00000200: 2850 3ebf 7f57 b43f b915 1c3c 7cdc b6bf
00000210: 2dfe b33f 3212 493e 3f20 eabe 92dd 2cbf
00000220: e370 5abf a16c 43bf 0627 abbf 056c 81bf
00000230: 2bfb 90bf 5b1a 56bf 9b29 8dbf 4d63 40bf
00000240: 2337 d73d 4975 513f 28ba d23e d6b3 d3be
00000250: 8c27 143f e495 b0bd 1023 3bbf af1c 5abe
00000260: b87f f0be 624c 9b3f 7b3d 0240 9a5c 903f
00000270: cecc 403f d105 ff3f 9e90 763f 5302 a3be
00000280: b75b 403f 95f6 6a3e 058d a83f e892 c93f
00000290: e71a ee3e 2932 993f 95c9 513f a332 5cbf
000002a0: 4987 7c3e 3063 11bf c51a b7bf 1d4a e8bd
000002b0: eef5 233e 53d4 66bf 4327 0bbc ab9d cdbd
000002c0: 1f82 07c0 a3d5 d7be 7fd6 54bf 5ec0 f1bf
000002d0: f46d 0ebf b945 283e f89d 993d 7b8c 81be
000002e0: 910b c03d a69e 53bf aac0 12bf c0d2 d5bd
000002f0: ff0f febe 43b9 723d 9716 8dbf f701 a9bf
00000300: 9221 8e3f ad35 d03e 8673 f0be 1073 5c3f
00000310: 2e96 933f f9ae 3b3f 052a 09bc ca02 92bf
00000320: 0ffe c2bf 810b 203f 6772 323e b217 44bf
00000330: c3fc 923d a627 cd3e 3705 a43e 1bf9 59bd
00000340: 140f adbf 8d6f 0cc0 8be0 be3e fe5a b3be
00000350: b88e 0fc0 5662 df3e f92a 233e 92ab 47bf
00000360: af0c bebe 89d9 873f 7461 22be 4efe b0bf
00000370: 37e4 77be 7754 c4bf 966f 7abf 0c42 b6bd
00000380: d983 6bbf 3671 aa3e 623e 0a40 0b14 3f3f
00000390: b697 3cbe 2c42 7c3f 678f abbe 33c3 2e3e
000003a0: a467 893f 86f4 96bd c399 2e3e 8b44 b23f
000003b0: c319 873e f75e 62bf f808 5b3e 30e6 a1bf
000003c0: ca45 babe 6adc 303f 2f03 46bf 899a 9fbf
000003d0: 1428 24bf f778 92bf a85a 2d3e 3cb9 59be
000003e0: e6fe 95bf 35ba a63f 4a20 1740 6eef d33f
000003f0: ba3d cfbe 485b 713f 3883 983d 88bf 96be

bn.weight f4 [16]
1.7969882 1.0340655 0.9630611 2.326369 2.241012 0.979428 0.8524373 0.9507033
1.0633898 1.6720194 1.0759465 1.5617744 1.4652667 1.7325689 0.9516486 0.4432274
00000000: b603 e63f 425c 843f 2c8b 763f 3be3 1440
00000010: be6c 0f40 cbbb 7a3f 5539 5a3f 4b61 733f
00000020: 281d 883f bb04 d63f 9db8 893f 39e8 c73f
00000030: dc8d bb3f d1c4 dd3f 3e9f 733f b4ee e23e

bn.bias f4 [16]
1.4572449 0.18215108 0.14355004 3.2053335 0.38898644 0.51537263 -0.65231824 -1.0016903
-0.75901055 1.8656828 0.026622284 -0.24956879 0.709277 -1.0872297 -1.0679214 0.4666824
00000000: 0087 ba3f d085 3a3e c8fe 123e 2f24 4d40
00000010: 3b29 c73e 76ef 033f 54fe 26bf 6337 80bf
00000020: 844e 42bf b2ce ee3f fa16 da3c f68e 7fbe
00000030: 2d93 353f 582a 8bbf a6b1 88bf fff0 ee3e

bn.running_mean f4 [16]
-0.24394163 -0.7392668 -0.0139436945 0.15846641 -0.558385 -0.1369178 -2.2582965 -2.3081927
-0.0022341884 -0.35685104 2.870777 -3.6260233 -0.013761657 -7.1763954 -0.063418925 -1.9646817
00000000: d6cb 79be 9740 3dbf 1874 64bc 0545 223e
00000010: 52f2 0ebf 2e34 0cbe ee87 10c0 6eb9 13c0
00000020: 766b 12bb 2eb5 b6be cfba 3740 c410 68c0
00000030: 9378 61bc 08a5 e5c0 c8e1 81bd b17a fbbf

bn.running_var f4 [16]
1.5579394 2.14003 0.43765423 0.57865554 2.5547855 2.017034 3.637995 5.1736083
1.211407 0.45234093 4.506868 7.317112 0.993982 20.509504 0.6104796 2.4358592
00000000: 8f6a c73f 40f6 0840 3714 e03e c522 143f
00000010: 9b81 2340 1617 0140 e9d4 6840 338e a540
00000020: 620f 9b3f 3b99 e73e 4338 9040 c825 ea40
00000030: 9b75 7e3f 7713 a441 6448 1c3f 1ee5 1b40

layer1.0.conv1.weight f4 [16, 16, 3, 3]
-0.07145947 -0.35982773 1.4175327 0.93612826 -0.74927586 -0.099486284 -0.13923888 -0.06672606
-0.27527192 -0.8769083 0.41686785 0.86632615 -0.44974393 0.3663618 -0.07481039 -1.7611996
-0.9936833 -0.9227218 -1.1765448 0.19954076 0.6314506 -0.9414294 0.08372123 0.57830054
-1.4674174 -0.6908858 0.33930132 -0.35159254 -1.3109039 -0.20746583 -1.7335579 2.1420217
0.3923492 -0.5945045 -0.18812227 1.0329634 0.25884658 0.20328355 -0.7343856 0.8702713
0.531231 -1.4647323 0.53361124 0.8955354 -1.4749142 -1.9333441 -1.0671437 -0.89209384
-1.1982828 0.23356763 0.91136664 -1.1702843 0.31001565 1.5136405 -0.8827992 -0.69127023
-1.5007908 -1.7320883 -0.98663074 -1.3519328 -0.72821873 -0.15962012 -0.36084175 -0.9069474
-0.8269175 -0.3267099 -0.7968568 -1.6926401 -1.322812 0.18915465 -0.14932474 -1.0947262
0.06771078 1.022959 0.37879583 0.22845319 0.6505112 0.012136531 -0.7297309 -0.47585288
-0.13436817 0.51567495 -0.55374694 -1.9897223 -0.6992438 -1.6981751 -1.6044755 2.1827085
1.5990696 0.540798 0.12141314 -0.5317724 -0.519014 0.24028417 0.12125941 -0.19208941
0.337465 0.11492795 -0.10929721 -0.8269018 -0.6078552 -1.713163 -0.36938897 -0.2228569
-1.1941615 0.86817026 0.9036861 0.1129704 0.58508974 0.5035361 0.0718596 -1.1645768
-1.1281335 -1.2218225 -0.7620602 -0.85446215 -0.7075628 0.73505 1.181781 0.31027207
-0.004622503 0.3089348 -0.5670914 -0.024879646 0.3714992 -0.506641 0.46764272 0.33638835
-0.03300913 -1.1040822 -1.3866682 -1.6754528 1.2677159 0.46070814 -0.101528645 -1.8296454
-0.48996454 -0.08450615 -0.49928856 0.8201069 1.2977647 -0.622377 0.98372066 1.6110711
-2.3938324 2.234242 -0.85148287 -1.8570731 2.6675653 0.5449436 -1.7135503 1.5360961
-0.061396353 0.13133319 -0.87612087 -1.011105 0.64893115 -0.14561343 -0.42289966 0.34490445
0.07462188 -0.76067907 0.51711464 -1.4407235 -0.9970369 0.5474931 -0.9607533 -0.33200753
0.51883584 -0.0031287759 0.21752642 0.30843043 0.21881299 0.3310491 0.607815 -0.57235277
0.3726727 -0.8661402 -1.2150968 -1.4566333 0.3020105 1.1135451 -1.1065226 0.42562437
0.96557266 -0.7132217 0.030348497 0.58122855 -0.31621632 0.3287761 0.59458756 0.7869229
0.1757269 0.38648644 0.48112828 -0.36119086 -0.31416634 -0.209354 1.5782384 0.19767983
-0.64863044 1.4853245 -0.2793842 -1.410478 -0.017162865 -1.4786435 -2.2032497 -1.3663844
-0.6342666 -0.13145933 -0.4089975 -0.13040671 0.39381984 -0.6487312 -0.31019402 -0.86220974
1.2875873 -0.3411474 0.5108859 1.4334264 -0.31278738 -0.81713665 0.08518645 -0.9835256
-1.3039342 -0.6749739 -1.9579418 0.23106971 -0.26713377 -0.35410288 0.58649594 -0.7450258
-0.20634535 0.30276683 -0.75322205 -0.80704737 -0.45362064 -0.48371804 -0.29370627 0.13792524
-0.54097986 -0.07876215 0.1629046 2.2170734 1.6665634 0.3193407 2.4196274 1.563987
0.08848253 0.8432008 0.4066037 -1.0726833 0.77035236 1.3762988 0.39845482 0.62042254
00000000: 5859 92bd 573b b8be b671 b53f 1aa6 6f3f
00000010: 8bd0 3fbf 77bf cbbd a394 0ebe aca7 88bd
00000020: 71f0 8cbe 107d 60bf b46f d53e 8dc7 5d3f
00000030: d644 e6be c693 bb3e 3136 99bd fd6e e1bf
00000040: 0762 7ebf 7f37 6cbf 0599 96bf 6a54 4c3e
00000050: bfa6 213f 8401 71bf 0976 ab3d 810b 143f
00000060: 55d4 bbbf e4dd 30bf e7b8 ad3e f003 b4be
00000070: b3cb a7bf ec71 54be 3ae5 ddbf e216 0940
00000080: ffe1 c83e 7231 18bf 20a3 40be 2538 843f
00000090: 8a87 843e 9029 503e b200 3cbf 1aca 5e3f
000000a0: c1fe 073f 597c bbbf bf9a 083f cf41 653f
000000b0: fdc9 bcbf d277 f7bf 2a98 88bf 4360 64bf
000000c0: 5561 99bf 5a2c 6f3e 534f 693f e0cb 95bf
000000d0: 5fba 9e3e f9be c13f 21ff 61bf 16f7 30bf
000000e0: ea19 c0bf 12b5 ddbf d593 7cbf 220c adbf
000000f0: 8b6c 3abf 7573 23be 40c0 b8be b42d 68bf
00000100: deb0 53bf 8546 a7be cffe 4bbf 6ea8 d8bf
00000110: e751 a9bf c2b1 413e 96e8 18be fd1f 8cbf
00000120: f3ab 8a3d 52f0 823f 87f1 c13e a2ef 693e
00000130: e787 263f 4dd8 463c a5cf 3abf fda2 f3be
00000140: cf97 09be 4603 043f 5cc2 0dbf 38af febf
00000150: a401 33bf cd5d d9bf 745f cdbf 7fb1 0b40
00000160: 50ae cc3f bd71 0a3f 74a7 f83d 3c22 08bf
00000170: 1ade 04bf 0e0d 763e db56 f83d 16b3 44be
00000180: 36c8 ac3e 585f eb3d 37d7 dfbd d6af 53bf
00000190: 669c 1bbf ed48 dbbf 8d20 bdbe 9934 64be
000001a0: 49da 98bf 6840 5e3f f957 673f 065d e73d
000001b0: 71c8 153f bee7 003f 202b 933d da10 95bf
000001c0: ae66 90bf ae64 9cbf 6116 43bf 08be 5abf
000001d0: d622 35bf 3d2c 3c3f 9a44 973f fbdb 9e3e
000001e0: 5e78 97bb b42c 9e3e e72c 11bf 66d0 cbbc
000001f0: 2535 be3e 39b3 01bf de6e ef3e 183b ac3e
00000200: 9534 07bd 9152 8dbf 587e b1bf 3d75 d6bf
00000210: 8444 a23f f0e1 eb3e 40ee cfbd d231 eabf
00000220: a2dc fabe 8f11 adbd c0a2 ffbe 87f2 513f
00000230: 271d a63f 1954 1fbf 1ed5 7b3f 9437 ce3f
00000240: 8d34 19c0 d2fd 0e40 c8fa 59bf 92b4 edbf
00000250: 64b9 2a40 6c81 0b3f 9e55 dbbf cc9e c43f
00000260: be7a 7bbd 357c 063e 7549 60bf e36b 81bf
00000270: 5a20 263f b01b 15be 4e86 d8be 5197 b03e
00000280: 5bd3 983d ddbb 42bf a061 043f a169 b8bf
00000290: cf3d 7fbf 8228 0c3f eef3 75bf e4fc a9be
000002a0: 6dd2 043f 260c 4dbb 3fbf 5e3e 98ea 9d3e
000002b0: 8310 603e 457f a93e c499 1b3f b685 12bf
000002c0: f5ce be3e 5dbb 5dbf 4b88 9bbf f672 babf
000002d0: 1fa1 9a3e a588 8e3f 88a2 8dbf 70eb d93e
000002e0: c52f 773f b395 36bf 699d f83c 65cb 143f
000002f0: 1be7 a1be 5755 a83e e436 183f c773 493f
00000300: c1f1 333e 8de1 c53e 7256 f63e 02ee b8be
00000310: 69da a0be e560 56be b703 ca3f 956c 4a3e
00000320: a50c 26bf 1d1f be3f 720b 8fbe 8b8a b4bf
00000330: 2399 8cbc 3144 bdbf 0b02 0dc0 afe5 aebf
00000340: 4c5f 22bf 469d 06be 1f68 d1be 5689 05be
00000350: c1a2 c93e 3f13 26bf c0d1 9ebe c7b9 5cbf
00000360: a9cf a43f dfaa aebe 6bc9 023f 847a b73f
00000370: ab25 a0be de2f 51bf 3c76 ae3d 55c8 7bbf
00000380: 51e7 a6bf 17cb 2cbf d69d fabf 8a9d 6c3e
00000390: c2c5 88be f94c b5be 9924 163f 03ba 3ebf
000003a0: 324c 53be 4104 9b3e 29d3 40bf a89a 4ebf
000003b0: f740 e8be e4a9 f7be ab60 96be 463c 0d3e
000003c0: a87d 0abf 0d4e a1bd 77d0 263e 88e4 0d40
000003d0: f351 d53f a080 a33e 2ddb 1a40 ba30 c83f
000003e0: 5436 b53d 02dc 573f 5c2e d03e b04d 89bf
000003f0: d035 453f 8f2a b03f 4502 cc3e 03d4 1e3f

layer1.0.bn1.weight f4 [16]
1.6079551 1.4960454 0.9452269 1.9001775 1.3685105 1.2335887 1.288 1.1551052
1.4066354 1.7216214 1.9700251 1.2331455 1.9543775 2.3865879 1.2269193 1.0726333
00000000: 79d1 cd3f 6a7e bf3f 64fa 713f 0439 f33f
00000010: 5a2b af3f 3ce6 9d3f 2fdd a43f 7dda 933f
00000020: a10c b43f 175e dc3f c829 fc3f b6d7 9d3f
00000030: 0b29 fa3f dbbd 1840 b10b 9d3f 0c4c 893f

layer1.0.bn1.bias f4 [16]
0.36593708 -0.6229734 -0.80336565 0.81441265 -0.52018684 -1.0869024 0.7637713 0.2558747
-0.19211726 -0.84988534 -0.29506588 -0.91117054 0.7138907 1.7294531 -0.5824822 -0.506862
00000000: 1b5c bb3e 2f7b 1fbf 5fa9 4dbf 597d 503f
00000010: f72a 05bf 9e1f 8bbf 8486 433f 0202 833e
00000020: 63ba 44be 1692 59bf e012 97be 7942 69bf
00000030: 8ac1 363f b85e dd3f 8e1d 15bf b5c1 01bf

layer1.0.bn1.running_mean f4 [16]
-15.925779 -7.287162 16.776478 -9.729771 -1.2079695 10.017363 -11.066871 -30.307083
-22.465172 9.749643 -15.949811 3.9645114 -21.87772 -16.95007 -9.528563 -20.078003
00000000: fecf 7ec1 6e30 e9c0 3a36 8641 24ad 1bc1
00000010: bf9e 9abf 1e47 2041 e711 31c1 e874 f2c1
00000020: acb8 b3c1 8afe 1b41 6d32 7fc1 8eba 7d40
00000030: 9205 afc1 be99 87c1 fe74 18c1 c09f a0c1

layer1.0.bn1.running_var f4 [16]
184.55911 545.4368 211.57263 466.5918 165.0914 423.28247 542.9915 253.08435
286.85242 400.75024 449.41196 246.31111 235.33379 285.28055 258.56116 255.56555
00000000: 228f 3843 f55b 0844 9892 5343 c04b e943
00000010: 6617 2543 28a4 d343 75bf 0744 9815 7d43
00000020: 1c6d 8f43 0860 c843 bbb4 e043 a54f 7643
00000030: 7355 6b43 e9a3 8e43 d447 8143 c890 7f43

layer1.0.conv2.weight f4 [16, 16, 3, 3]
-1.0736518 -0.08317429 0.037825115 -0.8528037 -0.42682564 2.6372187 0.15934514 -0.03132636
1.323938 -0.7383262 -1.377149 -0.24021542 0.78451777 0.32874396 -0.7482044 0.5083513
0.15510093 -1.3699796 -0.072641425 0.07999593 -0.6107206 0.3960558 0.56836313 -1.1002301
-0.36972716 0.010120102 -0.7242055 -0.6327052 0.06855273 -0.011885885 1.7839863 0.23990916
-1.7089556 0.10353258 -0.33192822 0.39166456 0.39001212 -0.856208 -0.34063703 -0.22017404
-1.1786313 -0.48967722 0.9956645 -0.5804664 -0.22751021 -1.0443714 -1.9459682 -0.020241464
-0.017643217 -0.4809055 -0.2998625 0.00031983593 -0.07319076 -0.4301885 -0.33598444 0.45096645
-0.28671262 -1.1062615 0.06262481 2.9689345 -0.28847596 0.36844608 0.8050963 -0.6329081
-0.056431897 1.4098771 1.6676694 0.42328656 -1.6984311 -0.20776346 0.08362033 0.3795921
0.7036132 -0.6297708 -0.38318858 -0.80559415 0.12462541 1.4089099 0.61697567 0.97779226
-0.91775095 -0.75545835 0.6540175 -1.7593918 0.107182674 -0.074884616 -0.13076046 -0.37527594
-0.48236975 -0.66369325 -0.026470564 0.25044546 0.17705256 0.42116052 -0.21861632 -1.8582464
0.07381598 -0.66830724 0.29580963 -1.6180924 -1.2986486 0.6490932 -1.7750561 -1.2068231
0.70125204 -0.66797245 -0.109194085 -0.7291369 -0.5222005 -0.62308204 1.5327462 -1.9378033
2.005237 0.033324786 -0.23601581 0.3389513 -0.5351713 0.4244082 -0.24731769 -0.6826533
0.6315676 -3.411207 2.3211904 0.7550903 -1.3884819 -1.0505648 0.2246364 0.1296562
-1.3243141 0.37792426 -0.18229449 -1.4082129 0.5131311 -0.5720615 0.13907363 -0.5312546
1.9926559 -0.21921083 0.084687516 0.30312455 0.45147854 -0.35982352 -0.50609356 -0.006298403
-1.8658446 -1.8941207 -2.346686 -0.69184154 0.014130397 -0.28881547 0.4044828 1.2643553
0.55479515 0.49739864 1.0229958 1.0441121 -1.3424635 -0.6618955 0.010823973 -0.6311138
-0.28117043 0.33606616 0.3162048 1.136635 0.66143835 0.77307415 0.93024284 0.39532933
-0.063771345 0.6244657 0.19886692 0.13646883 0.61878306 0.30313224 -1.3106774 -1.4331436
-0.8007681 -0.94210905 0.6578608 0.64723915 0.51084995 0.82426196 1.0271313 0.5169694
0.6794096 0.60493314 -0.97435 -0.13463935 0.12594707 -0.44941613 -0.032383036 -0.032197397
-1.138885 -0.705242 -0.16283114 -0.07850881 -0.26827705 -0.053920962 -0.06977162 -0.02274073
-0.16898446 -0.64162856 1.0553885 0.737093 -0.5953747 0.16747805 -0.1021247 0.25690907
1.8482957 1.7455533 -0.84799045 -0.590749 0.5335315 -0.9045563 -1.5391784 -1.3901274
1.703544 1.5389687 1.0889087 1.5806143 1.6661545 1.0999293 0.15769917 -0.27226257
-0.5388549 -0.19294204 -1.3337889 -1.3228441 -0.7870103 -1.7403902 -1.1331961 0.14844362
-0.24529466 0.5705338 0.94252247 0.9257559 0.8351867 -0.56699747 -0.25142497 -0.24699463
-1.8395612 -0.4613251 -0.5922197 0.43188494 1.7902454 1.1761361 0.12019199 1.4885232
0.889879 0.084844775 1.1318004 1.2588571 0.7807372 0.7535077 1.9595056 0.35471225
00000000: 6c6d 89bf 4857 aabd 82ee 1a3d 5851 5abf
00000010: e488 dabe 31c8 2840 5f2b 233e 1250 00bd
00000020: cd76 a93f f202 3dbf 6b46 b0bf 08fb 75be
00000030: 28d6 483f 2151 a83e 538a 3fbf 5023 023f
00000040: c7d2 1e3e 7e5b afbf 07c5 94bd e8d4 a33d
00000050: 2f58 1cbf d3c7 ca3e 3f80 113f 57d4 8cbf
00000060: e14c bdbe c9ce 253c 8865 39bf f8f8 21bf
00000070: 6065 8c3d 04bd 42bc aa59 e43f bfaa 753e
00000080: 0fbf dabf e408 d43d 7ff2 a9be 4288 c83e
00000090: abaf c73e 7330 5bbf fa67 aebe 4e75 61be
000000a0: 64dd 96bf f9b6 fabe dee3 7e3f 7299 14bf
000000b0: 70f8 68be f6ad 85bf 7c15 f9bf 6dd1 a5bc
000000c0: 8288 90bc 3f39 f6be 9487 99be a7af a739
000000d0: 0ae5 95bd ab41 dcbe 2706 acbe 13e5 e63e
000000e0: ffcb 92be fa99 8dbf 7041 803d 0603 3e40
000000f0: 1fb3 93be f7a4 bc3e cb1a 4e3f 4406 22bf
00000100: 2225 67bd da76 b43f 3176 d53f 04b9 d83e
00000110: 3166 d9bf f2bf 54be 2341 ab3d e559 c23e
00000120: ff1f 343f a938 21bf 4b31 c4be 6b3b 4ebf
00000130: 9b3b ff3d 2957 b43f 1ef2 1d3f 9850 7a3f
00000140: baf1 6abf b865 41bf b16d 273f c033 e1bf
00000150: 9782 db3d 1b5d 99bd 12e6 05be 2b24 c0be
00000160: 2bf9 f6be cde7 29bf ccd8 d8bc 633a 803e
00000170: 444d 353e 5aa2 d73e f5dc 5fbe 05db edbf
00000180: d52c 973d 2f16 2bbf 5c74 973e a71d cfbf
00000190: 1e3a a6bf f92a 263f 0a35 e3bf 2e79 9abf
000001a0: 4185 333f 3e00 2bbf 26a1 dfbd b7a8 3abf
000001b0: efae 05bf 4e82 1fbf 0731 c43f f009 f8bf
000001c0: ce55 0040 927f 083d 21ae 71be 068b ad3e
000001d0: fc00 09bf 084c d93e d940 7dbe 5ec2 2ebf
000001e0: 6aae 213f 3751 5ac0 628e 1440 994d 413f
000001f0: c6b9 b1bf e878 86bf 1607 663e 98c4 043e
00000200: 2083 a9bf 4a7f c13e 68ab 3abe 5240 b4bf
00000210: 8f5c 033f 9f72 12bf 5169 0e3e 4d00 08bf
00000220: 590f ff3f ce78 60be a670 ad3d 2433 9b3e
00000230: 3228 e73e ca3a b8be 598f 01bf d562 cebb
00000240: ffd3 eebf 8c72 f2bf 1a30 16c0 871c 31bf
00000250: 2e83 673c 9fdf 93be 5f18 cf3e 65d6 a13f
00000260: 0e07 0e3f 09ab fe3e 87f1 823f 77a5 853f
00000270: d8d5 abbf fc71 29bf 0957 313c ad90 21bf
00000280: 92f5 8fbe dd10 ac3e 98e5 a13e 417d 913f
00000290: 0654 293f 30e8 453f 6524 6e3f 9b68 ca3e
000002a0: 8d9a 82bd fcdc 1f3f c5a3 4b3e 7cbe 0b3e
000002b0: 9168 1e3f 2634 9b3e 47c4 a7bf 4071 b7bf
000002c0: 23ff 4cbf 0f2e 71bf 9169 283f 77b1 253f
000002d0: 10c7 023f d502 533f 0a79 833f 1b58 043f
000002e0: caed 2d3f e6dc 1a3f 006f 79bf e6de 09be
000002f0: 45f8 003e df19 e6be 13a4 04bd 6be1 03bd
00000300: fcc6 91bf bd8a 34bf 35bd 26be 3ac9 a0bd
00000310: 9c5b 89be 3adc 5cbd 6ce4 8ebd c44a babc
00000320: 430a 2dbe c541 24bf f816 873f 20b2 3c3f
00000330: 7a6a 18bf 5e7f 2b3e c126 d1bd 9689 833e
00000340: f494 ec3f 4a6e df3f e715 59bf 543b 17bf
00000350: 8595 083f 0091 67bf cc03 c5bf b2ef b1bf
00000360: bb0d da3f edfc c43f 5c61 8b3f 9251 ca3f
00000370: 8d44 d53f 7cca 8c3f e47b 213e 0066 8bbe
00000380: 65f2 09bf 9992 45be 98b9 aabf f552 a9bf
00000390: 8279 49bf 1bc5 debf 920c 91bf 9b01 183e
000003a0: 862e 7bbe 810e 123f 2749 713f 57fe 6c3f
000003b0: ccce 553f bf26 11bf c6ba 80be 29ec 7cbe
000003c0: be76 ebbf ce32 ecbe b69b 17bf 0620 dd3e
000003d0: c326 e53f a18b 963f 3827 f63d ee87 be3f
000003e0: 1ccf 633f 19c3 ad3d d6de 903f 3b22 a13f
000003f0: 65de 473f e1e5 403f 14d1 fa3f d89c b53e

layer1.0.bn2.weight f4 [16]
2.8418972 1.5131963 1.5953674 1.3132312 1.38167 0.7217418 2.4414556 2.058282
0.93297696 1.4072518 1.3817819 0.47275907 0.7285244 0.7724257 2.8321257 1.4973766
00000000: a5e1 3540 6bb0 c13f 0035 cc3f f617 a83f
00000010: 90da b03f 12c4 383f cf40 1c40 e4ba 0340
00000020: 94d7 6e3f d420 b43f 3bde b03f 7a0d f23e
00000030: 9380 3a3f b1bd 453f 8c41 3540 09aa bf3f

layer1.0.bn2.bias f4 [16]
0.046866573 -0.51172596 0.28649256 -0.46327028 0.762888 0.28685185 0.23612545 0.27931994
-0.75204104 -2.549019 0.44263628 -1.0037973 0.6786035 -0.5880919 1.2608498 0.36622888
00000000: 2af7 3f3d 7900 03bf 27af 923e c331 edbe
00000010: a14c 433f 3fde 923e dfca 713e 0603 8f3e
00000020: c385 40bf 2123 23c0 39a1 e23e 6e7c 80bf
00000030: f5b8 2d3f 318d 16bf 8763 a13f 5a82 bb3e

layer1.0.bn2.running_mean f4 [16]
-5.8087797 -3.6054523 -2.6805463 8.376542 3.834869 11.457084 -4.558408 -14.5759
0.062002555 -1.500671 -5.720316 35.34772 6.1946173 16.516842 -9.037627 -22.588823
00000000: 86e1 b9c0 bbbf 66c0 128e 2bc0 5106 0641
00000010: 7e6e 7540 3750 3741 7ade 91c0 e336 69c1
00000020: 64f6 7d3d fd15 c0bf d40c b7c0 1164 0d42
00000030: 4e3a c640 7e22 8441 1f9a 10c1 e9b5 b4c1

layer1.0.bn2.running_var f4 [16]
181.1796 227.78328 374.2178 140.28107 322.44315 144.03041 463.47775 194.38463
190.9866 270.87698 331.6387 284.50522 134.89365 222.66727 210.76048 313.02164
00000000: fa2d 3543 85c8 6343 e11b bb43 f447 0c43
00000010: b938 a143 c907 1043 27bd e743 7762 4243
00000020: 92fc 3e43 4170 8743 c1d1 a543 ab40 8e43
00000030: c6e4 0643 d2aa 5e43 afc2 5243 c582 9c43

layer1.1.conv1.weight f4 [16, 16, 3, 3]
0.8927818 -0.18131046 -1.086883 0.024444405 0.500317 -0.52087784 0.3504727 -0.704416
-1.1418481 -0.733629 0.3631208 0.4913771 -1.2455792 -0.4174439 0.14282072 -0.99127996
-0.7850808 -0.24778388 -0.36504564 0.5007433 0.58338577 -0.89737624 0.0006285723 -0.008255841
-0.53875047 0.11322457 -0.12775189 0.08634632 -0.04921158 -0.16194591 -3.059523 -1.7050618
-0.62528235 -2.6869724 -3.3450885 -0.7461983 -2.9681895 -2.1617768 -0.4968834 -1.5258162
-1.816826 -0.7919109 -0.70798856 -1.8376714 -0.83342004 -0.6496927 0.004632957 0.36126986
-1.2208061 -0.108687855 0.42477715 -1.2377454 -0.32937407 -0.061016146 -0.841156 -1.2482634
-0.8661764 -0.06282606 -0.0017542868 0.59576577 -3.4852655 -4.119576 -2.5195456 -1.592323
-0.75255984 0.072200514 -0.02984706 -0.73584366 -0.19065967 0.13982475 -1.147956 -0.68209213
-0.37842375 -0.46693754 0.6580091 -0.9138989 -0.47284976 0.8379131 -0.2704149 -0.18747418
0.7652689 -0.7552072 -0.058087613 0.28690025 0.097599916 0.57345307 0.7195886 -0.22838978
0.30322632 0.32417974 0.37699616 1.0087072 1.1217695 -0.4942818 0.9285318 1.4189023
-1.4429587 -0.94817865 -0.4988962 -0.5410987 0.014839942 0.22646575 -0.34379056 0.0955801
0.15906547 -0.056146234 0.11317965 -0.18692346 -0.073943846 -0.69218814 -0.49721152 0.27202174
-0.13899957 0.3883817 -0.8860046 -0.874084 -0.25647125 -0.73317534 -0.50226605 0.13193281
-0.93213 -0.68701357 -0.16176403 -0.84251857 -0.76342607 -0.19608212 -1.2103026 -0.33848017
0.1969452 1.6777344 0.07764818 -0.5520027 1.1768637 0.11844007 0.017672086 0.20894848
0.9231691 0.7258305 0.090686195 0.8416762 1.046422 -0.2880628 0.38660622 0.51925987
0.10204982 -0.5686825 0.49324897 0.7636138 0.358225 -0.019402776 -0.13128422 -0.3038957
-1.6223934 1.264557 1.4353443 1.331763 -0.46897724 0.3108318 0.5468155 -0.89298445
-0.14797959 -0.09792811 0.2872071 0.7032764 0.77811146 0.4312193 0.781433 0.4877217
0.47623727 1.071473 0.7359161 -0.73987514 0.21820189 1.3022056 0.7069062 1.1038308
1.0247775 -0.32353374 -0.75905275 -0.5147086 -0.085848555 -0.10072161 -1.5100499 0.18535179
0.6587248 -0.33142394 -0.34552124 0.10896523 -0.14741576 -0.73161167 -0.50608295 0.029365882
-0.7991471 -0.72051525 -0.23806338 -0.5558862 -0.5096343 0.29388386 -1.2385439 -0.072369635
-0.37683842 0.12175696 1.1798421 1.2869432 1.3651278 1.5282409 1.7688531 1.4005337
0.9591541 0.011430261 1.3517437 0.9293278 -0.2925589 0.9624939 1.0867671 1.3768626
-0.3281692 -1.8291991 -2.248425 0.32108787 -0.05849548 -0.3289156 -0.15384878 -0.6336961
-0.8240099 1.4967384 0.9127195 0.9331289 1.5216287 0.8861841 0.38418236 0.4390466
0.3917246 0.51614517 0.5051779 0.41238466 0.9153747 -0.46406746 -0.41863504 -0.022582619
-1.564548 -1.7769024 -1.6736411 -0.40637037 -0.060789127 -0.25698182 -0.92945135 -0.5350983
-0.38025358 -1.6702981 -1.5360997 -1.1226355 -0.48715487 0.528564 0.9322534 -0.036509454
00000000: 598d 643f 73a9 39be fb1e 8bbf a23f c83c
00000010: c614 003f 4058 05bf 2871 b33e 9b54 34bf
00000020: 1428 92bf 1ccf 3bbf f8ea b93e c795 fb3e
00000030: 246f 9fbf 35bb d5be 983f 123e 86c4 7dbf
00000040: 0efb 48bf 0fbb 7dbe 43e7 babe b730 003f
00000050: c558 153f 73ba 65bf c6c6 243a 8243 07bc
00000060: 8deb 09bf 49e2 e73d 64d1 02be 57d6 b03d
00000070: 1592 49bd 26d5 25be 3acf 43c0 773f dabf
00000080: 8112 20bf 5bf7 2bc0 ee15 56c0 da06 3fbf
00000090: d1f6 3dc0 8d5a 0ac0 8067 febe f24d c3bf
000000a0: c18d e8bf acba 4abf bd3e 35bf d138 ebbf
000000b0: 045b 55bf 4352 26bf 0fd0 973b 5df8 b83e
000000c0: 6043 9cbf bd97 debd 647c d93e 716e 9ebf
000000d0: b8a3 a8be 11ec 79bd 0056 57bf 18c7 9fbf
000000e0: bdbd 5dbf f3aa 80bd 19f0 e5ba 1b84 183f
000000f0: 970e 5fc0 91d3 83c0 3c40 21c0 3dd1 cbbf
00000100: c3a7 40bf dddd 933d d281 f4bc 4060 3cbf
00000110: 4a3c 43be 382e 0f3e 39f0 92bf 979d 2ebf
00000120: c2c0 c1be 7012 efbe 4973 283f 47f5 69bf
00000130: 5d19 f2be 7981 563f d273 8abe 3bf9 3fbe
00000140: aae8 433f 4255 41bf 47ed 6dbd 97e4 923e
00000150: 77e2 c73d d2cd 123f f536 383f 03df 69be
00000160: 7b40 9b3e e3fa a53e a405 c13e 511d 813f
00000170: 2596 8f3f 8112 fdbe 43b4 6d3f 979e b53f
00000180: dfb2 b8bf d6bb 72bf 536f ffbe 7285 0abf
00000190: 3a23 733c a3e6 673e 5105 b0be 80bf c33d
000001a0: 0fe2 223e 98f9 65bd bbca e73d dd68 3fbe
000001b0: df6f 97bd 3e33 31bf 8292 febe 6f46 8b3e
000001c0: e755 0ebe f7d9 c63e 33d1 62bf f8c3 5fbf
000001d0: 3350 83be 61b1 3bbf 8294 00bf 6519 073e
000001e0: 12a0 6ebf 1fe0 2fbf 78a5 25be 4caf 57bf
000001f0: e46f 43bf c0c9 48be 32eb 9abf 464d adbe
00000200: 01ac 493e 00c0 d63f 0206 9f3d 0d50 0dbf
00000210: 78a3 963f b590 f23d 0dc5 903c 97f6 553e
00000220: cf54 6c3f 07d0 393f afb9 b93d 1778 573f
00000230: 28f1 853f f87c 93be 40f1 c53e 37ee 043f
00000240: 7fff d03d 2d95 11bf 218b fc3e 327c 433f
00000250: 4469 b73e 92f2 9ebc 5f6f 06be 3898 9bbe
00000260: 96aa cfbf 01dd a13f 5db9 b73f 3677 aa3f
00000270: c91d f0be 5825 9f3e 1afc 0b3f a19a 64bf
00000280: f687 17be 888e c8bd cf0c 933e ec09 343f
00000290: 5032 473f c7c8 dc3e fe0b 483f a9b6 f93e
000002a0: 5fd5 f33e 0726 893f ff64 3c3f 7568 3dbf
000002b0: 5170 5f3e acae a63f cef7 343f 544a 8d3f
000002c0: e92b 833f 37a6 a5be 4851 42bf f1c3 03bf
000002d0: 5ed1 afbd 2247 cebd 5149 c1bf dccc 3d3e
000002e0: 30a2 283f 66b0 a9be 29e8 b0be 2a29 df3d
000002f0: 28f4 16be e74a 3bbf a78e 01bf b890 f03c
00000300: e894 4cbf b073 38bf e3c6 73be 8f4e 0ebf
00000310: 6577 02bf f277 963e 9b88 9ebf 8836 94bd
00000320: f7f0 c0be b75b f93d 1105 973f 8eba a43f
00000330: 82bc ae3f 669d c33f c769 e23f b044 b33f
00000340: 208b 753f fd45 3b3c f005 ad3f 6de8 6d3f
00000350: 48ca 95be 0066 763f 2f1b 8b3f 093d b03f
00000360: cb05 a8be 3223 eabf 32e6 0fc0 a165 a43e
00000370: f598 6fbd a067 a8be 898a 1dbe e839 22bf
00000380: 50f2 52bf 2095 bf3f fca7 693f 89e1 6e3f
00000390: bbc4 c23f f6dc 623f 8db3 c43e b7ca e03e
000003a0: 2090 c83e 1722 043f 5753 013f 1524 d33e
000003b0: ff55 6a3f 409a edbe 5557 d6be 2fff b8bc
000003c0: 1c43 c8bf 8a71 e3bf df39 d6bf c70f d0be
000003d0: 05fe 78bd 1f93 83be 86f0 6dbf 34fc 08bf
000003e0: 99b0 c2be 54cc d5bf ea9e c4bf 85b2 8fbf
000003f0: 5d6c f9be f84f 073f 29a8 6e3f f08a 15bd

layer1.1.bn1.weight f4 [16]
1.2032732 0.59912485 2.4885974 3.0758045 1.9693774 1.415732 1.521 1.1977389
0.4900711 1.1270894 1.0550538 1.4199156 2.3721359 0.7438807 1.5457921 0.56005734
00000000: db04 9a3f 3f60 193f 2e45 1f40 fbd9 4440
00000010: 8f14 fc3f b536 b53f 21b0 c23f 824f 993f
00000020: 99ea fa3e 7744 903f 010c 873f cbbf b53f
00000030: 13d1 1740 f76e 3e3f 84dc c53f eb5f 0f3f

layer1.1.bn1.bias f4 [16]
0.03401095 -0.6218443 0.61542124 0.5447435 -0.86852056 -0.7081941 -0.34542257 -0.37269646
-0.2809317 -0.60384184 -1.0757295 -0.23210968 -0.8587487 -0.59199023 -0.37893218 -0.5418906
00000000: 114f 0b3d 3031 1fbf 3f8c 1d3f 4f74 0b3f
00000010: 5d57 5ebf 354c 35bf 3adb b0be 12d2 bebe
00000020: 48d6 8fbe 6195 1abf 81b1 89bf 29ae 6dbe
00000030: f4d6 5bbf ac8c 17bf 6603 c2be 58b9 0abf

layer1.1.bn1.running_mean f4 [16]
-81.041245 -6.9354506 -13.786803 -28.815437 -28.41566 -48.397152 -13.100989 -6.9868836
43.96703 28.548462 -41.94667 -59.36411 -23.406666 -5.904134 23.373863 12.628379
00000000: 1e15 a2c2 36ef ddc0 bf96 5cc1 0486 e6c1
00000010: 4653 e3c1 af96 41c2 a79d 51c1 8d94 dfc0
00000020: 3dde 2f42 4063 e441 64c9 27c2 d974 6dc2
00000030: da40 bbc1 aaee bcc0 acfd ba41 d70d 4a41

layer1.1.bn1.running_var f4 [16]
1693.4108 531.65857 719.32043 726.1787 874.74664 1139.3967 997.6891 1254.1792
1196.3846 987.82874 753.2443 1129.568 841.09424 883.1995 858.39075 1004.3246
00000000: 25ad d344 26ea 0444 82d4 3344 708b 3544
00000010: c9af 5a44 b26c 8e44 1a6c 7944 bcc5 9c44
00000020: 4f8c 9544 0af5 7644 a34f 3c44 2d32 8d44
00000030: 0846 5244 c5cc 5c44 0299 5644 c614 7b44

layer1.1.conv2.weight f4 [16, 16, 3, 3]
-0.9684204 0.8023282 0.49102533 -1.0128025 1.4679071 1.8648521 0.2362806 1.6333272
1.5963215 -0.25739795 -0.44590056 0.068548664 -0.07830491 -0.37690777 0.79627657 -0.019608987
-0.35669112 0.8711471 0.16489011 0.045681328 0.44050905 -1.8789252 1.9865947 0.642003
-0.35672012 0.92178625 1.7925775 0.98725605 0.30073944 0.3830895 -2.040674 1.6836675
0.04494376 0.57241726 1.1014202 -0.016346341 0.05055077 -1.0511307 -0.12561645 -0.3534077
-0.06586254 -1.0038878 0.061383523 -1.020064 -3.464534 -0.95445627 0.10683704 0.2634905
-0.93315154 0.6411855 -0.24459219 -0.9581406 -0.29073596 -1.0242262 0.19571973 -0.6069202
0.22168225 1.7659254 0.8073118 -0.7593448 0.8498767 -0.6991878 -2.3409898 -1.1833597
-0.08699918 -0.67553276 0.30742407 -1.1451634 0.44338462 -0.7847413 -2.4104066 -2.6916962
-0.42741048 -0.9518863 -0.8134598 0.16018492 -0.7163405 -0.97725147 -0.20115095 -0.6994221
-0.88538283 0.2305177 -0.4224053 -0.8922181 0.99001056 -0.6334844 0.1911299 0.12229221
-0.8900108 -0.3483118 1.2947191 0.14963447 -0.0203461 0.8061838 -0.5799637 -0.2811557
-0.17930792 -1.1005633 -0.124475166 -0.075641274 1.0443009 -0.03468632 -1.2787296 0.71874535
0.5581202 -0.94986314 -0.41693357 -0.042541306 -0.17396176 -2.7746146 0.29073036 0.1841914
0.68447465 0.23224008 -0.59090847 0.53881425 0.41495216 0.44936258 -0.37395835 -1.1317176
0.4112127 -0.9289332 -0.15855022 0.20485999 -0.82526654 -0.10156458 -0.10765129 0.2027829
-1.1853918 1.069598 0.9514105 0.19041036 0.7171256 -0.18545753 -0.40886372 -0.6812881
-0.041264486 -1.1869103 0.25835007 -0.46689245 0.26596412 -0.7728121 -1.0267128 0.10050999
0.7313242 0.22248827 -0.059015736 -1.0413653 -0.476783 -0.047463585 -0.38254347 0.07701753
0.38620856 -0.7683352 -1.0675204 -1.5745636 -0.49102896 -0.5305088 -0.5777696 -1.130536
-1.4928228 -1.528139 -0.23299721 0.6029926 -0.18544038 1.4831251 -0.2985301 -1.7449404
-0.6210957 -1.0388231 -0.3358958 -0.9167886 -0.52214 -0.29437032 -0.047584895 0.7030061
-0.027888864 -1.2332515 -0.78000534 0.17595455 0.58034885 1.1045251 1.5724467 1.1834025
0.6339242 0.3084855 -0.36784598 -1.2724112 -0.13529867 -0.9031057 -1.2272421 -0.5521072
1.2138424 0.5556499 0.3390971 1.8444898 0.09815651 0.5230958 0.795354 1.1222717
-1.241671 -2.7781837 -3.660765 -2.9775426 0.17183605 0.022838028 -0.50491893 1.2154448
0.8584767 -1.0524961 -1.278336 -0.82262075 -0.8009303 1.1067822 0.20766582 -0.26740366
-0.1982982 -0.08517025 -0.54216564 -1.6007506 -0.7570544 -0.37247962 0.100530066 0.03816428
0.7316317 -1.3182783 -1.401631 -1.8040705 -0.270021 0.28627342 0.0414738 -0.4383661
-0.3430203 0.21788955 0.38238552 0.7362643 -0.17070262 -1.9020463 -1.1535617 -1.3064384
-1.806809 -0.985115 -1.0171922 -2.3578897 -0.24570565 0.79849017 -0.4946868 0.5071653
0.36460605 0.55817735 -0.5143657 -0.72994626 1.4881637 0.73559064 -0.19850454 -1.6384252
00000000: 66ea 77bf 6265 4d3f ac67 fb3e 83a3 81bf
00000010: 61e4 bb3f 79b3 ee3f 8bf3 713e de10 d13f
00000020: 4354 cc3f aac9 83be 144d e4be 3e63 8c3d
00000030: 535e a0bd 0efa c0be c8d8 4b3f 07a3 a0bc
00000040: 38a0 b6be 7f03 5f3f f4d8 283e 581c 3b3d
00000050: 678a e13e 9f80 f0bf bc48 fe3f 4f5a 243f
00000060: 05a4 b6be 2ffa 6b3f 2e73 e53f d0bc 7c3f
00000070: 85fa 993e 4f24 c43e 679a 02c0 6b82 d73f
00000080: f316 383d f089 123f 56fb 8c3f c3e8 85bc
00000090: 530e 4f3d 738b 86bf 99a1 00be dbf1 b4be
000000a0: f0e2 86bd 657f 80bf 4a6d 7b3d 7591 82bf
000000b0: edba 5dc0 3f57 74bf 61cd da3d 3ae8 863e
000000c0: 05e3 6ebf bc24 243f 6076 7abe b448 75bf
000000d0: 58db 94be d819 83bf c16a 483e 1f5f 1bbf
000000e0: ac00 633e d809 e23f fcab 4e3f 6c64 42bf
000000f0: 8591 593f f9fd 32bf c7d2 15c0 5578 97bf
00000100: a02c b2bd b7ef 2cbf b066 9d3e b794 92bf
00000110: 4f03 e33e cee4 48bf 1a44 1ac0 c044 2cc0
00000120: 8cd5 dabe d2ae 73bf e73e 50bf 8407 243e
00000130: 1762 37bf 272d 7abf 84fa 4dbe 540d 33bf
00000140: 73a8 62bf d50c 6c3e 8245 d8be 6868 64bf
00000150: 5571 7d3f 092c 22bf 8eb7 433e 5774 fa3d
00000160: bfd7 63bf ed55 b2be 5bb9 a53f c739 193e
00000170: ddac a6bc 1062 4e3f 8078 14bf a4f3 8fbe
00000180: 7f9c 37be 42df 8cbf d6ec febd d0e9 9abd
00000190: a7ab 853f 3e13 0ebd 69ad a3bf b2ff 373f
000001a0: f7e0 0e3f 3b2a 73bf 5178 d5be cb3f 2ebd
000001b0: 0823 32be 4993 31c0 9cda 943e ac9c 3c3e
000001c0: bb39 2f3f 58d0 6d3e c745 17bf bbef 093f
000001d0: 9c74 d43e da12 e63e 7877 bfbe 1fdc 90bf
000001e0: 798a d23e 91ce 6dbf fd5a 22be d1c6 513e
000001f0: ab44 53bf 1701 d0bd 4878 dcbd 52a6 4f3e
00000200: ebba 97bf 96e8 883f a38f 733f effa 423e
00000210: 8b95 373f 94e8 3dbe 9656 d1be e668 2ebf
00000220: f304 29bd adec 97bf 7646 843e 870c efbe
00000230: 732c 883e 04d7 45bf 536b 83bf 2ed8 cd3d
00000240: 1038 3b3f f7d3 633e 7cba 71bd 754b 85bf
00000250: e71c f4be 2d69 42bd bddc c3be 5ebb 9d3d
00000260: 21bd c53e 9eb1 44bf 82a4 88bf 4d8b c9bf
00000270: 2668 fbbe 6dcf 07bf b5e8 13bf 67b5 90bf
00000280: d114 bfbf 0f9a c3bf d296 6ebe b95d 1a3f
00000290: 15e4 3dbe 0bd7 bd3f f0d8 98be 355a dfbf
000002a0: 2100 1fbf 28f8 84bf 89fa abbe a8b2 6abf
000002b0: f8aa 05bf b5b7 96be 61e8 42bd 35f8 333f
000002c0: 3077 e4bc 2fdb 9dbf 6eae 47bf 6e2d 343e
000002d0: be91 143f 1461 8d3f ef45 c93f bc79 973f
000002e0: db48 223f d0f1 9d3e 4f56 bcbe 5fde a2bf
000002f0: bc8b 0abe ef31 67bf 4516 9dbf e656 0dbf
00000300: 305f 9b3f 123f 0e3f 239e ad3e 3e18 ec3f
00000310: 4806 c93d 9be9 053f 529c 4b3f 99a6 8f3f
00000320: 13ef 9ebf c3cd 31c0 f949 6ac0 0f90 3ec0
00000330: caf5 2f3e d116 bb3c 5e42 01bf b293 9b3f
00000340: 21c5 5b3f 31b8 86bf 84a0 a3bf 4697 52bf
00000350: c509 4dbf 0aab 8d3f 59a6 543e 22e9 88be
00000360: af0e 4bbe bd6d aebd 5ecb 0abf 65e5 ccbf
00000370: 51ce 41bf a6b5 bebe b5e2 cd3d 2652 1c3d
00000380: 374c 3b3f 58bd a8bf a568 b3bf c8eb e6bf
00000390: 3140 8abe 6e92 923e 6ee0 293d 8571 e0be
000003a0: 5ba0 afbe 701e 5f3e 09c8 c33e d17b 3c3f
000003b0: abcc 2ebe 4176 f3bf e9a7 93bf 6039 a7bf
000003c0: 8445 e7bf 7f30 7cbf 5b33 82bf aae7 16c0
000003d0: 439a 7bbe da69 4c3f 9747 fdbe 96d5 013f
000003e0: a5ad ba3e b6e4 0e3f 78ad 03bf c2dd 3abf
000003f0: 267c be3f ab4f 3c3f c644 4bbe ebb7 d1bf

layer1.1.bn2.weight f4 [16]
1.0881009 0.7486273 0.50903255 1.5238501 1.3540709 0.21843745 1.3302529 0.79091966
1.1414142 2.1765842 0.44058725 1.4188507 0.5187725 1.3660952 2.859522 0.97229594
00000000: e446 8b3f 0aa6 3f3f f54f 023f 850d c33f
00000010: 3252 ad3f 11ae 5f3e ba45 aa3f b679 4a3f
00000020: dc19 923f 284d 0b40 a794 e13e e69c b53f
00000030: 46ce 043f 35dc ae3f 6902 3740 63e8 783f

layer1.1.bn2.bias f4 [16]
-1.1868958 -0.58139974 0.31198034 -2.6522813 -0.9620881 0.5113545 -1.0653892 -0.5845189
-0.07313633 0.15269707 -0.014951832 0.019462325 0.30489594 0.20303948 -2.1177988 -0.24827844
00000000: 34ec 97bf 9dd6 14bf e3bb 9f3e fabe 29c0
00000010: 684b 76bf 21e8 023f ac5e 88bf 08a3 15bf
00000020: 80c8 95bd 9f5c 1c3e 87f8 74bc 746f 9f3c
00000030: 521b 9c3e 95e9 4f3e 048a 07c0 b43c 7ebe

layer1.1.bn2.running_mean f4 [16]
5.0928097 -15.62219 1.5877694 0.06439756 1.3425552 10.802901 -8.716597 -12.443747
-10.947232 -18.681808 -5.0227475 -2.5621717 -11.578304 -11.362958 -6.337466 -2.078471
00000000: 4cf8 a240 7ef4 79c1 073c cb3f dee2 833d
00000010: d9d8 ab3f afd8 2c41 2e77 0bc1 9619 47c1
00000020: dd27 2fc1 5874 95c1 59ba a0c0 9ffa 23c0
00000030: bc40 39c1 adce 35c1 85cc cac0 ab05 05c0

layer1.1.bn2.running_var f4 [16]
206.97037 200.25398 382.43707 173.88708 242.08952 218.64163 150.2095 266.85406
179.72662 346.66992 181.43446 217.52414 178.51578 235.10133 293.00717 148.09903
00000000: 6af8 4e43 0541 4843 f237 bf43 18e3 2d43
00000010: eb16 7243 42a4 5a43 a235 1643 526d 8543
00000020: 04ba 3343 c055 ad43 396f 3543 2e86 5943
00000030: 0a84 3243 f119 6b43 eb80 9243 5a19 1443

layer2.0.conv1.weight f4 [32, 16, 3, 3]
-2.6137667 0.6945774 0.88332057 0.19759776 2.7983255 0.64273226 1.5710231 0.74653673
-1.923654 -1.370843 -1.4622842 1.0365087 -2.1119838 -0.7116495 0.60723335 -0.3143967
0.109159574 -0.07818437 -1.8969404 -2.5580196 -1.0621707 -1.8785374 -0.9409438 0.78124565
-0.69192636 0.41815984 1.0402148 1.149533 0.9423401 -0.5956358 0.59032965 -1.4245633
-0.13065605 0.83983076 -1.5632867 0.13280085 0.49306545 0.33003297 1.3332968 0.7210233
-0.1267692 0.256926 0.17446649 -1.1093059 0.13374236 0.6549869 -1.0789651 -2.1711628
-0.26224405 -1.299195 -0.82126355 -0.7506704 -0.58227354 -0.011675231 0.14915617 0.81180984
0.971903 0.3968159 0.8094368 0.4511027 0.71110165 -0.20708644 0.25757357 -0.39024436
0.22257514 -0.13320756 0.6144368 0.7282257 -0.30351672 1.0883006 0.09322392 -0.25665635
2.11869 0.36445117 -0.0070145978 0.32510605 -0.8360247 0.47760996 -0.8820003 -0.0053780805
1.1557332 0.35494325 0.22269095 -0.31011182 -0.21806109 -1.2960387 0.9202208 0.21423179
0.24826403 1.5186337 -0.008225544 -0.3513116 -0.65840524 -0.44150588 -0.57668597 0.42217806
-0.041101944 0.18782517 0.51204914 -0.7448631 -0.86696315 0.09361394 0.16050737 0.11242701
0.15702999 -0.23011027 0.15297921 -0.94359785 1.6193413 1.4001219 -0.6587869 0.8445741
-0.9078848 -1.0437863 -0.4722331 -1.0420135 0.1792629 0.31468734 -1.6880147 -1.1026816
-0.46716377 -1.9549865 -1.0839751 0.5091124 -1.0241975 0.46914035 0.53032005 1.1384853
-1.2841542 1.0737411 -0.116467856 -0.008997721 -0.38197613 0.38044503 -0.23480467 1.1342789
-0.17614506 0.6028771 0.24680495 -1.1081294 0.4525736 -0.8788048 -0.48836136 0.449741
-0.6928698 0.8132088 -1.4082352 -1.1979382 0.9616017 -1.3130796 -0.6190194 0.84910935
-1.0251799 0.28373942 0.43019986 0.21564747 -0.09611072 0.3064862 0.6159015 0.42015213
-0.055414367 -0.4307907 0.26313618 0.2671234 0.59061575 0.23416078 0.24863936 0.7303996
0.4557745 0.27778992 0.38895357 -1.1557695 -0.54895276 -0.5565667 -0.20395286 -0.9584856
0.113733105 -0.003093889 0.2722202 -0.18150462 -0.019542117 -0.7062878 -0.4644609 0.24985075
-0.41959032 0.45520893 -0.23765703 -0.50165695 -0.006405764 -0.27393425 -0.36536044 0.38305995
-0.10366517 -0.2855123 0.07239449 0.41278955 0.3283148 0.51627535 0.24562804 -0.18634054
-0.51222575 0.8845474 1.1153247 0.051766116 0.45668712 0.47923532 -0.34214163 0.64962584
-0.41964114 0.0016633577 -0.042021807 -0.97505915 0.8865378 -0.7788975 -1.3619587 0.76390374
0.050665546 -0.12157144 -0.04347297 0.19657964 0.13976927 -0.39704946 0.39312145 0.42064294
-0.5440518 1.5418171 -1.7474598 0.8533614 0.9994673 -2.0730073 0.77908427 0.28520238
-2.068998 0.48621607 -0.33135343 -0.05189722 -0.5656027 -0.14376172 0.13004483 -0.6587799
-0.29925594 -0.07554417 -0.40319043 -0.16312352 0.08456321 -0.4021557 -0.18275225 0.6510887
-0.17765296 -0.04612659 -0.54884195 0.089233756 1.0746943 -1.7195275 1.1616149 1.595144
00000000: f447 27c0 d3cf 313f 4c21 623f 1157 4a3e
00000010: c417 3340 1a8a 243f 4917 c93f 081d 3f3f
00000020: 4b3a f6bf c977 afbf 212c bbbf 51ac 843f
00000030: be2a 07c0 a92e 36bf a573 1b3f 9bf8 a0be
00000040: 0e8f df3d 211f a0bd f1ce f2bf 98b6 23c0
00000050: 36f5 87bf ea73 f0bf b1e1 70bf b7ff 473f
00000060: 1622 31bf 0c19 d63e c225 853f e623 933f
00000070: 333d 713f 967b 18bf d81f 173f 1758 b6bf
00000080: b3ca 05be 26ff 563f c719 c8bf f2fc 073e
00000090: 1373 fc3e 15fa a83e 78a9 aa3f fc94 383f
000000a0: c9cf 01be ce8b 833e 58a7 323e bcfd 8dbf
000000b0: c2f3 083e 39ad 273f 871b 8abf 55f4 0ac0
000000c0: da44 86be 064c a6bf 543e 52bf ef2b 40bf
000000d0: e10f 15bf 7849 3fbc 65bc 183e c5d2 4f3f
000000e0: a3ce 783f 742b cb3e 4037 4f3f eff6 e63e
000000f0: c20a 363f 780e 54be afe0 833e 1cce c7be
00000100: bdea 633e 9067 08be bb4b 1d3f 006d 3a3f
00000110: 8b66 9bbe 6f4d 8b3f 2fec be3d 7668 83be
00000120: 9e98 0740 5899 ba3e b6da e5bb 4d74 a63e
00000130: b705 56bf 4b89 f43e c6ca 61bf 9c3a b0bb
00000140: 11ef 933f 1fbb b53e 1909 643e fac6 9ebe
00000150: 684b 5fbe 99e4 a5bf 9793 6b3f 945f 5b3e
00000160: ed38 7e3e 9762 c23f 6fc4 06bc 1ddf b3be
00000170: 3f8d 28bf 0f0d e2be b1a1 13bf b927 d83e
00000180: 835a 28bd 3e55 403e a715 033f 59af 3ebf
00000190: 4cf1 5dbf aab8 bf3d 0b5c 243e 2240 e63d
000001a0: 78cc 203e 07a2 6bbe 95a6 1c3e a18f 71bf
000001b0: 9346 cf3f 3237 b33f 42a6 28bf 0236 583f
000001c0: 236b 68bf ca9a 85bf 89c8 f1be b360 85bf
000001d0: b290 373e b31e a13e de10 d8bf ac24 8dbf
000001e0: 1730 efbe ff3c fabf b2bf 8abf 3155 023f
000001f0: e718 83bf 2a33 f03e 0ec3 073f e3b9 913f
00000200: 2a5f a4bf 5970 893f b386 eebd 2d6b 13bc
00000210: 6092 c3be b1c9 c23e a370 70be 0d30 913f
00000220: 5f5f 34be 2756 1a3f 70ba 7c3e 2fd7 8dbf
00000230: bab7 e73e 5af9 60bf 800a fabe 7444 e63e
00000240: ea5f 31bf 742e 503f 0d41 b4bf 0a56 99bf
00000250: 872b 763f fe12 a8bf 0e78 1ebf 3b5f 593f
00000260: 1839 83bf 4b46 913e 2843 dc3e b1d2 5c3e
00000270: b2d5 c4bd c2eb 9c3e b9ab 1d3f 2e1e d73e
00000280: 2dfa 62bd 9990 dcbe c9b9 863e 66c4 883e
00000290: 9832 173f d8c7 6f3e 519b 7e3e 78fb 3a3f
000002a0: 465b e93e 7b3a 8e3e ec24 c73e 41f0 93bf
000002b0: 2b88 0cbf 287b 0ebf 05d9 50be 505f 75bf
000002c0: e7ec e83d d8c2 4abb 7260 8b3e 59dc 39be
000002d0: ca16 a0bc 47cf 34bf d2cd edbe e0d8 7f3e
000002e0: 8bd4 d6be 2511 e93e 5d5c 73be 976c 00bf
000002f0: 71e7 d1bb 1c41 8cbe 8610 bbbe 6f20 c43e
00000300: 684e d4bd ab2e 92be 9043 943d 2759 d33e
00000310: e118 a83e 9f2a 043f eb85 7b3e 0ed0 3ebe
00000320: 3a21 03bf b371 623f f6c2 8e3f b508 543d
00000330: e5d2 e93e 555e f53e 302d afbe e14d 263f
00000340: 34db d6be 0605 da3a 0f1f 2cbd 7a9d 79bf
00000350: 24f4 623f d465 47bf aa54 aebf 328f 433f
00000360: ad86 4f3d 72fa f8bd b710 32bd 2c4c 493e
00000370: ad1f 0f3e 114a cbbe 3747 c93e 835e d73e
00000380: fb46 0bbf 435a c53f c3ac dfbf e575 5a3f
00000390: 17dd 7f3f 27ac 04c0 1172 473f 0c06 923e
000003a0: 776a 04c0 50f1 f83e 28a7 a9be 2e92 54bd
000003b0: 57cb 10bf 4636 13be 792a 053e cda5 28bf
000003c0: 1338 99be e7b6 9abd fa6e cebe da09 27be
000003d0: 7a2f ad3d 5ae7 cdbe 6823 3bbe c0ad 263f
000003e0: a8ea 35be 3cef 3cbd e880 0cbf 30c0 b63d
000003f0: 958f 893f 7a19 dcbf ccaf 943f ae2d cc3f

layer2.0.bn1.weight f4 [32]
1.6295019 1.9899304 0.9746699 1.7721386 1.8304454 0.97654736 1.777581 1.0593017
1.3398741 1.3263804 1.5112158 1.3651283 0.82253534 1.007557 1.5012951 1.6491413
1.712891 1.1770781 2.0475016 2.351049 1.3658594 1.6966339 1.4508903 0.9081184
1.5959284 2.4141586 2.0982542 1.5131004 1.4758079 1.9032245 0.9039604 1.3839371
00000000: 8593 d03f 0ab6 fe3f f783 793f 70d5 e23f
00000010: 094c ea3f 02ff 793f c687 e33f 3397 873f
00000020: ff80 ab3f d5c6 a93f 856f c13f 86bc ae3f
00000030: ad91 523f a1f7 803f 702a c03f 1017 d33f
00000040: 0340 db3f 7faa 963f 440a 0340 9677 1640
00000050: 7bd4 ae3f 4d2b d93f c6b6 b93f 737a 683f
00000060: 6247 cc3f 9381 1a40 cc49 0640 46ad c13f
00000070: 46e7 bc3f dc9c f33f f369 673f da24 b13f

layer2.0.bn1.bias f4 [32]
-1.0274628 -0.5653645 -0.33930096 -0.6492967 -0.40449196 -0.23742393 -0.22779644 -0.10585297
-0.49000427 -0.74309504 -0.22674304 -1.0352654 -1.1698984 0.10586221 -0.72055167 -0.92931914
0.007637594 -0.4768916 -0.621462 0.30323645 -0.908879 -0.014866222 -0.23231596 0.004013958
-0.5030002 -0.5061325 -0.35390222 -0.81050617 0.12459358 -0.1381721 -0.40194708 -1.1524826
00000000: e783 83bf babb 10bf dbb8 adbe 4f38 26bf
00000010: 9219 cfbe 421f 73be 7843 69be 71c9 d8bd
00000020: d7e1 fabe 7a3b 3ebf 542f 68be 9483 84bf
00000030: 3bbf 95bf 49ce d83d 1376 38bf dce7 6dbf
00000040: c844 fa3b 232b f4be 2218 1fbf cf41 9b3e
00000050: 4bac 68bf 7491 73bc 3ce4 6dbe 8587 833b
00000060: 9fc4 00bf e691 01bf ac32 b5be 557d 4fbf
00000070: eb2a ff3d fd7c 0dbe 02cc cdbe 8d84 93bf

layer2.0.bn1.running_mean f4 [32]
-13.396021 -5.88833 -20.740442 -20.117098 -39.699554 21.29428 6.130768 -23.269676
-30.210726 -14.904692 15.4121475 12.211156 27.363358 -13.25561 -4.554392 -25.056438
-57.8776 -59.471703 16.381136 -30.1497 41.871845 9.191415 -36.549572 -17.122356
14.947525 -8.847902 -17.962807 6.544436 -1.957265 -26.53678 4.224816 -34.30895
00000000: 1a56 56c1 336d bcc0 6dec a5c1 d1ef a0c1
00000010: 58cc 1ec2 af5a aa41 402f c440 4c28 bac1
00000020: 91af f1c1 9e79 6ec1 2898 7641 e560 4341
00000030: 28e8 da41 fb16 54c1 94bd 91c0 9673 c8c1
00000040: aa82 67c2 06e3 6dc2 910c 8341 9632 f1c1
00000050: c57c 2742 0910 1341 c332 12c2 96fa 88c1
00000060: 1029 6f41 0291 0dc1 d4b3 8fc1 056c d140
00000070: a987 fabf 534b d4c1 b131 8740 5d3c 09c2

layer2.0.bn1.running_var f4 [32]
839.88715 1778.2578 936.37024 1150.3705 1017.6565 910.9294 1059.494 1153.8478
1212.4681 722.1803 939.8959 532.1153 1031.4854 1530.1914 870.1665 1388.0242
829.8503 1114.234 874.4487 1394.783 732.01544 880.1384 879.19806 1670.555
957.40564 1863.7336 862.1343 829.3207 1366.2059 1031.9777 978.5831 559.8456
00000000: c7f8 5144 4048 de44 b217 6a44 dbcb 8f44
00000010: 046a 7e44 7bbb 6344 cf6f 8444 213b 9044
00000020: fb8e 9744 8a8b 3444 56f9 6a44 6107 0544
00000030: 88ef 8044 2046 bf44 a88a 5944 c680 ad44
00000040: 6b76 4f44 7d47 8b44 b89c 5a44 0e59 ae44
00000050: fd00 3744 dc08 5c44 adcc 5b44 c3d1 d044
00000060: f659 6f44 7af7 e844 9888 5744 8654 4f44
00000070: 97c6 aa44 49ff 8044 52a5 7444 1ef6 0b44
