resnet/resnet.ckpt (torch, 815633 bytes, 77 tensors)

conv.weight f4 [16, 3, 3, 3]
0	0x3dd7bb02	0.10533716
1	0x3dedab03	0.116048835
2	0xbe1ad609	-0.1512071
3	0xbe097cea	-0.13426557
4	0xbc83671e	-0.016040381
5	0x3d010f23	0.031508576
6	0xbd3eb628	-0.046560436
7	0xbe1f14fb	-0.15535347
8	0x3e62e82a	0.22158876
9	0x3e1aaa27	0.1510397
10	0x3d93a67d	0.072094895
11	0xbe4a1cff	-0.19737624
12	0x3e241584	0.16023833
13	0x3cdd6b69	0.027028756
14	0xbe01db15	-0.1268123
15	0x3c8c73d2	0.017145071
16	0x3d2f0256	0.042726837
17	0xbe06a2f5	-0.131481
18	0x3de1b517	0.11020868
19	0x3d1b3a1d	0.037897218
20	0xbe38bf16	-0.18041644
21	0xbdc7e885	-0.097611465
22	0x3d692fa5	0.056930203
23	0x3d1d858c	0.03845744
24	0x3dd1b1d6	0.10238998
25	0xbd492c54	-0.04911454
26	0xbd739543	-0.05946852
27	0x3d049321	0.032366876
28	0x3e681f66	0.22668228
29	0x3e0433fd	0.12910457
30	0xbe1e6cc5	-0.1547118
31	0x3e6a666f	0.22890638
32	0xbdd72c41	-0.10506488
33	0xbe7d46f4	-0.24734098
34	0xbcf1db2a	-0.02952345
35	0x3dade537	0.08490985
36	0xbd3a709f	-0.04551756
37	0x3e29bd67	0.16576158
38	0xbe00eb36	-0.12589726
39	0xbc942bd6	-0.018087309
40	0x3dd37f28	0.103269875
41	0xbdcd7456	-0.10031955
42	0xbe0e0676	-0.13869652
43	0xbe23d63d	-0.15999694
44	0xbd00b408	-0.03142169
45	0xbd12c3d3	-0.035831284
46	0x3e21c724	0.15798622
47	0xbe07504d	-0.13214226
48	0xbd3071be	-0.043077223
49	0xbdadd79a	-0.08488388
50	0xbd368ca5	-0.044567723
51	0xbd0d1230	-0.034441173
52	0x3d599cdb	0.053128105
53	0x3d78842f	0.060672935
54	0xbd1a0cbc	-0.0376098
55	0xbd83d94f	-0.06437933
56	0x3e7fd721	0.24984409
57	0x3dba4d89	0.0909682
58	0xbe28c083	-0.16479687
59	0x3d425608	0.047445327
60	0xbe310829	-0.17288269
61	0xbc892b90	-0.016744405
62	0xbdf001cf	-0.11719095
63	0xbde42db8	-0.11141533
64	0x3b3b53a6	0.0028583794
65	0xbd07e38d	-0.033175994
66	0x3e2af02d	0.16693182
67	0xbc7de9d5	-0.015497644
68	0xbdc42026	-0.09576444
69	0x3dbfe741	0.0937028
70	0x3dcba3cf	0.099433534
71	0x3d39a458	0.045322746
72	0xbca5c635	-0.020236114
73	0xbdcbf46c	-0.09958729
74	0xbe44c704	-0.19216543
75	0x3d7e6a8a	0.062113322
76	0x3da3e383	0.08002379
77	0xbe1cb4b2	-0.15303305
78	0x3d2b0562	0.04175318
79	0x3e0ea731	0.13930966
80	0x3de2038a	0.11035831
81	0x3d9fde6f	0.07806098
82	0x3da75fec	0.081725925
83	0x3e0dc9ae	0.13846466
84	0x3e647b28	0.22312605
85	0x3d77a704	0.060462013
86	0x3d95523b	0.07291075
87	0xbccff0b5	-0.025383333
88	0xbdfeb5b0	-0.12436998
89	0xbdd442c7	-0.10364299
90	0xbdbe5a38	-0.092945516
91	0xbe4fa544	-0.20277888
92	0xbe78869f	-0.24270104
93	0xbdc54b4d	-0.09633503
94	0x3d37d46c	0.044880316
95	0x3d3d42dc	0.04620634
96	0x3e1ed36b	0.15510337
97	0xbdc2c81f	-0.09510826
98	0xbdc6abbe	-0.09700726
99	0xbcbb0713	-0.022830522
100	0xbded5463	-0.11588361
101	0xbe20cffe	-0.15704343
102	0x3e00f877	0.12594782
103	0xbd9c08d8	-0.07618874
104	0x3e4629f6	0.19351944
105	0x3baebccf	0.0053325663
106	0x3e04dcb5	0.12974818
107	0xbd901e12	-0.070369855
108	0xbd99985c	-0.07499763
109	0x3e3ba2a1	0.18323757
110	0xbb5a392b	-0.0033298235
111	0xbe02f41d	-0.12788434
112	0x3e3c9f1b	0.18420069
113	0xbe4634c4	-0.19356066
114	0xbd8caa59	-0.06868429
115	0xbc9a6a0e	-0.018849399
116	0xbe3846ef	-0.17995809
117	0xbd836fef	-0.06417834
118	0x3dc8390c	0.09776506
119	0xbdbd8a56	-0.09254901
120	0xbe08ce0c	-0.1335985
121	0x3e02be5b	0.12767927
122	0xbd094371	-0.033511583
123	0x3dc3a75e	0.09553407
124	0xbcd60b46	-0.026128422
125	0xbe13b3e0	-0.14424086
126	0xbdee3909	-0.11631972
127	0x3e668ce6	0.22514686
128	0x3d4d4b1e	0.050120465
129	0x3e337027	0.17523251
130	0x3e83f6cf	0.25774238
131	0xbe0642fe	-0.13111493
132	0xbe011bca	-0.12608257
133	0x3c655378	0.013996951
134	0x3e0dff81	0.13866998
135	0x3d81d739	0.063398786
136	0x3c0ce88c	0.008600365
137	0xbd8a549d	-0.0675442
138	0x3e3ae262	0.1825042
139	0xbd58a533	-0.05289192
140	0x3d7603e8	0.06006232
141	0x3c9632f2	0.01833484
142	0xbe1d68d5	-0.15372021
143	0x3dbfb21a	0.09360142
144	0xbcc49185	-0.02399517
145	0xbe509a19	-0.20371284
146	0xbe618950	-0.22025037
147	0x3e5cdf38	0.21569526
148	0xbcd17dc1	-0.02557266
149	0xbe8549d2	-0.26032883
150	0x3e23176e	0.15926906
151	0xbdba84d4	-0.09107366
152	0xbd40ec98	-0.047100633
153	0x3e0b4816	0.13601717
154	0xbdc6d94b	-0.09709414
155	0xbdca7635	-0.098858275
156	0x3d8cb90d	0.06871233
157	0xbdd00bc4	-0.10158494
158	0xbd8d64b9	-0.06903977
159	0xbe15eb7f	-0.14640616
160	0xbd9f9a6b	-0.07793125
161	0x3e12c105	0.14331444
162	0x3e36e352	0.17860153
163	0xbe4d48fa	-0.2004737
164	0xbd2b199f	-0.04177248
165	0x3e18e927	0.1493269
166	0x3d5777f1	0.05260462
167	0xbe3e1dff	-0.1856613
168	0x3e27b91f	0.16379212
169	0xbe2da4af	-0.16957353
170	0xbe308996	-0.17239985
171	0xbd8ffed1	-0.07031024
172	0x3d2d86a5	0.042364735
173	0xbe0adbf4	-0.13560468
174	0x3d7fa9e0	0.062417865
175	0x3da19494	0.07889667
176	0x3d95436d	0.07288251
177	0x3dfdce33	0.12392845
178	0x3d46fb4f	0.04857951
179	0x3e1bcd5d	0.15215059
180	0xbdaee246	-0.08539252
181	0x3d8e2065	0.069397725
182	0xbdf1f00c	-0.118133634
183	0x3e55ab2a	0.20866075
184	0x3ce118bf	0.02747762
185	0x3ca680c7	0.020325078
186	0xbe12fbba	-0.14353839
187	0xbe44dadf	-0.19224118
188	0x3e28d2d4	0.16486675
189	0xbc5e7efd	-0.013580081
190	0xbdc2415f	-0.09485125
191	0xbe278765	-0.16360243
192	0x3d995f69	0.07488901
193	0x3d048c69	0.032360468
194	0x3de9ff6e	0.114256725
195	0xbe0df747	-0.1386386
196	0xbe0a6e71	-0.13518693
197	0xbdc47be5	-0.095939435
198	0xbdacac95	-0.08431355
199	0x3e86fd15	0.2636496
200	0xbc0814e2	-0.00830576
201	0x3e2f7375	0.17133887
202	0x3e44743f	0.1918497
203	0xbb2f930d	-0.002679053
204	0x3dd581dc	0.10425159
205	0x3d96baa4	0.073598176
206	0x3e00276c	0.12515038
207	0xbe3b310e	-0.18280432
208	0xbd074fc8	-0.03303507
209	0x3dcf3c00	0.10118866
210	0xbe19a515	-0.1500438
211	0xbcbd6201	-0.023118021
212	0xbe135188	-0.1438657
213	0x3d0c645b	0.034275394
214	0xbe3e83c2	-0.18604949
215	0x3de66126	0.11248998
216	0x3d03a8cf	0.03214341
217	0x3e2449fb	0.16043846
218	0x3da53620	0.08066964
219	0x3e78b4ed	0.24287768
220	0x3e68336d	0.22675867
221	0x3e2de65a	0.16982403
222	0x3e3b3737	0.18282782
223	0x3e158f25	0.14605387
224	0xbd3db861	-0.046318416
225	0xbe204b68	-0.15653765
226	0x3e03e1c7	0.12879096
227	0xbe15f591	-0.14644457
228	0x3e09ff6b	0.1347634
229	0xbd0359c5	-0.032068033
230	0xbd8bfcf4	-0.06835356
231	0x3dc3e6fd	0.09565542
232	0xbe3070b3	-0.17230491
233	0xbd54d1f6	-0.051958047
234	0xbe1b8df5	-0.15190871
235	0xbcdea59c	-0.027178578
236	0xbd1dc532	-0.03851814
237	0x3dde3407	0.10849767
238	0x3c8b8286	0.017030012
239	0xbc3f1204	-0.01166201
240	0x3dcc68d8	0.09980935
241	0xbda4c806	-0.08045964
242	0xbe22222d	-0.1583335
243	0x3d342db9	0.043988917
244	0x3d4e70e1	0.05040062
245	0x3e47b2a4	0.1950174
246	0xbe3de0d1	-0.18542792
247	0x3dd77adf	0.10521483
248	0x3c2b6309	0.010460624
249	0xbe3eb5b5	-0.18624003
250	0xbc8b69b8	-0.017018184
251	0x3d5ffdeb	0.054685514
252	0xbe264f6d	-0.16241236
253	0x3dc14c72	0.09438409
254	0x3db5d5ec	0.08878693
255	0xbe4c30e0	-0.1994052

bn.weight f4 [16]
0	0x3f73043f	0.94928354
1	0x3f61832e	0.8809079
2	0x3f7f97b3	0.9984085
3	0x3f6aeb40	0.91765213
4	0x3f827c63	1.019421
5	0x3f6c6fa1	0.9235783
6	0x3f71e315	0.94487125
7	0x3f7698e6	0.96327055
8	0x3f667ea1	0.9003697
9	0x3f834265	1.0254637
10	0x3f619e17	0.8813185
11	0x3f7267b1	0.9468947
12	0x3f725a5d	0.94669133
13	0x3f917dd6	1.1366527
14	0x3f84def2	1.0380538
15	0x3f539a81	0.8265763

bn.bias f4 [16]
0	0x3d617ae0	0.055048823
1	0xbe111b07	-0.14170466
2	0x3e089219	0.13336982
3	0xbd84642d	-0.064644195
4	0x3e9e5c66	0.3092987
5	0xbdb587dd	-0.088638045
6	0x3e3fa107	0.18713771
7	0x3d073751	0.03301174
8	0xbdb4c7ff	-0.08827209
9	0x3db5a3ab	0.08869108
10	0xbd3b5577	-0.045735803
11	0x3d5c4c01	0.05378342
12	0x3db1e7cb	0.08686789
13	0x3f2a0f45	0.6642955
14	0x3e84c412	0.2593084
15	0xbd23c638	-0.039983958

bn.running_mean f4 [16]
0	0xbcbd261c	-0.023089461
1	0xbdf1cbc8	-0.11806446
2	0xbcfaaa5c	-0.030598812
3	0xbd5d3e6e	-0.054014616
4	0xbbfb532c	-0.007669827
5	0xbe6211e2	-0.22077134
6	0x3c82e491	0.01597813
7	0xbbe6e938	-0.007046845
8	0x3e9ba64f	0.3040032
9	0x3d2921dd	0.04129206
10	0xbeee2472	-0.4651218
11	0x3cc065a9	0.023485975
12	0x3d931198	0.0718109
13	0x3c89be48	0.016814366
14	0x3bbae898	0.005703997
15	0x3bf6d57c	0.0075327735

bn.running_var f4 [16]
0	0x3c171b63	0.009222838
1	0x3ca492d2	0.02008954
2	0x3ba5b1b2	0.0050565833
3	0x3c30673f	0.010766803
4	0x3c80f5d9	0.01574223
5	0x3d1ca3ea	0.038242258
6	0x3c39e215	0.011345406
7	0x3b8fd616	0.0043895347
8	0x3d549df5	0.051908452
9	0x3ce1caf6	0.0275626
10	0x3dbee723	0.093214296
11	0x3cadf95b	0.021237066
12	0x3d2ebdd6	0.04266151
13	0x3b508c28	0.003182182
14	0x3ba353cf	0.004984356
15	0x3be2be9b	0.0069196946

layer1.0.conv1.weight f4 [16, 16, 3, 3]
0	0xbdf65c17	-0.120292835
1	0xbd4e3f83	-0.05035354
2	0xbe3bfcea	-0.18358198
3	0x3db516fa	0.08842273
4	0xbd505864	-0.050865546
5	0xbdc1f1ae	-0.09469925
6	0x3e076a39	0.13224114
7	0xbe5e508b	-0.21710412
8	0x3c031ec0	0.008002937
9	0xbd8a8936	-0.06764452
10	0x3d97003e	0.07373093
11	0x3d59d072	0.053177305
12	0x3da66ddf	0.08126425
13	0x3d539872	0.051659055
14	0x3c7451c5	0.0149120735
15	0xbd206869	-0.039162073
16	0x3d1c4c2b	0.038158577
17	0xbccf0eb6	-0.02527557
18	0xbd627382	-0.055285938
19	0x3d591347	0.0529969
20	0x3d7f9a0b	0.062402766
21	0xbd4eb015	-0.050460894
22	0xbe0a42ee	-0.13502094
23	0xbd8f40a4	-0.06994751
24	0x3d9de0ce	0.07708894
25	0x3c3b1479	0.011418455
26	0xbd8507f5	-0.06495658
27	0x3e215ebb	0.15758793
28	0xbcf2e7ba	-0.029651511
29	0xbdbbd171	-0.09170807
30	0xbc632d4c	-0.01386578
31	0x3c526f39	0.0128439
32	0x3b271ad0	0.002549816
33	0x3e0b3b5a	0.1359686
34	0xbd982886	-0.07429604
35	0xbe06aee9	-0.1315266
36	0xbd244878	-0.040108174
37	0x3d929d52	0.07158913
38	0xbd62cdff	-0.055372234
39	0x3cd580f2	0.026062462
40	0xbd8287e4	-0.06373575
41	0x3d8db617	0.069194965
42	0xbd49855a	-0.04919944
43	0x3cad6338	0.021165475
44	0x3ddd8a3c	0.10817382
45	0xbc8d22ce	-0.01722851
46	0x3df42d53	0.119227074
47	0xbdacaac4	-0.084310085
48	0x3dddb495	0.10825459
49	0x3cfc17f8	0.030773148
50	0xbe4c162e	-0.19930336
51	0x3d10c72d	0.0353462
52	0xbd5426f2	-0.051794954
53	0xbe49e1ab	-0.19714992
54	0xbbb49cbb	-0.005511848
55	0x3dd37201	0.10324479
56	0x3da6643b	0.08124586
57	0x3d62ecc9	0.055401597
58	0xbc503068	-0.012706853
59	0x3d3e20fa	0.046418168
60	0x3dd8553f	0.105631344
61	0x3c5ceb36	0.013483813
62	0x3d8e2cb9	0.06942124
63	0xbd9c6d68	-0.07638055
64	0xbcb54fc9	-0.022132771
65	0xbdd58802	-0.10426332
66	0x3d0c26bc	0.034216627
67	0xbdc3d75f	-0.09562563
68	0xbd6e2268	-0.05813828
69	0x3c24e87b	0.010065193
70	0x3cd97b86	0.026548158
71	0x3d750a9d	0.059824575
72	0x3d418033	0.0472414
73	0x3cead4ea	0.028665978
74	0x3d1ea667	0.038732912
75	0xbd4c7341	-0.049914602
76	0xbdec7a8f	-0.11546814
77	0x3ca280f2	0.019836877
78	0x3d90046b	0.07032093
79	0xbd55c825	-0.052192826
80	0x3d1aee0c	0.037824675
81	0x3c898aa8	0.01678975
82	0xbc0196f7	-0.007909528
83	0x3d04b329	0.032397423
84	0x3d97ea37	0.0741772
85	0x3d7a1ac0	0.061060667
86	0x3d036de8	0.032087237
87	0xbd956491	-0.07294572
88	0x3b9042ec	0.004402509
89	0xbdd54ca7	-0.10415011
90	0x3c0366a5	0.008020078
91	0x3da89f5d	0.08233521
92	0xbd95e1e8	-0.07318479
93	0xbcef6c34	-0.0292264
94	0x3cdd50be	0.02701604
95	0x3db058f0	0.086107135
96	0x3da75957	0.08171337
97	0x3db06778	0.08613485
98	0xbd987ad1	-0.074453
99	0x3d48cc58	0.049023002
100	0xbce28f60	-0.027656257
101	0xbce95130	-0.028481096
102	0x3da19fa6	0.07891779
103	0xbddac70c	-0.106824964
104	0xbd4de9c1	-0.050271753
105	0xbdeee3ca	-0.11664541
106	0x3d4c38ed	0.049858976
107	0x3d0460a0	0.03231871
108	0xbc30bee2	-0.0107876975
109	0xbd36560a	-0.044515647
110	0xbdb55ed0	-0.08855975
111	0x3c0736a8	0.008252777
112	0xbce9157b	-0.028452625
113	0x3d1e3611	0.03862578
114	0xbdc6507f	-0.09683322
115	0xbd39b91d	-0.045342553
116	0x3d03feaa	0.03222529
117	0xbe054d57	-0.13017784
118	0x3d86300d	0.06552134
119	0xbdd37c96	-0.10326497
120	0x3dd0517c	0.10171792
121	0xbe10c6e9	-0.14138378
122	0xbebe42bf	-0.37160298
123	0xbd7ee4c0	-0.06222987
124	0xbd1fbdc3	-0.03899933
125	0xbb788143	-0.0037918843
126	0x3e1f53a3	0.15559249
127	0x3d7dd30e	0.061968856
128	0xbe152670	-0.14565444
129	0x3d9765b1	0.07392443
130	0x3d38a1e4	0.045076266
131	0x3d5140a7	0.051087048
132	0x3dfeb342	0.124365345
133	0x3d4ba194	0.04971464
134	0xbdf0759c	-0.11741182
135	0xbcc6d657	-0.024272127
136	0x3c055dd9	0.008140051
137	0xbda0bbef	-0.078483455
138	0xbcd7a33a	-0.02632295
139	0x3d419b81	0.04726744
140	0xbad81be6	-0.0016487807
141	0xbcac2528	-0.021013811
142	0x3d863336	0.065527365
143	0xbcc723bc	-0.024309032
144	0x3e05b6fa	0.13058081
145	0x3c9ff019	0.019523667
146	0x3e1b6471	0.15175034
147	0x3e54f73a	0.20797434
148	0x3c954094	0.01821927
149	0xbcf65231	-0.030068489
150	0x3d445206	0.047929786
151	0xbd3fed2f	-0.046857055
152	0x3d9ff282	0.078099266
153	0xbe01bd07	-0.12669764
154	0xbe6e9959	-0.23300685
155	0xbd94f079	-0.07272429
156	0xbde6e1d7	-0.11273544
157	0xbdd8614f	-0.10565435
158	0xbcc17d5f	-0.023619352
159	0xbd3e023f	-0.04638886
160	0xbdb7f038	-0.08981365
161	0xbdf1eae7	-0.11812382
162	0x3d0bd3f9	0.0341377
163	0x3d2fd5e3	0.042928588
164	0xbb06400c	-0.0020484952
165	0xbe177967	-0.14792405
166	0xbbd38fb3	-0.0064563393
167	0x3c6aa33b	0.014321144
168	0xbd405e96	-0.046965204
169	0xbd927424	-0.07151058
170	0xbdd86ca0	-0.105675936
171	0xbd9e26a7	-0.07722216
172	0xbde4b9cd	-0.11168251
173	0xbd6c6300	-0.0577116
174	0xbd8a022d	-0.06738696
175	0xbd912ee6	-0.07089023
176	0x3bacc8c5	0.005272957
177	0x3dad057e	0.08448313
178	0x3d7207ac	0.059089348
179	0x3e440b55	0.19144948
180	0xbd84362e	-0.064556465
181	0xbcc815b9	-0.02442442
182	0xbd54a771	-0.051917497
183	0xbdedd8b3	-0.11613598
184	0xbd963895	-0.07335011
185	0xbd38a571	-0.045079652
186	0xbdf8d173	-0.12149324
187	0x3bdcfd2a	0.0067440467
188	0xbcc64038	-0.024200544
189	0xbe13a0ed	-0.14416857
190	0xbd1a3a38	-0.037653178
191	0xbe3727ae	-0.1788623
192	0x3d7aaa7d	0.061197747
193	0xbc0c3ddd	-0.008559671
194	0x3d863bd3	0.06554379
195	0x3d57a2b8	0.052645415
196	0x3d96aa93	0.07356753
197	0x3d7da899	0.061928365
198	0x3dc122e3	0.09430482
199	0x3dbe0751	0.09278739
200	0xbd97098e	-0.07374869
201	0x3c392f59	0.0113027925
202	0x3c113c71	0.008864508
203	0xbdc4d72a	-0.09611352
204	0xbd965f63	-0.07342412
205	0xbe4ffeb4	-0.20312005
206	0x3ca71394	0.020395078
207	0xbc10652a	-0.008813182
208	0x3c547589	0.012967476
209	0x3c944473	0.018099045
210	0x3d1152ef	0.035479482
211	0xbd6e26b6	-0.058142386
212	0xbd5535c9	-0.052053247
213	0x3cd22583	0.025652653
214	0x3d089bd6	0.03335174
215	0xbcd5461a	-0.026034404
216	0xbd984876	-0.07435696
217	0xbca9975a	-0.020702053
218	0x3a3d8b23	0.0007230511
219	0x3db308f6	0.087419435
220	0xbd5ce4b4	-0.053929046
221	0x3da6d761	0.08146549
222	0xbd19b1f9	-0.037523244
223	0x3d935157	0.07193249
224	0x3d66b8b1	0.05632848
225	0x3bfcb535	0.0077120312
226	0xbe7fa576	-0.24965462
227	0xbe0fc663	-0.14040522
228	0xbe403f48	-0.1877414
229	0xbe61bb0d	-0.2204401
230	0xbe5b06b7	-0.2138928
231	0x3c9c5bea	0.019086797
232	0xbd79ead1	-0.061014954
233	0xbe1272ed	-0.14301653
234	0xbc808aaf	-0.01569113
235	0xbd7abaaf	-0.06121319
236	0xbca62365	-0.02028055
237	0xbc9fc46e	-0.019502845
238	0x3d4bf08b	0.049789947
239	0xbd6325d8	-0.055456012
240	0xbcd1aca5	-0.025595019
241	0xbcb18d84	-0.021673925
242	0xbce9ae1e	-0.028525408
243	0x3daf672a	0.08564599
244	0x3c03661b	0.008019949
245	0x3db3427d	0.08752916
246	0xbc39ba33	-0.011335897
247	0xbcf4ba60	-0.029874027
248	0xbd452ff6	-0.048141442
249	0xbccf0d42	-0.025274877
250	0x3b9b1f81	0.00473398
251	0xbdc92195	-0.098208584
252	0xbcb03f01	-0.021514418
253	0xbbb13fc5	-0.0054092132
254	0xbe0011b7	-0.12506758
255	0x3d50a3e8	0.050937563

layer1.0.bn1.weight f4 [16]
0	0x3f921d3d	1.1415173
1	0x3f565742	0.83726895
2	0x3f72cdae	0.9484509
3	0x3f6fc718	0.9366317
4	0x3f82ac45	1.0208822
5	0x3f6fcc87	0.9367146
6	0x3f96cd17	1.1781338
7	0x3f8a8594	1.0822015
8	0x3f87e9b8	1.06182
9	0x3f9842c6	1.1895378
10	0x3f564c2c	0.8370998
11	0x3f8dd604	1.1080937
12	0x3f5cdd6d	0.8627537
13	0x3f6e1de4	0.9301436
14	0x3f6b591b	0.9193284
15	0x3f711d70	0.94185543

layer1.0.bn1.bias f4 [16]
0	0xbc05f2ca	-0.008175561
1	0xbe2f4bd6	-0.17118773
2	0xbde07e66	-0.109616086
3	0x3d163e56	0.036680542
4	0xbd58eebb	-0.052962046
5	0xbdfe64db	-0.124215804
6	0x3e62041d	0.22071882
7	0x3eaf0406	0.34182757
8	0x3e4efdd0	0.2021401
9	0x3e9a145f	0.30093667
10	0xbe28e474	-0.16493398
11	0xbd1dcc1a	-0.038524725
12	0xbe33ac6f	-0.17546247
13	0xbe1b2f2c	-0.15154713
14	0xbe2652cc	-0.16242522
15	0xbe0a0f4d	-0.134824

layer1.0.bn1.running_mean f4 [16]
0	0xbf1398d7	-0.5765509
1	0xbf81895a	-1.0120041
2	0xbde4584b	-0.11149653
3	0xbe91c052	-0.2846704
4	0xbf3d6ce7	-0.73994297
5	0xbf6f20b6	-0.9340929
6	0xbf608138	-0.8769717
7	0xbf3eb4b2	-0.7449447
8	0xbf0330cd	-0.5124634
9	0xbebb48e9	-0.36579064
10	0xbf6f80f4	-0.9355614
11	0xbf32f30a	-0.699021
12	0xbf5edd65	-0.8705657
13	0xbedd038f	-0.43166777
14	0x3ea8f407	0.32998678
15	0xbe06e32f	-0.13172601

layer1.0.bn1.running_var f4 [16]
0	0x3f3cbb75	0.73723537
1	0x3f9a75a7	1.2067155
2	0x3f12a306	0.57280004
3	0x3edd2791	0.4319425
4	0x3f51c6ec	0.81944156
5	0x3f812f40	1.0092545
6	0x3f583176	0.8445047
7	0x3fa8ff4c	1.320291
8	0x3ea9da09	0.3317416
9	0x3f3b7462	0.7322446
10	0x3f842cfd	1.0326229
11	0x3fb2ff32	1.398413
12	0x3f6aa45c	0.9165704
13	0x3f9a50e2	1.2055933
14	0x3f0b91cb	0.5451934
15	0x3f0f587d	0.559944

layer1.0.conv2.weight f4 [16, 16, 3, 3]
0	0xbe1c50f3	-0.15265255
1	0x3dad7c98	0.0847103
2	0xbd22664c	-0.03964834
3	0x3e0ee12c	0.13953084
4	0x3d42ee25	0.047590394
5	0x3c34e049	0.011039802
6	0x3ce17165	0.027519891
7	0xbe32c5a9	-0.17458214
8	0x3e0f96b5	0.14022334
9	0xbcd3b3d2	-0.025842581
10	0xbcdb2c2b	-0.02675446
11	0xbaadc481	-0.0013257415
12	0xbda2e250	-0.07953322
13	0xbcdf629a	-0.027268697
14	0x3d2fe6db	0.04294477
15	0x3d9e890f	0.077409856
16	0x3cc462ab	0.02397283
17	0x3db0f166	0.08639793
18	0xbbcb6565	-0.0062071555
19	0x3d95a785	0.073073424
20	0xbd1f1da2	-0.03884662
21	0x3d708b74	0.058726743
22	0x3df4a215	0.11944977
23	0xbce71553	-0.02820841
24	0x3d0594f6	0.032612763
25	0x3d5d2d89	0.053998504
26	0x3b94475d	0.0045251087
27	0xbde51736	-0.11186068
28	0x3d98bb3b	0.074575864
29	0xbcbfe15d	-0.023422891
30	0x3d8605cf	0.06544077
31	0x3ce9d4e5	0.028543899
32	0xbac808c4	-0.0015261401
33	0x3dac1e3c	0.08404204
34	0xbd14a436	-0.036289416
35	0x3daf911c	0.08572599
36	0x3cb0da8d	0.021588588
37	0x3dc593c5	0.096473254
38	0xbd427e9c	-0.047484025
39	0x3dd99e19	0.10625858
40	0xbdd6dced	-0.10491357
41	0xbb40ffdb	-0.0029449377
42	0xbdb9f75d	-0.09080384
43	0xbcf529fb	-0.029927244
44	0x3cc0ae45	0.023520598
45	0x3df01026	0.1172183
46	0xbdbcb9ad	-0.09215102
47	0xbd4689a2	-0.0484711
48	0x3d1dd78b	0.038535636
49	0xbc118b79	-0.0088833505
50	0x3d9c0b2b	0.076193176
51	0xbd9202b8	-0.07129425
52	0x3cb7cacc	0.022435568
53	0x3c71ae78	0.014751069
54	0x3ccee3f9	0.02525519
55	0x3c8f6e6b	0.017508706
56	0xbdeb2ed6	-0.114835426
57	0xbd5fb541	-0.054616217
58	0xbdac2d50	-0.0840708
59	0x3e081d1d	0.13292356
60	0x3a57b662	0.0008228776
61	0xbdc4f8ab	-0.09617742
62	0x3db79187	0.08963304
63	0xbd29fb55	-0.041499455
64	0x3d094f6a	0.033523
65	0x3d0479e2	0.0323428
66	0x3e154b46	0.14579496
67	0xbdf78d0c	-0.120874494
68	0xbbe3a21c	-0.006946815
69	0xbcf6a8b7	-0.030109746
70	0x3cad62a6	0.021165203
71	0xbd18302f	-0.037155326
72	0x3dcb3a36	0.09923212
73	0xbdbafe57	-0.09130543
74	0xbc4c44d0	-0.012467578
75	0x3d0055fc	0.031332
76	0xbe520d30	-0.20512843
77	0x3e678bca	0.22611919
78	0xbe7da1f4	-0.24768811
79	0x3e2f2d38	0.17107093
80	0x3d0a8906	0.033822082
81	0xbe0d2fe9	-0.13787808
82	0x3dcade66	0.099057004
83	0xbc005e14	-0.00783493
84	0x3e4a54b5	0.19758876
85	0x3d93ec0e	0.07222758
86	0xbe75bbb9	-0.23997392
87	0x3cfccaac	0.03085836
88	0xbd36bd9a	-0.044614412
89	0xbd0ceb8d	-0.034404326
90	0xbd0641c0	-0.032777548
91	0xbd97cfa9	-0.07412655
92	0x3db05580	0.08610058
93	0x3d99331f	0.07480454
94	0x3d1d8ee5	0.038466353
95	0x3d2cdf7a	0.04220531
96	0x3d6c2adc	0.05765806
97	0xbdc4f697	-0.09617346
98	0xbd28e8b0	-0.041237533
99	0x3dc4c8db	0.09608623
100	0x3d86b417	0.06577318
101	0xbcae489d	-0.02127486
102	0x3de17f7b	0.11010643
103	0xbdca41f4	-0.09875861
104	0x3e07c7a2	0.13259748
105	0x3cb5d912	0.022198234
106	0xbcb8d526	-0.022562575
107	0xbd9b514c	-0.075838655
108	0x3d1be356	0.0380586
109	0x3d4cc62d	0.049993683
110	0x3c0941c3	0.008377495
111	0xbbbd377c	-0.0057744365
112	0xbd2976af	-0.04137295
113	0xbdea3894	-0.11436573
114	0x3c30b0a1	0.010784299
115	0xbdf5759d	-0.119853236
116	0x3b8bdb3e	0.004268079
117	0xbdc2d944	-0.095140964
118	0xbddef659	-0.10886831
119	0x3d3c2518	0.045933813
120	0xbdc6a94d	-0.0970026
121	0x3d364237	0.04449674
122	0xba0bcdc3	-0.000533309
123	0xbd680972	-0.056649633
124	0xbb73ffea	-0.0037231394
125	0x3d162d6a	0.036664404
126	0xbe28eeba	-0.16497317
127	0xbd2c40a5	-0.042053837
128	0x3db7a8f1	0.0896777
129	0xbe0afe47	-0.13573562
130	0xbc890029	-0.01672371
131	0x3ddb9f29	0.10723717
132	0xbce18e6c	-0.027533732
133	0x3d899e49	0.067196436
134	0xbc5fc958	-0.013658844
135	0x3c1e91d7	0.009678326
136	0xbb48873a	-0.003059818
137	0xbd8f44c7	-0.0699554
138	0xbda94a38	-0.08266109
139	0x3c796118	0.015220903
140	0x3ca71b6b	0.020398816
141	0x3d663c8c	0.056210086
142	0xbd8d40e1	-0.0689714
143	0xbd9c3d00	-0.07628822
144	0xbdeedcc5	-0.11663202
145	0x3bbc85cc	0.0057532545
146	0x39c95658	0.0003840204
147	0xbe09f603	-0.13472752
148	0xbdef705a	-0.11691351
149	0xbdb33374	-0.08750048
150	0x3d7feab3	0.062479686
151	0xbda8035d	-0.082037665
152	0xbd8b12a3	-0.06790664
153	0xba1b20b1	-0.0005917652
154	0x3d8df5ea	0.0693167
155	0x3c1c57cc	0.009542417
156	0x3d8a191c	0.067430705
157	0x3e0273a1	0.12739421
158	0x3d3893d2	0.045062847
159	0xbcb61265	-0.022225568
160	0xbd8dd8c9	-0.06926114
161	0x3d83cc68	0.06435472
162	0x3d17c743	0.037055265
163	0xbc6d7e45	-0.014495437
164	0xba0e7108	-0.0005433713
165	0xbcae072e	-0.021243658
166	0x3c9876ee	0.018611398
167	0x3d316b88	0.04331544
168	0xbc79098a	-0.015200028
169	0xbdcd3f8a	-0.10021885
170	0xbe295a36	-0.16538319
171	0xbdafd2e2	-0.085851446
172	0x39a65f58	0.00031733024
173	0xbc8c73ba	-0.017145026
174	0x3d60ee44	0.054914728
175	0xbd00fa73	-0.031488847
176	0x3dc52895	0.09626881
177	0xbc3a8a25	-0.011385475
178	0x3c9be309	0.019029157
179	0x3e0a3fb0	0.13500857
180	0xbdcf4cad	-0.101220466
181	0xbd85a6dc	-0.065259665
182	0xbc6b7289	-0.014370569
183	0x3b8d87f1	0.004319184
184	0xbc160bad	-0.009158057
185	0xbd946655	-0.07246081
186	0x3da2db9b	0.07952043
187	0xbc1c05c1	-0.009522856
188	0xba0b2a3e	-0.0005308724
189	0x3d08e84f	0.03342467
190	0x3b0d2c70	0.002154138
191	0xbddeaf9c	-0.108733386
192	0xbb25929f	-0.0025264395
193	0xbc76f2b7	-0.015072516
194	0x3d690f4e	0.05689936
195	0x3cd27e78	0.02569507
196	0xbd0dd146	-0.034623407
197	0xbd2c94f2	-0.042134233
198	0x3d1f6bc1	0.03892112
199	0xbdc26ef7	-0.09493821
200	0xbc721d1f	-0.014777451
201	0x3e4ac748	0.19802582
202	0x3da74fd0	0.0816952
203	0x3ba2988c	0.0049620327
204	0xbc8d71f8	-0.017266259
205	0xbddf03d4	-0.10889402
206	0xbde62836	-0.112381384
207	0x3da9bc69	0.082878895
208	0x3ca53828	0.020168379
209	0x3d3cdb9e	0.04610788
210	0xbd6b7594	-0.057485178
211	0x3c589b7d	0.013220665
212	0x3d94785d	0.0724952
213	0xbca44514	-0.02005247
214	0xbcd05b2f	-0.025434105
215	0xbd8d68d4	-0.0690476
216	0x3cc1b8e8	0.02364774
217	0xbdb240d0	-0.08703768
218	0x3c9ef3ee	0.019403424
219	0xbd0a122c	-0.033708736
220	0xbdbfb938	-0.093614995
221	0xbdb07827	-0.08616667
222	0x3daae9ac	0.083453506
223	0x3e041ec1	0.12902357
224	0x3be82431	0.0070843925
225	0x3d687b90	0.056758463
226	0x3da4f4e7	0.08054524
227	0x3daadb02	0.08342554
228	0xbe273135	-0.16327365
229	0xbe877b64	-0.26461327
230	0xbdab1e1c	-0.08355352
231	0x3da4b5a8	0.08042461
232	0x3c29cce8	0.010363795
233	0xbd1f9d7b	-0.038968544
234	0x3cacb91d	0.021084363
235	0x3cc1d38e	0.023660447
236	0x3d8fe7a3	0.07026603
237	0x3ccfdbce	0.025373366
238	0x3bcc04a0	0.0062261373
239	0x3cb43821	0.02199942
240	0x3bf8cae7	0.007592547
241	0x3d38d14e	0.045121484
242	0x3de437f0	0.11143482
243	0x3e29da25	0.16587122
244	0xbd8b654f	-0.068064325
245	0x3d356afd	0.044291485
246	0xbd93ab30	-0.07210386
247	0xbcf8399e	-0.030300912
248	0x3d1e0f19	0.038588617
249	0x3df0126a	0.11722262
250	0x3d658080	0.05603075
251	0x3d58284b	0.0527728
252	0x3cc44200	0.023957253
253	0x3d84ecba	0.064904645
254	0x3d6967a6	0.056983612
255	0x3d44601f	0.04794323

layer1.0.bn2.weight f4 [16]
0	0x3fab34c3	1.3375477
1	0x3f8baaee	1.0911539
2	0x3f846353	1.0342811
3	0x3f652fc4	0.8952601
4	0x3f846964	1.0344663
5	0x3f791862	0.9730283
6	0x3f8942f9	1.0723563
7	0x3f837081	1.0268708
8	0x3f7b40bf	0.9814567
9	0x3f7cd7da	0.98766863
10	0x3f87d78e	1.0612657
11	0x3f83ea15	1.0305811
12	0x3f669602	0.90072644
13	0x3f92ca66	1.1468017
14	0x3f8cd9ef	1.1004008
15	0x3f945afe	1.1590269

layer1.0.bn2.bias f4 [16]
0	0xbdf26838	-0.118362844
1	0xba5cec9c	-0.00084275915
2	0x3e1d13e3	0.15339617
3	0xbe453543	-0.19258599
4	0x3d9de65d	0.07709954
5	0xbd2ff3b1	-0.04295701
6	0x3b934fbf	0.0044955905
7	0xbc0a2d3c	-0.008433636
8	0x3ce10442	0.02746785
9	0x3d3c5ffe	0.045989983
10	0x3e6303c5	0.22169407
11	0x3c4163df	0.011803596
12	0xbbd6fb1e	-0.006560697
13	0xbeb6fd9e	-0.3574037
14	0xbcc31f7e	-0.023818728
15	0x3e42f4a0	0.1903863

layer1.0.bn2.running_mean f4 [16]
0	0xbcd0149a	-0.025400449
1	0xbe84a93d	-0.2591037
2	0xbd78bc5c	-0.06072651
3	0x3ec235a0	0.37931538
4	0x3ebb9e12	0.36644036
5	0xbd713159	-0.058884952
6	0xbed92b2c	-0.4241575
7	0xbd977d03	-0.07396891
8	0xbee088ee	-0.4385447
9	0xbeacdb51	-0.33761075
10	0xbf0f8eba	-0.5607716
11	0xbd8cd579	-0.06876654
12	0x3e2fa13f	0.17151354
13	0x3ede2310	0.43386126
14	0x3f2514c7	0.6448483
15	0xbf38adcb	-0.7214019

layer1.0.bn2.running_var f4 [16]
0	0x3eb4cc85	0.35312286
1	0x3f10bd16	0.5653852
2	0x3f1d6106	0.6147617
3	0x3ef3032d	0.4746336
4	0x3f082ae5	0.5319045
5	0x3ef9c036	0.48779458
6	0x3f42a476	0.760322
7	0x3f1c11a2	0.60964406
8	0x3f4bc73a	0.7960087
9	0x3f1cff2c	0.6132686
10	0x3f83b458	1.0289412
11	0x3f4a9371	0.7913123
12	0x3f21472b	0.6299922
13	0x3ed4d8b0	0.4157157
14	0x3ee32c8b	0.4436992
15	0x3f3fe0a2	0.7495214

layer1.1.conv1.weight f4 [16, 16, 3, 3]
0	0xbd7585bf	-0.059942003
1	0x3d7e93ac	0.06215255
2	0xbda00d32	-0.07815017
3	0xbe08d9f5	-0.13364394
4	0x3d5349df	0.05158412
5	0x3d456cd7	0.0481995
6	0xbd6fe9d0	-0.05857259
7	0xbd868ebd	-0.06570194
8	0x3e05c558	0.13063562
9	0x3d94052f	0.07227551
10	0x3e11f882	0.14254954
11	0xbba62b0e	-0.0050710505
12	0xbe26a9af	-0.16275667
13	0x3d3db904	0.046319023
14	0xbb230b9f	-0.0024878753
15	0xbd7beb6d	-0.061503816
16	0x3baac5a3	0.0052115484
17	0x3d6c08ab	0.057625454
18	0xbdbff404	-0.09372714
19	0xbd033e61	-0.03204191
20	0x3d86ad29	0.065759964
21	0x3defad43	0.11702969
22	0xbe25112f	-0.16119836
23	0xbdc78863	-0.097428106
24	0x3e523c46	0.20530805
25	0x3da89328	0.08231193
26	0xbde0caa0	-0.10976148
27	0xbde5a5a3	-0.11213233
28	0xbd88089a	-0.066422656
29	0x3d91a8db	0.07112285
30	0xbd84f03b	-0.06491133
31	0x3d8d3520	0.068948984
32	0xbba3fa17	-0.0050041783
33	0xbd298e49	-0.04139546
34	0x3dec7ea4	0.11547592
35	0x3b8aca3e	0.004235535
36	0xbb064646	-0.0020488664
37	0x3d59cd8c	0.05317454
38	0x3c588970	0.013216361
39	0x3c4637dd	0.01209828
40	0x3da461d3	0.08026471
41	0x3dc13366	0.094336316
42	0xbd53dd41	-0.051724676
43	0xbcce455c	-0.025179558
44	0x3db60055	0.08886782
45	0x3c37295d	0.011179295
46	0x3c894f86	0.016761553
47	0xbc5e8775	-0.0135821
48	0xbd7bbf0b	-0.06146149
49	0x3da02209	0.07818992
50	0x3d8985c4	0.06714967
51	0xbd9dd94f	-0.07707464
52	0x3d06058e	0.03272014
53	0x3d81164c	0.06303081
54	0x3dc2158a	0.094767645
55	0x3d85c9c4	0.06532624
56	0x3d72d01c	0.0592805
57	0xbc84f4ed	-0.016230071
58	0x3d5ab378	0.05339381
59	0xbc13f2e6	-0.0090300795
60	0x3c85fc5c	0.016355686
61	0xbd33d304	-0.043902412
62	0xbb7d4aae	-0.003864925
63	0xbd8f44f2	-0.06995572
64	0x3d746174	0.05966325
65	0x3c242bf3	0.010020244
66	0xbe18562a	-0.14876619
67	0x3d1f258b	0.038854163
68	0x3e0f4c70	0.13994002
69	0xbcf70468	-0.030153468
70	0xbe0db380	-0.13838005
71	0x3b8dd56f	0.004328422
72	0xbd38a655	-0.0450805
73	0x3d85541f	0.065101855
74	0x3c300b2f	0.010744854
75	0xbcae9e76	-0.021315794
76	0xbd6cfc3b	-0.057857733
77	0xbd83f9ac	-0.064441055
78	0xbd180849	-0.037117276
79	0x3d9982c4	0.07495645
80	0xbc21bea3	-0.0098721115
81	0xbcf3580c	-0.02970507
82	0xbe504524	-0.20338875
83	0xbbbb6290	-0.0057185367
84	0x3e431008	0.19049084
85	0x3db21585	0.08695511
86	0xbe088b86	-0.13334474
87	0xbd558b28	-0.052134663
88	0x3e37e37b	0.1795787
89	0x3df64ba6	0.120261475
90	0xbcad8e53	-0.02118603
91	0xbde6bffa	-0.112670854
92	0x3dc392f2	0.09549512
93	0x3d14952f	0.036275085
94	0xbd5b63c4	-0.05356194
95	0xbd296af6	-0.04136177
96	0x3d0e2c29	0.034710083
97	0x3cfeac98	0.031088158
98	0xbd960642	-0.07325412
99	0x3d98dfc9	0.07464559
100	0xbc1ad07d	-0.009449122
101	0xbd3d3dc4	-0.046201482
102	0xbd85650c	-0.06513414
103	0x3dbb1687	0.09135156
104	0x3d96c32a	0.07361443
105	0xbc2d335b	-0.010571326
106	0xbd626bf6	-0.05527874
107	0x3d8528f5	0.065019526
108	0x3ba0449e	0.0048909923
109	0xbd81347f	-0.06308841
110	0xbd82303f	-0.063568585
111	0x3d09c4e4	0.033635035
112	0xbd65253d	-0.055943716
113	0x3c226c9c	0.00991359
114	0xbd79c3be	-0.06097769
115	0xbca6fc96	-0.020384114
116	0xbc625cd6	-0.013816079
117	0xbc238074	-0.009979356
118	0xbe402c9e	-0.1876702
119	0xbd8d9d6b	-0.06914791
120	0x3e3eff58	0.18652093
121	0xbe0f40fc	-0.13989633
122	0xbe25b93c	-0.16183943
123	0x3e001bcc	0.12510604
124	0x3e64227c	0.2227878
125	0xbde4418e	-0.11145316
126	0x3e535f2c	0.20641774
127	0x3d1bd0d7	0.038040962
128	0xbd14f784	-0.03636886
129	0xbe051426	-0.12995967
130	0x3dfd1005	0.12356571
131	0x3dc4eb72	0.0961522
132	0xbda4dca7	-0.080498986
133	0xbdaaaa71	-0.0833329
134	0x3ca3cd50	0.019995362
135	0x3d25bd99	0.040464018
136	0x3e116655	0.14199193
137	0xbdbf82e6	-0.09351139
138	0xbb84792e	-0.004042766
139	0x3dda27c8	0.10652119
140	0x3cd5a8cf	0.02608147
141	0x3c59e72f	0.013299747
142	0x3d8f202e	0.0698856
143	0x3e0fad40	0.14030933
144	0xbb288e5b	-0.0025719616
145	0x3d9c7d1e	0.07641052
146	0xbd80012e	-0.06250225
147	0xbcb8110c	-0.022469066
148	0x3d5f0f5e	0.054458015
149	0xbdf1952f	-0.11796033
150	0xbd5d97c0	-0.0540998
151	0x3d9d1eb8	0.07671875
152	0xbe337928	-0.17526686
153	0xbd852e90	-0.06503022
154	0x3d33e34a	0.04391793
155	0xbd8c139d	-0.068396784
156	0x3df6ff49	0.120604105
157	0x3e355ce5	0.17711218
158	0x3e03d488	0.12874043
159	0xbc8d4033	-0.017242527
160	0x3c99ede4	0.018790193
161	0xbda380b3	-0.07983532
162	0xbe6bcbfd	-0.23027034
163	0xbdd6f078	-0.104950845
164	0xbc49b7bb	-0.012311871
165	0xbda34853	-0.07972779
166	0xbe5ae1a1	-0.21375133
167	0xbd6874b9	-0.05675194
168	0x3d81eaec	0.06343636
169	0x3dedd2de	0.11612485
170	0x3c8966a4	0.016772576
171	0xbcf42c38	-0.029806241
172	0xbc90e6c8	-0.01768817
173	0xbd901a73	-0.07036295
174	0xbd270fde	-0.040786617
175	0x3dad68ec	0.08467278
176	0xbd11695e	-0.035500877
177	0xbde8e87c	-0.11372468
178	0x3e11cf21	0.1423917
179	0xbb895d85	-0.0041920566
180	0x3cdf10e6	0.027229737
181	0x3d71c51d	0.059025872
182	0xbc405cfe	-0.011740921
183	0x3d7af3a6	0.061267518
184	0x3ce4612e	0.02787837
185	0x3da795da	0.08182879
186	0xbddcf181	-0.10788251
187	0xbd250f2f	-0.040297683
188	0x3c5853d5	0.013203581
189	0x3a95c2fc	0.0011425908
190	0x3dfb7114	0.12277427
191	0xbcb4dea9	-0.022078829
192	0x3ccb2cfd	0.024801726
193	0x3dd699ad	0.1047853
194	0xbd82288e	-0.063553914
195	0x3c96eb4e	0.018422749
196	0x3dfff1a6	0.12497263
197	0xbda6d0bb	-0.08145281
198	0xbccf4f18	-0.02530627
199	0x3bf79af7	0.007556315
200	0xbba8edd5	-0.005155305
201	0xbd24de94	-0.04025133
202	0xbccd0c72	-0.025030348
203	0xbd5f8447	-0.05456951
204	0x3c0f8d07	0.008761651
205	0x3e0b660c	0.13613147
206	0xbcf9a226	-0.030472826
207	0xbcc9c336	-0.024629217
208	0x3d502639	0.050817702
209	0x3d466951	0.04844028
210	0xbdc21a79	-0.094777055
211	0x3ca4a2a6	0.020097088
212	0x3d571260	0.05250776
213	0xbda5c5d6	-0.08094375
214	0x3d25edda	0.040510036
215	0x3ced9647	0.029002322
216	0xbcc55381	-0.02408767
217	0xbde63ffe	-0.11242674
218	0xbd95faf6	-0.073232576
219	0xbd35d4ec	-0.04439251
220	0xbd2c51a3	-0.042070042
221	0xbce7fffb	-0.028320303
222	0xbcb0a7e1	-0.021564426
223	0xbce07796	-0.027400773
224	0x3ca78bd0	0.02045241
225	0x3d412202	0.047151573
226	0x3c114ff5	0.008869161
227	0x3c9ac56d	0.018892968
228	0x3d2bf266	0.041979216
229	0x3d5bfeeb	0.053709906
230	0x3d77795a	0.060418464
231	0xbd85a08e	-0.06524764
232	0x3e4528cd	0.19253846
233	0x3d665335	0.056231696
234	0xbd8ddbbb	-0.06926676
235	0xbddcc8c7	-0.10780483
236	0xbd99fe5c	-0.07519218
237	0x3d28ae36	0.041181765
238	0x3e194e17	0.14971195
239	0xbc26dda4	-0.010184679
240	0x3dd4d2a4	0.10391739
241	0x3e09bfe4	0.13452107
242	0x3d0e9fbb	0.0348203
243	0xbd8d7282	-0.06906606
244	0x3cab2624	0.02089221
245	0xbca16c88	-0.019705072
246	0xbce3b103	-0.027794367
247	0x3c83f752	0.016109142
248	0xbdd8d813	-0.10588088
249	0x3dcaa4cd	0.098947145
250	0x3dfb1d7d	0.12261484
251	0xbd235efa	-0.0398855
252	0x3db54730	0.088514686
253	0xbd7e7334	-0.062121585
254	0xbd4b70ff	-0.04966831
255	0x3a74e90f	0.000934259

layer1.1.bn1.weight f4 [16]
0	0x3f7f1c2d	0.9965237
1	0x3f795758	0.973989
2	0x3f61db17	0.8822493
3	0x3f660ee5	0.8986648
4	0x3f627cbd	0.88471586
5	0x3f7dfe9d	0.99216634
6	0x3f91118c	1.133348
7	0x3f9e22fb	1.2354425
8	0x3f656fe6	0.8962387
9	0x3f7ae318	0.9800277
10	0x3f7a4ab5	0.97770244
11	0x3f645971	0.89198977
12	0x3f6b2e23	0.91867274
13	0x3f6dab90	0.9283991
14	0x3f778233	0.96683043
15	0x3f837dfd	1.0272824

layer1.1.bn1.bias f4 [16]
0	0xbe2b82c2	-0.16749099
1	0xbe0b7cc8	-0.13621819
2	0xbe2e6421	-0.17030384
3	0xbe110f14	-0.14165908
4	0xbe6f4571	-0.23366334
5	0xbda50829	-0.08058197
6	0xbe0b4bbd	-0.1360311
7	0xbe046b16	-0.12931475
8	0xbe4e36c1	-0.20138074
9	0xbe2f5a15	-0.17124207
10	0xbd64cd7e	-0.055860035
11	0xbe31534e	-0.17316934
12	0xbdf1ec8e	-0.11812697
13	0xbe0feaa0	-0.14054346
14	0xbe53143c	-0.20613188
15	0xbe127bb4	-0.14305001

layer1.1.bn1.running_mean f4 [16]
0	0x3eeb28c3	0.45929536
1	0x3e0da6a6	0.13833103
2	0x40057c02	2.0856938
3	0xbf6c8aab	-0.9239909
4	0xbf3299c6	-0.6976589
5	0xbf9a988f	-1.2077807
6	0xbf133c72	-0.5751411
7	0xbe947fff	-0.29003903
8	0xbebe6e4a	-0.3719352
9	0xbf75b494	-0.95978665
10	0xbfa01b5e	-1.2508352
11	0x3ebc4c62	0.36777025
12	0xbffe002f	-1.9843806
13	0xbfd95a12	-1.6980612
14	0xbf11a34a	-0.56889784
15	0x3f5ca100	0.86183167

layer1.1.bn1.running_var f4 [16]
0	0x4013e70b	2.3109767
1	0x3fe532c2	1.7906115
2	0x3fc171e4	1.5112882
3	0x401d1e7d	2.4549859
4	0x3fa16cbe	1.261131
5	0x3fc2e71a	1.5226777
6	0x402dbab0	2.7145195
7	0x406f0edf	3.7352827
8	0x3fe5d4ae	1.795553
9	0x3fc45871	1.533949
10	0x3ffe9b63	1.989117
11	0x3f9ad1a7	1.2095231
12	0x402332df	2.54998
13	0x40033f14	2.050725
14	0x3fff13d2	1.9927924
15	0x3fae9011	1.3637716

layer1.1.conv2.weight f4 [16, 16, 3, 3]
0	0x3c48ee84	0.012263898
1	0xbcda7307	-0.026666177
2	0x3caa537e	0.020791765
3	0xbd82cfc5	-0.06387285
4	0xbd192431	-0.03738803
5	0x3dcf1e92	0.10113253
6	0x3bd7c924	0.006585257
7	0xbda4425f	-0.08020472
8	0x3da5c7ef	0.08094775
9	0xbddab6b5	-0.1067938
10	0x3d2ece97	0.04267749
11	0xbdd4c979	-0.1038999
12	0x3c74cf92	0.014942067
13	0xbd4700fe	-0.04858493
14	0x3d83ff19	0.064451404
15	0x3e07dcbe	0.132678
16	0xbcb89e56	-0.022536438
17	0x3cb414e1	0.021982612
18	0xbc4ceb5d	-0.012507287
19	0xbd990def	-0.07473361
20	0x3d3453b3	0.044025134
21	0x3d0c2446	0.03421428
22	0xbd42fffb	-0.047607403
23	0xbe0715cd	-0.1319191
24	0xbc15a3f5	-0.009133329
25	0xbd819a2e	-0.063282356
26	0xbd9bfb77	-0.076163225
27	0x3d8afcc0	0.067864895
28	0xbde05024	-0.109527856
29	0xbe0c11f5	-0.13678725
30	0xbc8a8fff	-0.016914366
31	0xbdbe3f30	-0.09289396
32	0xbdff6118	-0.12469691
33	0x3e023268	0.12714541
34	0xbdb14eef	-0.086576335
35	0x3c916d28	0.017752245
36	0x3d02bd8e	0.031919055
37	0xbdcc65e2	-0.0998037
38	0xbdc970d5	-0.09835974
39	0xbd6fc7e6	-0.058540247
40	0x3d94f184	0.07272628
41	0xbd93a7b2	-0.0720972
42	0xbdac5f0b	-0.084165655
43	0xbb9524cb	-0.004551505
44	0xbd3abbec	-0.045589373
45	0x3db037af	0.08604371
46	0x3cf64011	0.030059846
47	0xbd59dd99	-0.053189848
48	0x3de13fde	0.1099851
49	0xbdb07f5e	-0.08618043
50	0x3bf3969b	0.007433725
51	0x3d12b90e	0.035821013
52	0x3de9eac7	0.11421733
53	0x3e25f04b	0.16204946
54	0x3d38221a	0.044954397
55	0xbd8ba86a	-0.06819232
56	0xbe02e037	-0.12780844
57	0x3d63cfc9	0.05561808
58	0xbdc60dfc	-0.09670636
59	0xbe04188a	-0.12899986
60	0x3d39e096	0.045380197
61	0x3dd0e0de	0.1019914
62	0xbd5d84f6	-0.05408188
63	0x3e37a55d	0.17934175
64	0x3e239127	0.1597334
65	0xbad60d55	-0.0016330878
66	0x3e397ae5	0.18113287
67	0x3d78f61b	0.06078158
68	0x3d77b676	0.060476743
69	0x3de7c03d	0.113159634
70	0xbd84553d	-0.064615704
71	0x3e1c2f92	0.15252522
72	0x3d2f8e18	0.04286012
73	0xbdd69842	-0.104782596
74	0x3bd7d8ab	0.006587108
75	0x3da7ad05	0.08187298
76	0xbdaea9db	-0.08528491
77	0xbda02918	-0.07820338
78	0x3cea3bdc	0.028592996
79	0x3d18f8cd	0.03734665
80	0xbd8aaf71	-0.06771744
81	0xbd8ab020	-0.067718744
82	0xbce8584b	-0.028362414
83	0xbd94c041	-0.07263232
84	0xbe2744d4	-0.1633485
85	0xbba21db0	-0.0049473867
86	0xbcba65f9	-0.022753702
87	0xbc74d11e	-0.014942436
88	0xbdcbd38f	-0.09952461
89	0xbdfa872d	-0.12232814
90	0x3d69827a	0.057009198
91	0xbc39eee5	-0.011348461
92	0x3db9dd89	0.090754576
93	0x3dcb49f5	0.099262156
94	0xbd96b1ca	-0.07358129
95	0xbd868d9c	-0.065699786
96	0x3cf87974	0.03033135
97	0xbd9bc280	-0.07605457
98	0xbd94e00c	-0.07269296
99	0xbd9cca92	-0.07655825
100	0xbd880947	-0.066423945
101	0xbdda05c8	-0.10645634
102	0xbb78ce7c	-0.003796487
103	0x3d6d967c	0.05800484
104	0xbdb6b316	-0.08920877
105	0x3dab514e	0.08365117
106	0xbd547db9	-0.05187771
107	0x3d2e144f	0.042499837
108	0x3d9714a1	0.073769815
109	0x3db3e5ca	0.08784063
110	0xbd011e57	-0.031523075
111	0x3dfda68f	0.12385284
112	0xbe0d4761	-0.1379676
113	0xbda009f2	-0.07814397
114	0xbc2e70b2	-0.010646986
115	0xbd99e157	-0.07513683
116	0xbc9cd25e	-0.01914328
117	0xbdc96b2a	-0.09834893
118	0xbdfc4bc1	-0.123191364
119	0xbb716666	-0.0036834716
120	0x3dae8dc6	0.08523135
121	0xbdb769c2	-0.089557186
122	0xbdf80d94	-0.12111965
123	0xbc5e56dd	-0.0135705145
124	0xbcac5301	-0.021035673
125	0xbd84173d	-0.06449745
126	0x3d50a11c	0.050934896
127	0xbde21bb2	-0.11040439
128	0x3da87215	0.082248844
129	0xbda61124	-0.08108738
130	0xbc1bebba	-0.009516651
131	0x3ddb073b	0.106947385
132	0xbcd7daf6	-0.026349526
133	0x3dd31958	0.10307568
134	0x3cb0b925	0.021572659
135	0xbcc085d6	-0.023501318
136	0x3d5792c9	0.05263022
137	0xbdd347a9	-0.103164025
138	0xbd71b745	-0.05901267
139	0xbdbdb183	-0.09262373
140	0xbd43bccd	-0.047787476
141	0x3d848223	0.06470134
142	0xbdb197ae	-0.08671509
143	0x3e050611	0.12990595
144	0x3dcf7ecd	0.10131607
145	0x3e12da64	0.14341122
146	0x3d42c348	0.047549516
147	0x3e3a6668	0.18203127
148	0x3d9c30d2	0.07626499
149	0x3d40a07f	0.04702806
150	0x3e545d88	0.20738804
151	0x3bed350c	0.0072389897
152	0xbd46515e	-0.04841744
153	0xbd471dfd	-0.048612583
154	0x3dd7fbdc	0.10546085
155	0x3dc0b1ee	0.094089374
156	0x3d281bae	0.041042022
157	0x3dfc45d3	0.123180054
158	0x3db8cd70	0.09023559
159	0x3c0028b6	0.007822206
160	0x3cb5d7f8	0.022197708
161	0x3dad6ea5	0.084683694
162	0xbd62eaee	-0.055399828
163	0xbd43d3e6	-0.047809504
164	0x3d40ed5c	0.047101364
165	0x3ceb5eaf	0.028731672
166	0x3d65967a	0.05605171
167	0x3cb2b18f	0.021813182
168	0x3b7d4380	0.003864497
169	0xbd9c212c	-0.076235145
170	0xbd460c87	-0.04835179
171	0xbc824107	-0.015900148
172	0xbd72bc84	-0.059261814
173	0x3d495676	0.04915472
174	0xbd880123	-0.06640842
175	0xbb3ef118	-0.0029135402
176	0xbd8c6f6a	-0.06857188
177	0x3c999d20	0.01875168
178	0xbcedb635	-0.029017547
179	0x3cfcffd0	0.0308837
180	0xbc6e52f4	-0.014546145
181	0xbd139799	-0.036033247
182	0xbcea1cd4	-0.0285782
183	0x3ce755c5	0.02823914
184	0x3a4ff8f8	0.00079335226
185	0xbd8e1480	-0.06937504
186	0x3de77110	0.11300862
187	0x3d73064f	0.05933219
188	0xbd910f3c	-0.07082984
189	0x3d9a5ac1	0.07536841
190	0x3cb9204a	0.022598404
191	0x3dc76097	0.0973522
192	0x3de4a17c	0.11163613
193	0x3d249805	0.04018404
194	0xbd30c966	-0.04316082
195	0x3d4fde0d	0.050748874
196	0x3cf633d1	0.030054005
197	0x3d7db37d	0.06193875
198	0x3d7d0cfe	0.06177997
199	0xbbfec67d	-0.0077751265
200	0xbd3fdaad	-0.046839405
201	0x3cb55205	0.022133837
202	0xbdd54bdf	-0.10414862
203	0xbd8eb7ce	-0.06968652
204	0xbd1d8192	-0.038453646
205	0x3d21eb3c	0.039530978
206	0xbc0d90d4	-0.008640487
207	0xbd999b45	-0.075003184
208	0xbde2fdcf	-0.110835664
209	0xbde566bc	-0.11201236
210	0xbdd4a7b5	-0.1038355
211	0xbb9374ae	-0.0044999933
212	0xbd99e2be	-0.07513951
213	0x3a631f67	0.0008664042
214	0xbde1020d	-0.10986719
215	0xbd2a6576	-0.041600667
216	0xbca89bdd	-0.020582134
217	0x3cb55094	0.02213315
218	0x3e05847e	0.13038823
219	0xbc326625	-0.010888611
220	0x3d606cb0	0.054791152
221	0x3daab3f5	0.08335105
222	0x3d068cc1	0.032849077
223	0xbc22a121	-0.009926111
224	0x39993cf9	0.00029227862
225	0xbd7ce25c	-0.06173931
226	0x3ce2559b	0.02762871
227	0x3d05dda4	0.032682076
228	0xbd41fd7e	-0.04736089
229	0x3d453678	0.04814765
230	0x3d426c63	0.047466647
231	0xbe042a59	-0.1290678
232	0xbda23e5f	-0.079220526
233	0x3d3e8e76	0.04652258
234	0xbdaf6fdd	-0.08566258
235	0x3d0c510f	0.03425699
236	0x3a8b3cb0	0.0010622945
237	0xbe213e11	-0.15746333
238	0xbe001b70	-0.12510467
239	0xbdabfc97	-0.08397787
240	0xbe10c75c	-0.1413855
241	0xbd8be5dd	-0.06830952
242	0xbd22ba21	-0.039728288
243	0xbd34f199	-0.044175718
244	0x3c683fb9	0.014175349
245	0xbce14f9c	-0.027503781
246	0xbd081d29	-0.033230934
247	0xbd474699	-0.04865131
248	0xbd94ab6b	-0.07259258
249	0x3d8f1dba	0.06988092
250	0x3d01913d	0.03163265
251	0x3ce581b5	0.02801595
252	0xbd8ea4bf	-0.069650166
253	0xbc0a83e1	-0.008454294
254	0x3ce5b01f	0.028038083
255	0xbc9f6110	-0.019455463

layer1.1.bn2.weight f4 [16]
0	0x3f6f6c35	0.93524486
1	0x3f6518b3	0.89490813
2	0x3f5d5741	0.86461264
3	0x3f859f5c	1.0439258
4	0x3f77f5ef	0.9685964
5	0x3f6b1067	0.91821903
6	0x3f8a9ce9	1.0829135
7	0x3f68b2be	0.9089774
8	0x3f80f3d4	1.007441
9	0x3f7b8298	0.98246145
10	0x3f80e28d	1.0069138
11	0x3f859ab4	1.0437837
12	0x3f682241	0.9067727
13	0x3f82d58c	1.0221419
14	0x3f502d6f	0.81319326
15	0x3f85a7e3	1.044186

layer1.1.bn2.bias f4 [16]
0	0x3d191b69	0.037379656
1	0x3b0a6900	0.0021119714
2	0xbdc9b752	-0.09849419
3	0xbe00e252	-0.12586334
4	0x3d289865	0.04116096
5	0xbcabc412	-0.020967517
6	0xbdf7ffd4	-0.12109342
7	0xbd048210	-0.0323506
8	0x3df54609	0.11976249
9	0xbd992990	-0.074786305
10	0x3dc11234	0.094273
11	0x3d656530	0.056004703
12	0x3da29d7d	0.07940195
13	0x3bbdf446	0.005796942
14	0x3cdb22e9	0.026750045
15	0xbe036d0c	-0.12834567

layer1.1.bn2.running_mean f4 [16]
0	0xbeb4e55d	-0.3533124
1	0xbf517297	-0.81815475
2	0x3ef12daa	0.4710515
3	0xbe7c65de	-0.24648234
4	0xbe948945	-0.29010978
5	0xbf725104	-0.9465487
6	0xbe97f373	-0.29677925
7	0xbf9571a4	-1.1675305
8	0xbf381436	-0.7190584
9	0xbf029400	-0.5100708
10	0xbf028014	-0.5097668
11	0xbf9a460b	-1.2052625
12	0xbfb4de1f	-1.4130286
13	0xbfa01fd8	-1.2509718
14	0xbcaba32f	-0.020951835
15	0x3df3eacc	0.11910018

layer1.1.bn2.running_var f4 [16]
0	0x3ed23171	0.41053346
1	0x3f0175a0	0.50570107
2	0x3f279476	0.6546091
3	0x3ee1583b	0.44012627
4	0x3f22476f	0.6339025
5	0x3f2122c4	0.62943673
6	0x3f57815a	0.8418175
7	0x3fa1bb73	1.263533
8	0x3f2d746c	0.6775577
9	0x3eb7e48f	0.35916564
10	0x3f4e94f4	0.80696034
11	0x3f8390aa	1.0278523
12	0x3f69ca33	0.91324157
13	0x3f3a10e3	0.7268202
14	0x3ece6b37	0.40316173
15	0x3ea58f7b	0.3233603

layer2.0.conv1.weight f4 [32, 16, 3, 3]
0	0xbccb83a4	-0.024843045
1	0x3d38b734	0.04509659
2	0xbe1b8125	-0.15185983
3	0xbd56d3ca	-0.05244807
4	0xbd382184	-0.044953838
5	0xbdc4d560	-0.096110106
6	0x3e06c2a2	0.13160184
7	0x3d575f45	0.05258109
8	0x3c671420	0.014103919
9	0x3e2363bc	0.15956014
10	0x3e01c689	0.12673391
11	0xbda2f5d2	-0.07957043
12	0xbd332e5a	-0.043745376
13	0x3d221b70	0.039576948
14	0xbd3fb26d	-0.04680102
15	0xbe066125	-0.13122995
16	0xbe2097db	-0.15682928
17	0xbe1d32b4	-0.15351373
18	0xbda1dfaf	-0.079039924
19	0x3d19f872	0.03759045
20	0x3db118dc	0.0864732
21	0x3d298c62	0.041393645
22	0x3db1a8be	0.08674763
23	0x3e2525ce	0.16127703
24	0x3d65a4ea	0.056065477
25	0x3cfce773	0.030872082
26	0x3e025695	0.12728341
27	0xbdcc4255	-0.09973589
28	0x3b005d2b	0.0019586782
29	0xbdbedff1	-0.09320057
30	0x3df71dce	0.12066232
31	0x3de59a1f	0.11211037
32	0x3d189e60	0.037260413
33	0x3d699d2f	0.057034668
34	0x3dda97d4	0.1067349
35	0x3e0f6860	0.1400466
36	0xbd9648e3	-0.07338121
37	0x3db6ca56	0.08925311
38	0x3db5772a	0.08860619
39	0xbd14b27a	-0.03630302
40	0xbcb9fd7b	-0.022703877
41	0xbcd73228	-0.026269034
42	0xbe07b346	-0.13251981
43	0xbe111d9b	-0.1417145
44	0xbd4393a0	-0.047748208
45	0x3d4af6e6	0.049551867
46	0x3d022640	0.03177476
47	0x3e04ae3b	0.12957089
48	0x3df8413f	0.1212182
49	0x3d8ff1d3	0.07028546
50	0x3e0762ff	0.13221358
51	0x3ddc7596	0.10764615
52	0x3be1e410	0.0068936422
53	0x3d1cbbe4	0.038265124
54	0xbd0da2b3	-0.03457899
55	0x3c1263e7	0.008934951
56	0x3d80753a	0.06272359
57	0xbe079e9b	-0.13244097
58	0x3bde1ef8	0.006778594
59	0x3d76e611	0.060278002
60	0xbded8b06	-0.11598782
61	0xbcd05bef	-0.025434462
62	0x3ca91b9a	0.020643044
63	0x3d7fb8c1	0.062432054
64	0x3de7d23d	0.11319397
65	0x3e24ab38	0.1608094
66	0x3d98b5f1	0.074565776
67	0x3de3e132	0.11126937
68	0xbcf4a6e5	-0.029864738
69	0x3d291fea	0.0412902
70	0x3d476fe7	0.048690703
71	0x3d86cc56	0.06581943
72	0xbcb76f47	-0.022391928
73	0x3da83bf7	0.082145624
74	0x3de0ff10	0.10986149
75	0x3de04d7f	0.10952281
76	0x3b9dd522	0.004816667
77	0xbdeec2ac	-0.116582245
78	0x3cd88432	0.026430223
79	0x3cec4066	0.028839301
80	0xbd9be678	-0.07612318
81	0xbd127fbe	-0.035766356
82	0xbdf2afa3	-0.11849906
83	0xbdf64686	-0.1202517
84	0x3d97ee50	0.074185014
85	0xbdd7ef48	-0.10543686
86	0xbdc4da7f	-0.09611987
87	0x3c4b5744	0.012410942
88	0xbe1126aa	-0.14174905
89	0x3d21f178	0.039536923
90	0xbdb613e4	-0.088905126
91	0x3da4fc85	0.08055977
92	0xbceac2b8	-0.028657302
93	0x3d5bf49b	0.05370007
94	0x3e1d09ca	0.15335765
95	0x3db8f26f	0.090306155
96	0xbd84fe79	-0.06493849
97	0x3c66427c	0.014053937
98	0xbd4af1d4	-0.04954703
99	0xbda27390	-0.07932198
100	0x3d2cd980	0.04219961
101	0xbd8a1d5f	-0.06743883
102	0xbd5c3177	-0.05375811
103	0xbd8dcedf	-0.06924223
104	0x3b67ca00	0.0035368204
105	0xbd1457e8	-0.036216646
106	0x3d5936a8	0.05303064
107	0x3deedb73	0.1166295
108	0x3cced1fb	0.02524661
109	0xb9e28038	-0.0004320161
110	0x3d82bb29	0.06383354
111	0xbd6607b5	-0.056159694
112	0x3cc88263	0.024476236
113	0xbdbdb19e	-0.092623934
114	0xbd20e1b5	-0.03927775
115	0x3de10c6f	0.109887
116	0x3d3760cc	0.044770047
117	0xbbd63020	-0.0065364987
118	0x3d9ffc93	0.078118466
119	0xbdbcce43	-0.09219029
120	0xbc615ada	-0.013754571
121	0xbdc58df2	-0.096462145
122	0xbe0ec6f5	-0.13943084
123	0xbde32fa1	-0.11093069
124	0xbde5301c	-0.11190817
125	0xbdbcc601	-0.09217454
126	0xbd969cd9	-0.07354135
127	0xbd648f01	-0.05580044
128	0x3dfd63f2	0.12372579
129	0xbd6b0a0b	-0.057382625
130	0x3d7ede8f	0.062223967
131	0x3dffca2e	0.124897346
132	0x3e00afa3	0.12567
133	0x3d9076b1	0.070538886
134	0xbc0adca9	-0.008475461
135	0x3c3859d3	0.0112518845
136	0xbcd1ef57	-0.025626821
137	0x3d4d9053	0.050186466
138	0xbd242b81	-0.04008055
139	0xbd986807	-0.07441717
140	0xbda8b9e2	-0.08238579
141	0x3e00468c	0.12526911
142	0x3d91d606	0.071209
143	0xbc23d02e	-0.009998364
144	0x3d3c6847	0.045997884
145	0x3e102163	0.14075236
146	0x3e19a310	0.1500361
147	0x3dea9c16	0.11455552
148	0x3d9b00e9	0.07568533
149	0x3dddf389	0.10837466
150	0x3d888329	0.06665642
151	0x3d7b8d69	0.061414156
152	0xbd3fe0d5	-0.046845276
153	0xbdc3b86d	-0.09556661
154	0xbdbb8764	-0.09156683
155	0xbe22b7bf	-0.15890406
156	0xbde593e8	-0.112098515
157	0xbda6ff2c	-0.08154139
158	0xbe0d75af	-0.13814424
159	0x3dff24c8	0.12458187
160	0x3db30b2c	0.08742365
161	0xbd0c0faa	-0.034194626
162	0x3d8824c8	0.066476405
163	0xbd9f4643	-0.07777073
164	0xbe044cdb	-0.12919943
165	0xbd86c21e	-0.06579994
166	0xbe03ea51	-0.12882353
167	0xbe0a2790	-0.13491654
168	0xbd696e0b	-0.05698971
169	0xbd16090f	-0.036629733
170	0xbd58602e	-0.0528261
171	0x3d228d18	0.03968534
172	0x3e214b6d	0.15751429
173	0x3d24fb68	0.040278822
174	0xbd318707	-0.043341663
175	0x3d8a1f48	0.06744248
176	0xbd218902	-0.0394373
177	0x3cc286d8	0.02374594
178	0xbd0fdd44	-0.035123125
179	0xbd428bd5	-0.047496635
180	0xbdcc98d3	-0.099900864
181	0x3ca24a65	0.019810865
182	0xbd94d667	-0.072674565
183	0x3dce6b61	0.10079075
184	0x3dbab780	0.09117031
185	0x3d884e12	0.06655516
186	0xbacd6388	-0.0015669921
187	0x3dad6a8a	0.08467586
188	0x3daac26d	0.08337865
189	0xbdc1a617	-0.09455507
190	0xbd8f818a	-0.070071295
191	0xbd3d2e4c	-0.04618673
192	0xbe00a474	-0.12562734
193	0xbdb844b3	-0.08997478
194	0xbcff37f9	-0.03115462
195	0xbd52b6c8	-0.051443845
196	0xbda5b032	-0.08090247
197	0x3d56f680	0.052481174
198	0xbd1f1796	-0.038840853
199	0xbc582aa3	-0.013193759
200	0xbc92c982	-0.017918352
201	0x3db2d8ff	0.08732795
202	0x3e2aec51	0.1669171
203	0x3e040797	0.1289352
204	0x3c3bd833	0.01146512
205	0x3ded79aa	0.11595471
206	0xbc9c6699	-0.019091891
207	0x3d81f1ad	0.06344924
208	0xbd12af7a	-0.03581188
209	0xbba5485b	-0.005044026
210	0x3d52f5fe	0.051504128
211	0x3d3e528d	0.046465445
212	0x3dcb3336	0.09921877
213	0xbd95618d	-0.07293997
214	0xbd4c07cd	-0.049812127
215	0x3d795f59	0.060881946
216	0xbe00942b	-0.12556522
217	0xbe0ae4a0	-0.13563776
218	0xbdc696ef	-0.09696757
219	0xbe1ee757	-0.15517937
220	0xbe1ad662	-0.15120843
221	0xbe2a2cde	-0.16618678
222	0xbde85b55	-0.11345545
223	0xbd81bf03	-0.06335261
224	0xbe26889d	-0.16263051
225	0x3dbf5658	0.09342641
226	0x3d9b28ea	0.07576163
227	0x3d9c7847	0.076401286
228	0x3dc0a8c1	0.09407187
229	0x3d9740a8	0.07385379
230	0xbc3dd188	-0.011585601
231	0xbd5c6356	-0.05380567
232	0x3c954f81	0.018226387
233	0xbd3a43f8	-0.045474976
234	0xbe06799b	-0.13132326
235	0xbc8e1410	-0.01734355
236	0x3dc60635	0.09669153
237	0xbdd7fc87	-0.10546213
238	0x3d759e94	0.059965685
239	0x3d8f9104	0.070100814
240	0xbdefc2ca	-0.11707075
241	0x3cbafc65	0.02282543
242	0x3c7507a6	0.014955437
243	0xbd274abc	-0.040842757
244	0x3d08c035	0.033386428
245	0x3d900412	0.07032026
246	0xbdac32cb	-0.084081255
247	0xbe0ed26f	-0.13947462
248	0xbd1c2abc	-0.038126692
249	0x3c38b2d6	0.011273107
250	0xbdcfb6dc	-0.101422995
251	0x3d33cf83	0.04389907
252	0xbbd8696f	-0.0066043655
253	0xbdf6e385	-0.12055115
254	0xbc91f335	-0.017816165
255	0xbdf59eea	-0.11993201

layer2.0.bn1.weight f4 [32]
0	0x3f5b71d8	0.85720587
1	0x3f7a00ee	0.9765767
2	0x3f749c92	0.9555141
3	0x3f8c2d07	1.0951241
4	0x3f7ab0d8	0.9792609
5	0x3f884220	1.064518
6	0x3f6633a1	0.8992253
7	0x3f83b1ea	1.028867
8	0x3f6837f5	0.90710384
9	0x3f79985f	0.97498125
10	0x3f74cfbe	0.9562949
11	0x3f6d3b8d	0.9266899
12	0x3f8441bb	1.0332559
13	0x3f8a1e37	1.0790471
14	0x3f75b20a	0.9597479
15	0x3f87ce42	1.060982
16	0x3f79531a	0.9739243
17	0x3f80a0a8	1.0049028
18	0x3f811520	1.0084572
19	0x3f8e92cd	1.113855
20	0x3f78563b	0.9700658
21	0x3f82baa8	1.0213213
22	0x3f770817	0.9649672
23	0x3f717bfe	0.9432982
24	0x3f5c4500	0.86042786
25	0x3f7ebf69	0.9951082
26	0x3f6b5145	0.9192088
27	0x3f806ba6	1.0032852
28	0x3f85bc11	1.0448018
29	0x3f96ff5d	1.1796681
30	0x3f67e06c	0.90576816
31	0x3f839d58	1.0282393
