resnet/resnet.ckpt (torch, 815633 bytes, 77 tensors)

conv.weight f4 [16, 3, 3, 3]
0.18683676 -0.12180959 -0.010183967 0.025556376 0.0624168 -0.0011758037 -0.037358347 -0.050355062
0.043787498 -0.10384294 0.16329747 0.05915143 -0.18100812 -0.059035435 0.03749667 -0.0014770251
-0.11369177 -0.04176436 -0.17429313 0.1121468 -0.0227256 -0.08576565 0.08278068 -0.02512709
0.070606254 0.027211195 0.08139823 -0.07584047 0.013840166 -0.023187337 -0.01928951 -0.06274796
-0.16107212 0.038787186 0.1013937 0.19032606 -0.17103937 -0.032417573 -0.042983193 -0.120452195
0.010592326 -0.06489374 -0.08327295 0.19947821 0.039273545 0.015103141 0.08695166 -0.0429709
-0.15047109 0.1697382 -0.012244138 -0.060674883 0.18140362 0.006727967 0.15576029 -0.15850979
-0.056703787 0.16294466 0.0063383165 -0.05631901 -0.13098796 -0.10782841 -0.0026118257 0.1810631
-0.10946433 -0.19103822 0.06165272 0.103053994 -0.024771625 0.10547684 -0.13786846 -0.017534336
-0.079671435 -0.09844767 -0.09305773 0.16888532 0.12933803 0.06585326 0.039046258 0.052521776
0.05473036 0.08339925 0.1475146 0.009758279 -0.056064054 0.07173178 -0.20202646 0.17889726
0.047813773 -0.05490035 -0.09376537 0.19635795 0.18176457 0.06301121 -0.18318337 -0.13440485
-0.17807622 0.08297495 -0.1860096 -0.11465082 -0.15627421 0.1615822 0.08994629 -0.04975468
0.1728593 -0.02435534 -0.21361692 0.1538471 -0.025834372 -0.13774876 0.033524614 0.21303739
0.09454915 -0.08316445 -0.013260376 -0.13858393 -0.17849556 -0.13611463 0.0828328 0.063962385
0.09718125 -0.05552889 0.14580245 -0.06252849 0.09202221 0.032191936 0.12439498 -0.07023002
0.14367639 -0.16328233 -0.12404104 0.07184235 -0.19993386 0.044057567 0.08266966 -0.042262148
-0.1322186 0.14028533 -0.10965496 0.07515649 0.04533798 -0.10751161 -0.012189814 0.016973639
0.13292441 -0.21408175 0.15365785 0.02869681 -0.17942207 0.14910775 0.048987374 -0.040812414
0.07719717 -0.03863508 -0.20265204 -0.058412775 -0.12457499 -8.538569e-05 0.13970256 0.11661342
0.046350487 -0.12351877 -0.115695156 -0.0017059185 0.039264895 0.11573505 -0.02521532 -0.090955734
0.05965388 0.03639319 -0.035421543 -0.1265745 0.10518424 -0.04643975 -0.113162145 -0.12719609
-0.22480072 0.15513346 -0.108666345 -0.03603451 -0.019313158 -0.00077302544 -0.059142698 -0.16069852
-0.017093068 0.011081245 0.06610066 0.08376931 0.15794897 0.0046126293 -0.015219098 -0.18511672
0.052412376 -0.039187804 0.009661724 -0.13207553 0.13560161 -0.1756684 -0.10066458 0.13479687
-0.06750159 -0.20134749 -0.094177656 -0.19279452 0.06879036 0.12161393 0.08817624 0.09757047
0.2227033 0.13488497 0.08449377 -0.01706378 0.10667514 0.056306537 -0.022578403 -0.056139577
0.065558456 0.07956664 0.041921977 -0.13642997 -0.050656002 -0.02767569 -0.15090467 0.02796521
-0.054359768 0.18437108 0.1748406 0.21927848 0.1812727 0.14571378 -0.07993631 -0.08077983
0.07700966 0.0052933693 -0.06586043 -0.06650593 -0.16412848 0.15075481 0.05000178 0.18726964
-0.04768473 0.025162334 0.06905093 -0.0059709004 -0.017256353 -0.1626795 -0.06583618 -0.21025725
-0.030882392 0.17459577 0.13542834 0.085364744 0.09323245 0.042326123 0.16636565 -0.1548909
00000000: 2352 3f3e 4e77 f9bd a7da 26bc 9b5b d13c
00000010: c2a8 7f3d 6d1d 9aba 1105 19bd 1c41 4ebd
00000020: 855a 333d 9bab d4bd 7437 273e c548 723d
00000030: 315a 39be 24cf 71bd 1c96 193d bd98 c1ba
00000040: 3bd7 e8bd 1b11 2bbd e679 32be 39ad e53d
00000050: 0a2b babc e7a5 afbd eb88 a93d 54d7 cdbc
00000060: 039a 903d 03ea de3c 1db4 a63d 4052 9bbd
00000070: ddc1 623c 5ff3 bdbc 0905 9ebc 0182 80bd
00000080: 17f0 24be 50df 1e3d 80a7 cf3d d6e4 423e
00000090: f224 2fbe 4ac8 04bd 250f 30bd a4af f6bd
000000a0: 6f8b 2d3c 02e7 84bd 028b aabd 0444 4c3e
000000b0: 4cdd 203d 2a73 773c b613 b23d 4102 30bd
000000c0: 1815 1abe dacf 2d3e a39b 48bc 3a86 78bd
000000d0: dfc1 393e 4776 dc3b a07f 1f3e 6450 22be
000000e0: 3b42 68bd f7da 263e a7b1 cf3b c3ae 66bd
000000f0: b521 06be 24d5 dcbd 2a2b 2bbb 9b68 393e
00000100: d62e e0bd 869f 43be 9087 7c3d f90d d33d
00000110: dded cabc 3e04 d83d 642d 0dbe 2ba4 8fbc
00000120: c72a a3bd ef9e c9bd 0d95 bebd 46f0 2c3e
00000130: 3071 043e 13de 863d f8ee 1f3d 1321 573d
00000140: f12c 603d 3acd aa3d 110e 173e 30e1 1f3c
00000150: 6ca3 65bd 1de8 923d 06e0 4ebe d830 373e
00000160: 60d8 433d 30df 60bd 0f08 c0bd 0f12 493e
00000170: 7e20 3a3e 050c 813d 6c94 3bbe 6da1 09be
00000180: 9d59 36be c5ee a93d 4d79 3ebe 0dce eabd
00000190: 5906 20be ce75 253e c335 b83d 90cb 4bbd
000001a0: 0702 313e da84 c7bc 65be 5abe 188a 1d3e
000001b0: 9ba2 d3bc 030e 0dbe 1b51 093d 7926 5a3e
000001c0: fca2 c13d 2052 aabd 0c42 59bc f2e8 0dbe
000001d0: 8ac7 36be a261 0bbe 3ea4 a93d b6fe 823d
000001e0: f706 c73d 4372 63bd 3d4d 153e f00e 80bd
000001f0: 2476 bc3d b1db 033d ccc2 fe3d c2d4 8fbd
00000200: e71f 133e 7c33 27be 3b09 febd 1522 933d
00000210: 76bb 4cbe b575 343d b64e a93d 131b 2dbd
00000220: 5064 07be f5a6 0f3e c892 e0bd a5eb 993d
00000230: 51b4 393d 0c2f dcbd c9b7 47bc 4d0c 8b3c
00000240: 561d 083e 3f38 5bbe 7c58 1d3e 9315 eb3c
00000250: 6bba 37be b4af 183e fca6 483d eb2a 27bd
00000260: 8d19 9e3d d13f 1ebd 0484 4fbe 3c42 6fbd
00000270: 2c21 ffbd 1811 b3b8 300e 0f3e 04d3 ee3d
00000280: 02da 3d3d 69f7 fcbd 95f1 ecbd 2099 dfba
00000290: 3ad4 203d 7f06 ed3d 5c90 cebc 0047 babd
000002a0: a057 743d 0711 153d 2e16 11bd bf9c 01be
000002b0: d66a d73d 9b37 3ebd 8ec1 e7bd b13f 02be
000002c0: 2932 66be 4edb 1e3e 768c debd ec98 13bd
000002d0: a136 9ebc dca4 4aba 9d3f 72bd 278e 24be
000002e0: c306 8cbc 1c8e 353c c85f 873d 3e8f ab3d
000002f0: 60bd 213e 8a25 973b 8659 79bc 3d8f 3dbe
00000300: 5cae 563d 6483 20bd 354c 1e3c cf3e 07be
00000310: 26db 0a3e 6be2 33be 3b29 cebd 3108 0a3e
00000320: 463e 8abd 092e 4ebe 37e0 c0bd ed6b 45be
00000330: f6e1 8c3d b910 f93d bf95 b43d 07d3 c73d
00000340: 550c 643e 491f 0a3e 120b ad3d 57c9 8bbc
00000350: 7f78 da3d afa1 663d 58f6 b8bc 9df2 65bd
00000360: 8343 863d d6f3 a23d 61b6 2b3d 4cb4 0bbe
00000370: ab7c 4fbd 21b8 e2bc c186 1abe 4c17 e53c
00000380: 59a8 5ebd c6cb 3c3e 6a09 333e 8a8a 603e
00000390: 8d9f 393e fe35 153e a6b5 a3bd e56f a5bd
000003a0: 3eb7 9d3d 0074 ad3b d5e1 86bd 4334 88bd
000003b0: 4c11 28be 785f 1a3e abce 4c3d 9dc3 3f3e
000003c0: 1051 43bd 3d21 ce3c 936a 8d3d 8ba7 c3bb
000003d0: 325d 8dbc 7495 26be 1ed5 86bd ad4d 57be
000003e0: 12fd fcbc 3cc9 323e baad 0a3e b6d3 ae3d
000003f0: a8f0 be3d 285e 2d3d c25b 2a3e b89b 1ebe

bn.weight f4 [16]
1.0303512 1.0207891 1.0451816 1.0295776 0.9610038 1.0160013 0.9918909 0.96925884
0.8990428 1.0392088 0.94810885 1.0231376 1.0181183 0.940851 0.9891846 1.0295749
00000000: 8ce2 833f 38a9 823f 83c8 853f 33c9 833f
00000010: 5804 763f 550c 823f 90ec 7d3f 5921 783f
00000020: ab27 663f cb04 853f 43b7 723f 2cf6 823f
00000030: b351 823f 9cdb 703f 343b 7d3f 1cc9 833f

bn.bias f4 [16]
-0.02301629 0.1379099 0.17999737 0.13073711 0.12543961 -0.027393067 -0.036283534 0.00975417
-0.011571278 0.072373606 -0.031630307 0.0852829 0.16902585 -0.01723662 0.13523203 0.09135741
00000000: a98c bcbc 4138 0d3e 3b51 383e f3df 053e
00000010: 3e73 003e 6d67 e0bc 0b9e 14bd f4cf 1f3c
00000020: 7595 3dbc 9d38 943d c88e 01bd cda8 ae3d
00000030: 1d15 2d3e d033 8dbc 447a 0a3e 9819 bb3d

bn.running_mean f4 [16]
-0.03668617 -0.034750495 0.004737994 -0.0046778936 -0.02940457 -0.100751266 -0.22938016 -0.011815159
0.35020494 0.010479344 0.20084794 0.041086797 0.013614884 0.25666404 0.05930694 0.026839357
00000000: 3d44 16bd 8956 0ebd 2d41 9b3b 0449 99bb
00000010: dae1 f0bc ae56 cebd a2e2 6abe 5e94 41bc
00000020: 104e b33e 8eb1 2b3c 15ab 4d3e a14a 283d
00000030: f610 5f3c 7869 833e d5eb 723d 36de db3c

bn.running_var f4 [16]
0.0025533163 0.014052918 0.014369971 0.0056941486 0.0045870873 0.009845146 0.016516259 0.0085214265
0.03418716 0.0018105869 0.012879929 0.010210203 0.0025570465 0.0214794 0.009951059 0.004805463
00000000: 8a55 273b 363e 663c 0770 6b3c fb95 ba3b
00000010: 474f 963b 894d 213c 1b4d 873c 749d 0b3c
00000020: d607 0c3d 3751 ed3a 5606 533c b248 273c
00000030: 1f94 273b 91f5 af3c c409 233c 2577 9d3b

layer1.0.conv1.weight f4 [16, 16, 3, 3]
-0.032409772 -0.06381897 -0.06783841 0.02495456 -0.11398896 0.055678993 0.0077047297 0.0048874766
0.074092716 -0.0065373 -0.12890577 0.034919348 -0.020748379 -0.027729025 0.060031697 -0.025104165
-0.011152043 0.07753901 -0.05652028 0.03501806 -0.14599195 0.0016752179 0.09620336 -0.1365138
0.051202297 0.03809477 -0.045898996 0.028181296 0.03939732 0.06411557 -0.041477256 -0.0627692
0.07671301 -0.13867447 -0.011893022 0.054333623 -0.017783267 0.011753825 -0.0037776893 -0.008306117
0.021243826 0.049068093 -0.013262429 -0.022362672 -0.0015749619 -0.03050149 -0.04681753 -0.1014804
-0.13262114 0.0036227396 -0.035343137 -0.02782377 0.055714887 0.044083077 0.07136459 -0.024114614
-0.051170204 0.044191625 0.040317714 0.021067657 -0.04322671 -0.05423242 0.039918933 0.0059593283
-0.023989294 0.026362298 -0.035352327 -0.051117614 0.05585941 0.04876837 -0.03147009 0.016972397
-0.04646457 0.09005222 -0.03485916 0.01925801 -0.05105338 -0.039411213 -0.03127088 0.017514464
-0.045639683 0.015829775 0.052695174 -0.00825008 -0.06238085 0.026821133 -0.07409353 0.032586087
-0.09612001 -0.018083027 0.017825719 0.0669134 -0.051941372 -0.037451066 -0.0024430281 0.086971916
0.0033243452 0.06435161 0.0020571363 0.03905393 -0.08066442 -0.06674357 0.121155225 -0.105946176
-0.015253207 -0.016678944 0.0005089514 -0.006005859 0.008242216 -0.049807884 0.03748128 -0.0038131694
-0.1210886 0.069733016 0.044887315 -0.037621524 -0.028022658 -0.06854497 0.004380566 0.0390003
0.07343673 0.019425629 -0.06214441 -0.002459979 0.014608711 -0.054700185 -0.0050309813 -0.08536539
-0.0015389964 -0.032290466 -0.05377661 0.12407435 -0.017871803 0.0165703 -0.05759348 0.0040624826
-0.106549025 0.09685226 0.041512836 -0.09320167 0.08677368 -0.0428526 0.038252946 0.033446815
-0.032520577 0.020087551 -0.083502345 0.017383713 0.09930659 -0.03094161 0.034799185 0.041075632
-0.03639944 0.03466485 0.031883884 -0.08343376 0.053650532 0.026906699 0.047790743 0.071126334
0.0029276216 -0.061156634 -0.0013703326 0.00946224 0.01662908 -0.046765044 -0.10600395 0.07291994
0.05128555 -0.10279025 -0.018764371 0.057530247 -0.034662645 -0.09538951 0.040339813 0.10871518
-0.037233807 -0.05885168 0.04941679 0.0055137877 0.05955767 0.03342748 -0.035181884 -0.011395224
-0.048166454 -0.047627456 0.038268477 -0.06779305 0.06736442 0.05077936 -0.006695371 -0.06324634
0.03845072 -0.0726914 0.044518836 0.042623468 -0.058030132 -0.0007046433 -0.050345827 0.012114686
0.026626576 -0.049895182 0.04998205 -0.025980633 0.06623348 0.024845012 -0.06951262 -0.04889175
0.010058563 0.09995158 -0.08532138 0.061994333 0.0375537 -0.005742704 -0.09076447 -0.04120155
0.05715139 -0.047057204 0.02423979 0.022629295 -0.05902287 0.027142143 0.08150955 -0.021486728
-0.03228578 0.0539971 0.08865608 0.054069303 -0.052287307 0.09819623 0.035417594 -0.046733543
-0.010782533 0.087763414 0.035782218 0.041024055 -0.051704083 -0.061500702 -0.047849093 0.017250098
-0.048374537 0.042504065 -0.009782752 -0.09792222 0.054566983 0.08918419 0.043489013 0.053365473
0.020708619 -0.05821367 0.08712458 -0.059900574 -0.07691225 -0.05520882 0.08013017 -0.1499171
00000000: 1cc0 04bd 85b3 82bd ddee 8abd 816d cc3c
00000010: 0b73 e9bd a80f 643d f577 fc3b 2027 a03b
00000020: ecbd 973d d936 d6bb e0ff 03be 9707 0f3d
00000030: 81f8 a9bc fb27 e3bc cce3 753d 40a7 cdbc
00000040: 0fb7 36bc c6cc 9e3d cf81 67bd 196f 0f3d
00000050: ea7e 15be fc92 db3a 4406 c53d 46ca 0bbe
00000060: 80b9 513d 4309 1c3d 9600 3cbd 76dc e63c
00000070: 165f 213d 064f 833d 0ee4 29bd 238d 80bd
00000080: b61b 9d3d ae00 0ebe f3da 42bc ef8c 5e3d
00000090: 37ae 91bc 1d93 403c 1c93 77bb 6116 08bc
000000a0: 8807 ae3c a0fb 483d a94a 59bc ec31 b7bc
000000b0: f46e ceba 43de f9bc bdc3 3fbd f5d4 cfbd
000000c0: d6cd 07be 7c6b 6d3b f7c3 10bd adee e3bc
000000d0: 4b35 643d 7590 343d 9927 923d 038c c5bc
000000e0: d997 51bd 4702 353d 3024 253d 1496 ac3c
000000f0: 7e0e 31bd d022 5ebd 0982 233d 7846 c33b
00000100: 3285 c4bc bff5 d73c 9acd 10bd b460 51bd
00000110: d6cc 643d 58c1 473d c8e6 00bd b209 8b3c
00000120: a251 3ebd 4c6d b83d 7bc8 0ebd f9c2 9d3c
00000130: 591d 51bd a76d 21bd e515 00bd 7e7a 8f3c
00000140: adf0 3abd 72ad 813c e5d6 573d 582b 07bc
00000150: 1083 7fbd feb7 db3c 59be 97bd fd78 053d
00000160: 91da c4bd db22 94bc 3e07 923c e509 893d
00000170: 7ac0 54bd 4a66 19bd 361b 20bb 551e b23d
00000180: 42dd 593b c7ca 833d 05d1 063b 04f7 1f3d
00000190: 6333 a5bd dab0 88bd 3b20 f83d 4ffa d8bd
000001a0: 96e8 79bc 48a2 88bc 266b 053a cccc c4bb
000001b0: 5c0a 073c 5a03 4cbd f885 193d 5ee6 79bb
000001c0: 4dfd f7bd 2fd0 8e3d c3db 373d 0719 1abd
000001d0: c68f e5bc 4e61 8cbd da8a 8f3b c7be 1f3d
000001e0: ff65 963d 7f22 9f3c 238b 7ebd 9937 21bb
000001f0: 6059 6f3c 4d0d 60bd eeda a4bb 0dd4 aebd
00000200: 26b8 c9ba 0243 04bd dd44 5cbd b11a fe3d
00000210: e367 92bc 70be 873c 24e7 6bbd 931e 853b
00000220: 6036 dabd 7a5a c63d 5d09 2a3d 84e0 bebd
00000230: 66b6 b13d 3586 2fbd 1faf 1c3d 87ff 083d
00000240: 4c34 05bd a68e a43c 4703 abbd 4a68 8e3c
00000250: 4161 cb3d 4279 fdbc 9789 0e3d ec3e 283d
00000260: 9417 15bd bbfc 0d3d ad98 023d 52df aabd
00000270: a9c0 5b3d 706b dc3c 3ac0 433d afaa 913d
00000280: 57dd 3f3b 617f 7abd bb9c b3ba 8307 1b3c
00000290: b539 883c b48c 3fbd 9918 d9bd 0d57 953d
000002a0: cc10 523d b283 d2bd bdb7 99bc d6a4 6b3d
000002b0: 6bfa 0dbd 935b c3bd 5c3b 253d 10a6 de3d
000002c0: 7a82 18bd 760e 71bd 4369 4a3d 01ad b43b
000002d0: bef2 733d 41eb 083d e11a 10bd 09b3 3abc
000002e0: 304a 45bd 0215 43bd 68bf 1c3d 15d7 8abd
000002f0: 5bf6 893d 05fe 4f3d d864 dbbb 4c87 81bd
00000300: 817e 1d3d 3bdf 94bd 6259 363d f295 2e3d
00000310: 01b1 6dbd d0b7 38ba 6d37 4ebd ad7c 463c
00000320: fa1f da3c e45e 4cbd fab9 4c3d 56d5 d4bc
00000330: 6ba5 873d c487 cb3c a25c 8ebd b742 48bd
00000340: accc 243c 6ab3 cc3d fabc aebd c5ed 7d3d
00000350: e9d1 193d 4b2d bcbb b9e2 b9bd f5c2 28bd
00000360: 9317 6a3d 0ebf 40bd 8692 c63c 1261 b93c
00000370: f7c1 71bd 3359 de3c 7bee a63d ef04 b0bc
00000380: 183e 04bd 102c 5d3d 5291 b53d c677 5d3d
00000390: 372b 56bd 1b1b c93d 0a12 113d ac6b 3fbd
000003a0: 39a9 30bc 4ebd b33d 6090 123d d708 283d
000003b0: a9c7 53bd 29e8 7bbd 69fd 43bd 1450 8d3c
000003c0: 6124 46bd be18 2e3d d647 20bc 728b c8bd
000003d0: a181 5f3d 33a6 b63d 8921 323d c195 5a3d
000003e0: 1fa5 a93c 7571 6ebd 5f6e b23d 4e5a 75bd
000003f0: 2b84 9dbd a522 62bd 491b a43d de83 19be

layer1.0.bn1.weight f4 [16]
1.138889 1.0211651 0.96055675 1.0150499 0.97081983 1.0078233 1.0108993 0.9866258
0.9879144 0.9973921 0.9442396 1.0184255 0.97828233 1.0141081 0.98814136 1.0256491
00000000: 1dc7 913f 8ab5 823f 0ce7 753f 28ed 813f
00000010: a687 783f 5b00 813f 2665 813f 8293 7c3f
00000020: f5e7 7c3f 1755 7f3f b0b9 713f c45b 823f
00000030: b670 7a3f 4bce 813f d5f6 7c3f 7848 833f

layer1.0.bn1.bias f4 [16]
0.17646419 0.012305996 -0.009424866 0.0365941 -0.0701551 -0.0036582048 -0.009165592 -0.0072733676
-0.013418153 -0.015492575 -0.042599067 0.009332291 -0.030980255 -0.007617254 0.006250712 0.041142296
00000000: 07b3 343e 179f 493c c16a 1abc b2e3 153d
00000010: 7aad 8fbd 7ebe 6fbb 472b 16bc 6e55 eebb
00000020: d0d7 5bbc 92d4 7dbc 5c7c 2ebd 77e6 183c
00000030: 4eca fdbc 289a f9bb c6d2 cc3b d384 283d

layer1.0.bn1.running_mean f4 [16]
-0.4108163 0.027468968 -0.035138033 -0.15137745 0.38237205 -0.87168396 -0.3653485 0.00546759
-0.14431992 -0.32664782 -0.2917015 -0.30471733 -0.030215751 -0.64717495 -0.3322675 -0.329286
00000000: 8456 d2be 9a06 e13c e6ec 0fbd b102 1bbe
00000010: 45c6 c33e ae26 5fbf f50e bbbe 7829 b33b
00000020: 9ac8 13be 623e a7be e659 95be e903 9cbe
00000030: 0687 f7bc 42ad 25bf f71e aabe 2d98 a8be

layer1.0.bn1.running_var f4 [16]
0.41332892 0.24637035 0.2837797 0.31119883 0.20864251 0.28586075 0.29873815 0.25459716
0.1984042 0.28693405 0.24565311 0.20077074 0.3177556 0.2137447 0.19652236 0.18851341
00000000: d99f d33e 8248 7c3e 934b 913e 7455 9f3e
00000010: 62a6 553e 575c 923e 35f4 983e 8f5a 823e
00000020: 782a 4b3e 05e9 923e 7d8c 7b3e d896 4d3e
00000030: ddb0 a23e e4df 5a3e 283d 493e a909 413e

layer1.0.conv2.weight f4 [16, 16, 3, 3]
0.043182954 -0.0030277693 -0.07375763 0.08247731 -0.119166866 -0.010701132 0.1357336 -0.051523563
-0.05668584 0.049491435 -0.052147124 -0.07197774 0.050948523 0.059923112 -0.025796687 -0.0048615215
-0.06836353 0.042712763 -0.0046194564 -0.021236688 0.11462537 -0.0989837 0.03828714 0.051723234
-0.091541454 -0.01051013 0.041706763 -0.09438104 -0.031545784 -0.03206956 0.06590716 0.036019824
0.038027856 0.0072192424 -0.09638198 0.06190858 0.010547998 0.032607563 -0.029834377 0.0051222364
0.070367575 0.02811501 0.00044460926 -0.015060008 -0.024236439 -0.00049692654 0.036773622 0.047334537
0.067088716 -0.04113118 -0.018245643 -0.09184982 0.048740182 0.08135667 -0.09423104 0.093828216
0.08632395 0.031381335 0.13392214 0.015798971 -0.04325989 -0.05550054 0.07722293 -0.053982
0.09330976 0.03266407 -0.010208531 0.06849105 -0.052622326 0.057652928 0.01777281 -0.052701138
-0.059963968 -0.10951219 -0.01308842 -0.040999386 -0.011957799 -0.001443352 0.070187934 -0.07529445
0.046205826 0.03696031 -0.027362356 -0.049113978 -0.0032465856 0.01758683 -0.048101176 -0.043520935
0.09155623 -0.005461559 0.011109004 0.07843948 0.04363327 0.023904806 -0.06166855 -0.07794007
-0.024040444 0.037597425 0.048481658 -0.04888507 -0.04192226 -0.027221203 -0.02109533 0.068625025
-0.028581245 0.014003439 0.009597881 0.07107501 -0.01284126 -0.012156042 0.031089189 0.019378662
-0.07107076 -0.029464997 -0.10960383 -0.06887494 -0.026358964 0.0037550332 -0.046991903 0.0037159575
0.044001296 0.05392873 0.11274125 -0.009468132 -0.11799365 0.008908973 -0.085718304 0.03803652
-0.018970294 -0.009418411 0.030592738 0.06725374 -0.013049845 0.043814227 0.10855544 -0.09953279
-0.10567607 -0.07461302 -0.033894356 -0.10106641 0.019353705 -0.018069135 0.04137806 -0.036399286
-0.01005562 0.021868166 0.04195782 -0.020246465 -0.0749919 0.108107604 -0.09313523 -0.09729137
0.08194733 0.065296285 0.008533824 0.014179764 -0.0064162016 0.0066393246 -0.101943806 0.007196396
-0.08305433 -0.021816391 -0.050546184 0.036071725 -0.08778525 -0.051387995 0.02457877 -0.06521526
0.0076945904 -0.10230812 -0.075639956 -0.014883613 0.014982852 -0.008708105 0.03249642 -0.01934816
-0.012233201 0.08761482 -0.038248375 -0.09330749 0.07410201 0.05961066 -0.007909771 0.08730485
0.009930582 0.011947819 -0.09343356 0.05128414 0.055750746 -0.05193762 -0.037389442 -0.078561656
-0.029835394 -0.055055175 -0.061619215 -0.0220153 0.13312076 0.0022171391 0.034412585 -0.04393689
-0.052896935 0.023753602 -0.054176714 0.0105307 0.0052989093 0.01795893 -0.084150754 -0.09910338
-0.01437873 -0.13150364 -0.08143176 0.030562002 -0.019642338 -0.045370057 0.0036569324 -0.065744065
0.049966745 -0.01867224 0.023665037 -0.07321881 0.09247488 0.104305595 0.025619237 0.08579332
-0.032104257 -0.102196105 0.020853544 0.0057860613 0.06695631 -0.04223728 -0.0026059344 0.013873765
0.028996766 -0.042764097 0.054159075 0.027590815 -0.033676066 0.05432217 -0.036561944 -0.014393763
-0.06858545 -0.12600367 -0.02050371 0.0290006 -0.01509274 -0.01818545 -0.12993355 -0.056165874
-0.059000555 0.0028841356 -0.049590368 -0.05679838 0.036842894 -0.0021307638 -0.082395 0.12032785
00000000: 9ce0 303d 8a6d 46bb 3e0e 97bd dde9 a83d
00000010: c20d f4bd cd53 2fbc c0fd 0a3e 5f0a 53bd
00000020: 692f 68bd 88b7 4a3d 3998 55bd 1169 93bd
00000030: 66af 503d f071 753d 9353 d3bc 664d 9fbb
00000040: 2e02 8cbd 94f3 2e3d cf5e 97bb 90f8 adbc
00000050: b5c0 ea3d f7b7 cabd fad2 1c3d bedb 533d
00000060: 167a bbbd ae32 2cbc b6d4 2a3d d94a c1bd
00000070: 2736 01bd 5f5b 03bd 55fa 863d 8689 133d
00000080: 19c3 1b3d 658f ec3b ea63 c5bd da93 7d3d
00000090: 83d1 2c3c 828f 053d 3967 f4bc 6fd8 a73b
000000a0: e01c 903d 7351 e63c 721a e939 40be 76bc
000000b0: 7f8b c6bc 2d44 02ba f09f 163d dce1 413d
000000c0: cf65 893d 2b79 28bd e377 95bc c21b bcbd
000000d0: c9a3 473d 539e a63d 34fc c0bd 0229 c03d
000000e0: 9cca b03d b789 003d e322 093e d86c 813c
000000f0: 4831 31bd 8954 63bd 0e27 9e3d 3b1c 5dbd
00000100: 3019 bf3d c3ca 053d af41 27bc 0945 8c3d
00000110: 828a 57bd 7a25 6c3d 4998 913c 26dd 57bd
00000120: c79c 75bd ed47 e0bd d070 56bc f9ee 27bd
00000130: a5ea 43bc db2e bdba b1be 8f3d fa33 9abd
00000140: 5242 3d3d b263 173d 0527 e0bc bd2b 49bd
00000150: abc4 54bb 4112 903c bd05 45bd 0243 32bd
00000160: d581 bb3d e1f6 b2bb 8a02 363c e1a4 a03d
00000170: cdb8 323d 03d4 c33c 2998 7cbd 0b9f 9fbd
00000180: 77f0 c4bc c2ff 193d b494 463d b63b 48bd
00000190: adb6 2bbd 00ff debc 1dd0 acbc 478b 8c3d
000001a0: 3723 eabc ae6e 653c 6e40 1d3c c68f 913d
000001b0: 2664 52bc 232a 47bc c1ae fe3c 00c0 9e3c
000001c0: 8c8d 91bd 9460 f1bc f977 e0bd 4e0e 8dbd
000001d0: c1ee d7bc 0117 763b 957a 40bd 6c87 733b
000001e0: b43a 343d 5fe4 5c3d e2e4 e63d 3920 1bbc
000001f0: a8a6 f1bd f1f6 113c 148d afbd 2fcc 1b3d
00000200: 9767 9bbc ae4f 1abc 9f9d fa3c 54bc 893d
00000210: 04cf 55bc 8c76 333d 5152 de3d d9d7 cbbd
00000220: b26c d8bd b6ce 98bd cfd4 0abd e8fb cebd
00000230: a98b 9e3c b905 94bc 0a7c 293d 6b17 15bd
00000240: 54c0 24bc de24 b33c f7db 2b3d eadb a5bc
00000250: 5a95 99bd 8567 dd3d afbd bebd b340 c7bd
00000260: 00d4 a73d 0fba 853d 74d1 0b3c 3e52 683c
00000270: 003f d2bb b18e d93b eac7 d0bd bfcf eb3b
00000280: 6318 aabd 4ab8 b2bc 8409 4fbd f2bf 133d
00000290: c1c8 b3bd 387c 52bd 6b59 c93c 948f 85bd
000002a0: e722 fc3b eb86 d1bd 1fe9 9abd 66da 73bc
000002b0: a37a 753c 71ac 0ebc f71a 053d 0880 9ebc
000002c0: c46d 48bc 666f b33d 54aa 1cbd ff17 bfbd
000002d0: cbc2 973d 4f2a 743d fc97 01bc e3cc b23d
000002e0: e1b3 223c c9c0 433c 185a bfbd 520f 523d
000002f0: e55a 643d 8bbc 54bd ac25 19bd efe4 a0bd
00000300: 5b69 f4bc 8981 61bd 6e64 7cbd 6e59 b4bc
00000310: cf50 083e 6c4d 113b 36f4 0c3d 2bf7 33bd
00000320: 75aa 58bd ea96 c23c 67e8 5dbd f588 2c3c
00000330: 79a2 ad3b 9b1e 933c 3b57 acbd b7f6 cabd
00000340: c494 6bbc e4a8 06be b2c5 a6bd 2a5d fa3c
00000350: f8e8 a0bc f4d5 39bd 25a9 6f3b d3a4 86bd
00000360: eea9 4c3d 87f6 98bc 2edd c13c bef3 95bd
00000370: 7863 bd3d 2c9e d53d 6fdf d13c 68b4 af3d
00000380: c17f 03bd 314c d1bd 0dd5 aa3c 0099 bd3b
00000390: 6420 893d 0001 2dbd 53c8 2abb ca4e 633c
000003a0: a08a ed3c 6829 2fbd e8d5 5d3d 2206 e23c
000003b0: eaef 09bd ec80 5e3d fac1 15bd d1d3 6bbc
000003c0: 8776 8cbd 1b07 01be 65f7 a7bc ab92 ed3c
000003d0: 8a47 77bc a7f9 94bc 4d0d 05be 300e 66bd
000003e0: 91aa 71bd c403 3d3b 451f 4bbd 6ba5 68bd
000003f0: 93e8 163d 49a4 0bbb b6be a8bd 736e f63d

layer1.0.bn2.weight f4 [16]
0.97024596 0.9011394 1.0004927 0.94113564 1.0702369 0.98776287 1.0495052 1.0269607
0.9908045 0.94416004 1.0112673 0.95851076 1.1479895 0.9797477 1.0041577 1.0020263
00000000: 0a62 783f 12b1 663f 2510 803f 44ee 703f
00000010: 86fd 883f 07de 7c3f 3056 863f 7373 833f
00000020: 5da5 7d3f 79b4 713f 3571 813f f660 753f
00000030: 52f1 923f bfd0 7a3f 3d88 803f 6642 803f

layer1.0.bn2.bias f4 [16]
0.023188252 -0.07653081 -0.028727237 0.0061300723 0.025448624 -0.044389125 0.074524805 0.0014449676
-0.0028817211 -0.027261902 0.020652309 -0.037875567 -0.06167077 0.003950395 -0.030972347 0.005615953
00000000: 4af5 bd3c 2fbc 9cbd 6255 ebbc c6de c83b
00000010: a279 d03c 5fd1 35bd 76a0 983d 1165 bd3a
00000020: 42db 3cbb 5a54 dfbc 082f a93c 6923 1bbd
00000030: 7d9a 7cbd 5172 813b b8b9 fdbc 0706 b83b

layer1.0.bn2.running_mean f4 [16]
-0.06382342 -0.48331448 -0.52660584 0.27527386 -0.31804612 0.19244717 -0.010087059 -0.030489827
-0.7071526 0.089187644 -0.052936222 -0.8140366 -0.0072617256 -0.318841 -0.20631225 0.2648111
00000000: dab5 82bd ff74 f7be a4cf 06bf b2f0 8c3e
00000010: f1d6 a2be df10 453e 3144 25bc cdc5 f9bc
00000020: f407 35bf 03a8 b63d a7d3 58bd b464 50bf
00000030: c5f3 edbb 213f a3be 8543 53be 5295 873e

layer1.0.bn2.running_var f4 [16]
0.23868607 0.36315516 0.22360267 0.19971363 0.20287731 0.18659085 0.15138766 0.245275
0.2947419 0.2793558 0.19083002 0.18669832 0.27537706 0.19044498 0.2068609 0.31265604
00000000: 1f6a 743e 79ef b93e 19f8 643e bb81 4c3e
00000010: 12bf 4f3e ac11 3f3e 5e05 1b3e 5f29 7b3e
00000020: 69e8 963e b907 8f3e f268 433e d82d 3f3e
00000030: 39fe 8c3e 0204 433e 58d3 533e 7414 a03e

layer1.1.conv1.weight f4 [16, 16, 3, 3]
-0.09030134 0.0869937 0.08928745 0.014080399 -0.096696496 0.038581613 -0.09492905 -0.121773444
0.030056147 0.036458615 -0.049891833 0.02098675 -0.051688112 -0.06661247 -0.01805273 0.058762427
0.07563352 -0.096355475 0.06464273 -0.017317465 -0.01491251 0.011094943 0.014772398 -0.06170052
0.106966265 0.011779738 -0.04323648 -0.02056531 0.07831155 -0.08513741 -0.059977796 0.031807672
-0.07299351 0.055806503 0.045767065 0.012525517 0.00991631 -0.008264482 -0.017408153 -0.059978414
0.01753276 -0.05634267 -0.03508261 0.06844766 -0.0607276 -0.013002091 0.03523634 -0.008431201
0.0030822868 -0.039453335 -0.07218114 -0.06503637 -0.05137207 0.013337089 -0.035533953 -0.052899923
-0.016783152 0.013118225 -0.04460774 -0.05067421 0.016190635 -0.13549173 0.044657025 0.066743575
-0.08594753 -0.02854733 -0.012280587 -0.097946905 -0.004904811 0.08477766 0.037816532 -0.01754189
-0.050012242 0.046638295 0.06842644 0.031988163 0.06787792 -0.03864281 -0.00870554 -0.004987004
-0.013308853 0.061195586 -0.043675587 -0.06725542 -0.050162204 0.016759837 0.052895583 0.026772847
-0.03089436 -0.014190452 -0.017394934 -0.016883437 -0.0035478843 0.07119137 -0.056823365 -0.044302437
0.072256036 0.07292271 -0.117631786 -0.07975495 0.021847026 0.01708717 0.09386309 -0.070503086
-0.052250028 0.028144302 0.06145376 -0.07465183 -0.077181384 0.111804515 -0.04198176 -0.03452183
-0.06505176 -0.056984514 0.10596201 -0.01570338 0.02851373 -0.11970648 -0.02459675 0.06217943
-0.07249663 0.087721765 0.052000374 -0.050168555 -0.057247724 -0.0070344997 0.046636358 0.02111527
0.060247954 0.0077163344 0.03485553 -0.010882143 -0.017247092 -0.034833837 0.053236924 0.035767063
-0.024800364 0.062956326 -0.091238484 -0.071122065 0.023889478 0.0004855245 0.06086702 -0.053107787
-0.019056514 -0.0397056 0.02191135 -0.07507349 0.012324257 -0.009007734 -0.04267414 -0.007501497
-0.016308045 0.04204423 0.060508437 0.031747814 0.062707834 -0.059816584 -0.06861342 -0.022414362
0.05136215 -0.05353248 0.056682598 0.06096339 -0.03823328 0.0017159869 -0.058906127 0.060361255
0.03955558 -0.043275516 -0.069467805 0.07013424 0.019609118 -0.03599783 -0.018826293 0.038144413
0.07328151 -0.017851299 0.099364005 -0.026214778 0.025701843 -0.097578555 -0.10817627 -0.04868841
-0.04839506 -0.02461197 0.011164366 0.028037285 0.07162616 0.06098331 -0.03259556 -0.06287214
-0.054068327 -0.02488448 0.059217807 -0.08399304 0.080187485 -0.011068335 0.051246695 -0.030915981
0.00284151 0.038234632 -0.08079502 -0.012336621 0.10798344 -0.009036624 -0.13708752 -0.05330452
0.02097945 -0.06862081 0.048820157 0.026807103 -0.063335076 -0.023966447 -0.023769103 0.083441965
-0.04536614 0.037437174 0.0031470351 -0.031777058 -0.06813957 0.03412153 -0.047944482 0.07260133
-0.0059709786 0.012245715 -0.028651679 -0.122178406 0.037247013 -0.049357694 -0.11665281 -0.08585293
0.010278502 -0.096427575 0.020278597 0.027746037 0.043694746 0.07354348 -0.060518146 -0.08722496
-0.059981115 0.032423474 -0.016640797 0.0958583 0.09974818 -0.044142555 0.09353434 0.04284743
0.025592545 -0.045835603 -0.012182642 -0.020043029 -0.049979255 -0.11253245 -0.07928459 -0.12668248
00000000: e9ef b8bd c129 b23d 57dc b63d 79b1 663c
00000010: d008 c6bd c107 1e3d 296a c2bd 5b64 f9bd
00000020: 4f38 f63c a155 153d 615b 4cbd 68ec ab3c
00000030: eab6 53bd 1e6c 88bd 52e3 93bc dfb0 703d
00000040: bfe5 9a3d 0556 c5bd 6863 843d 5bdd 8dbc
00000050: 9a53 74bc 90c7 353c ee07 723c afb9 7cbd
00000060: 2111 db3d cdff 403c bc18 31bd 9578 a8bc
00000070: ce61 a03d 865c aebd 47ab 75bd c348 023d
00000080: 9f7d 95bd 5c95 643d 3f76 3b3d d337 4d3c
00000090: 0578 223c c067 07bc 8b9b 8ebc edab 75bd
000000a0: dda0 8f3c 92c7 66bd c8b2 0fbd 492e 8c3d
000000b0: 81bd 78bd b906 55bc fb53 103d 0523 0abc
000000c0: 3100 4a3b d299 21bd b5d3 93bd ca31 85bd
000000d0: 856b 52bd ce83 5a3c 0d8c 11bd 97ad 58bd
000000e0: d27c 89bc d3ed 563c 9bb6 36bd c38f 4fbd
000000f0: 39a2 843c 58be 0abe 49ea 363d dbb0 883d
00000100: 4205 b0bd 17dc e9bc 8434 49bc 6398 c8bd
00000110: 89b8 a0bb e99f ad3d 82e5 1a3d 02b4 8fbc
00000120: a3d9 4cbd cc07 3f3d 2923 8c3d 0506 033d
00000130: 9403 8b3d ec47 1ebd aea1 0ebc 066a a3bb
00000140: 600d 5abc 39a8 7a3d 2ce5 32bd 36bd 89bd
00000150: e276 4dbd ed4b 893c 0aa9 583d bb52 db3c
00000160: 2b16 fdbc 127f 68bc d27f 8ebc 224f 8abc
00000170: 9f83 68bb c8cc 913d 9ebf 68bd 7976 35bd
00000180: f9fa 933d 8058 953d efe8 f0bd 9056 a3bd
00000190: 89f8 b23c 65fa 8b3c 4b3b c03d ec63 90bd
000001a0: 2004 56bd e18e e63c f0b6 7b3d 0fe3 98bd
000001b0: 4611 9ebd c4f9 e43d 11f5 2bbd c366 0dbd
000001c0: db39 85bd 9868 69bd 9c02 d93d 60a4 80bc
000001d0: a095 e93c ac28 f5bd 207f c9bc dcaf 7e3d
000001e0: 1d79 94bd 78a7 b33d 58fe 543d 8b7d 4dbd
000001f0: 977c 6abd a981 e6bb c405 3f3d eef9 ac3c
00000200: 8fc6 763d 4ed9 fc3b acc4 0e3d 044b 32bc
00000210: c649 8dbc edad 0ebd f60e 5a3d 7c80 123d
00000220: 222a cbbc 3fef 803d 3edb babd 72a8 91bd
00000230: deb3 c33c ff8d fe39 b24f 793d 8d87 59bd
00000240: 681c 9cbc 57a2 22bd 6e7f b33c 21c0 99bd
00000250: aeeb 493c 2d95 13bc 14cb 2ebd 1ecf f5bb
00000260: 7398 85bc 9236 2c3d b2d7 773d ff09 023d
00000270: f76c 803d 3c02 75bd 3185 8cbd 539e b7bc
00000280: 1e61 523d e044 5bbd 032c 683d bfb4 793d
00000290: 809a 1cbd f7ea e03a 8d47 71bd 5d3d 773d
000002a0: 0805 223d ab41 31bd 2345 8ebd 8aa2 8f3d
000002b0: 4da3 a03c 7672 13bd 9939 9abc 513d 1c3d
000002c0: 9e14 963d e33c 92bc 5b7f cb3d 60c0 d6bc
000002d0: ac8c d23c 44d7 c7bd 858b ddbd 806d 47bd
000002e0: e639 46bd 0b9f c9bc bfea 363c 73ae e53c
000002f0: bcb0 923d a3c9 793d ec82 05bd 1cc3 80bd
00000300: c076 5dbd 89da cbbc 5f8e 723d 8b04 acbd
00000310: 5639 a43d f657 35bc 0ee8 513d 8343 fdbc
00000320: a138 3a3b eb9b 1c3d dc77 a5bd 8a1f 4abc
00000330: 6c26 dd3d 590e 14bc ac60 0cbe d755 5abd
00000340: 18dd ab3c 1189 8cbd a5f7 473d 929a db3c
00000350: d2b5 81bd 4855 c4bc 6cb7 c2bc 9fe3 aa3d
00000360: d8d1 39bd b957 193d 7d3e 4e3b a928 02bd
00000370: c28c 8bbd 04c3 0b3d 6f61 44bd 02b0 943d
00000380: 33a8 c3bb 40a2 483c edb6 eabc ac38 fabd
00000390: 5390 183d 4b2b 4abd abe7 eebd a9d3 afbd
000003a0: 2967 283c d27b c5bd 4d1f a63c a84b e33c
000003b0: 43f9 323d f79d 963d e0e1 77bd 00a3 b2bd
000003c0: c2ae 75bd 7ace 043d 4852 88bc 5b51 c43d
000003d0: c648 cc3d d3ce 34bd ef8e bf3d c980 2f3d
000003e0: 75a7 d13c 1dbe 3bbd b499 47bc 4731 a4bc
000003f0: 0cb7 4cbd 6a77 e6bd f65f a2bd 0db9 01be

layer1.1.bn1.weight f4 [16]
1.0040227 1.0779592 1.0357754 0.9729592 1.0264741 1.0064617 0.991056 0.96050614
1.016159 1.0088091 1.0074272 0.9720073 0.9624141 1.0065856 1.0137558 0.9846671
00000000: d183 803f 91fa 893f 4a94 843f db13 793f
00000010: 8163 833f bdd3 803f d9b5 7d3f bbe3 753f
00000020: 8011 823f a820 813f 60f3 803f 78d5 783f
00000030: c560 763f ccd7 803f c0c2 813f 2513 7c3f

layer1.1.bn1.bias f4 [16]
0.00070897397 0.044235207 0.05343473 -0.013289328 -0.008534777 -0.019030094 -0.021531245 -0.023548234
-0.025608798 -0.03335247 -0.0023984523 -0.036755227 -0.060537398 -0.014844447 -0.016340915 -0.05334601
00000000: 70da 393a fa2f 353d 60de 5a3d 7bbb 59bc
00000010: 73d5 0bbc 00e5 9bbc 4b62 b0bc 3ae8 c0bc
00000020: 8bc9 d1bc 999c 08bd 5a2f 1dbb a68c 16bd
00000030: 10f6 77bd 2036 73bc 62dd 85bc 5981 5abd

layer1.1.bn1.running_mean f4 [16]
-0.64786786 -0.9567061 -0.55824727 0.68907565 -0.123356834 -1.2899116 -0.31137174 -1.0326731
-0.11556667 -0.7861587 -0.9817596 0.91991276 0.6996849 0.16253477 -0.10928027 -0.02130824
00000000: abda 25bf b1ea 74bf 4be9 0ebf 4367 303f
00000010: 82a2 fcbd d31b a5bf 1e6c 9fbe a22e 84bf
00000020: 38ae ecbd b241 49bf 9954 7bbf 677f 6b3f
00000030: 8d1e 333f 846f 263e 56ce dfbd 9e8e aebc

layer1.1.bn1.running_var f4 [16]
0.30472282 0.7787442 0.45139265 0.58022535 0.66644055 0.6420512 0.6359269 1.2370787
1.0830485 0.52884007 0.37952712 0.59438497 0.69236434 0.91783714 0.48302385 0.38949463
00000000: a104 9c3e c85b 473f f01c e73e a689 143f
00000010: d99b 2a3f 785d 243f 1bcc 223f 9858 9e3f
00000020: 55a1 8a3f 1062 073f 6151 c23e 9d29 183f
00000030: ca3e 313f 60f7 6a3f e74e f73e d76b c73e

layer1.1.conv2.weight f4 [16, 16, 3, 3]
0.070953205 0.032915752 0.09324504 0.005802333 0.06194049 0.0639386 -0.038337074 0.01835427
-0.028107107 -0.0769155 0.040979415 -0.0006972599 0.017288016 0.05529952 -0.075277165 -0.023110973
0.0006714602 -0.03175731 -0.08722967 0.016892599 0.06963824 -0.008128392 -0.081937134 0.054289006
-0.1379208 -0.0688146 -0.0022457235 0.07902468 0.012500709 -0.054597467 0.07548072 -0.040334366
0.05955165 -0.035830926 -0.052415445 -0.04252679 -0.03451658 -0.045264997 -0.043773826 0.03887742
-0.049382154 -0.015721308 -0.0017704897 0.06353914 -0.029249586 -0.036802422 -0.083682135 -0.09575515
-0.048856623 0.10027806 0.08415124 -0.035324275 0.012011599 -0.059008047 0.010660789 -0.03922413
-0.1314645 -0.035254534 -0.068245634 -0.059687026 0.091522336 0.05147621 -0.040613327 0.08048082
0.013420412 -0.020344906 0.0049087843 0.027943369 0.0340655 0.083915696 0.07628856 -0.04913809
0.02363435 0.05026169 0.010835295 0.01764158 -0.0851605 -0.10767663 0.03372402 -0.04456749
0.026158521 -0.02363774 -0.037399437 0.022559708 -0.0068076965 -0.042857233 0.063834265 0.06349343
-0.03473998 -0.058912355 -0.08346723 -0.097772345 0.03001969 -0.010646672 0.08353687 0.097140096
-0.047960464 -0.05397398 0.051014766 -0.0066137807 0.013963424 0.09644155 -0.056987684 -0.004312977
0.048224166 0.018752463 -0.10488679 -0.078907885 0.029560342 -0.08868968 -0.024457656 0.069354355
-0.07150189 0.009473957 -0.019197285 0.019033575 -0.06397866 -0.061703663 -0.0331546 -0.00040746632
0.051656872 -0.008181674 -0.05840066 -0.0015247795 0.06045848 -0.04501704 0.023154054 -0.012141689
0.019767025 0.027942682 0.041057028 -0.06637501 0.0754263 0.047848467 -0.0539347 0.091495655
0.033693086 -0.0019615442 -0.028645022 -0.0036868735 -0.018733697 -0.0055475174 -0.12013912 0.034286615
-0.056442484 0.0472872 0.005235448 0.056543883 0.043019123 0.11006671 -0.047690194 0.068163216
0.07701502 -0.011374115 -0.008335815 -0.06750135 -0.0021815982 0.064852074 -0.010573099 0.07446466
0.003042209 0.052075356 0.04415662 0.04636635 -0.056388 0.076486744 0.01260924 -0.08211505
0.017921748 0.0052279006 -0.015270865 0.017644944 0.080536984 -0.04720832 -0.022052092 -0.005221076
-0.12381838 -0.0120092 -0.039595608 -0.092249915 0.05749215 -0.08077338 -0.089543134 -0.0015799484
-0.10801761 0.0076674744 -0.10913191 -0.033566747 -0.02795349 -0.02250906 -0.064166196 0.022708742
0.010314655 -0.054401167 0.037972353 0.00083327753 0.025346233 0.055388693 -0.06476703 0.059097506
0.060561128 -0.0178177 -0.047187857 -0.036018923 -0.034868523 -0.046034653 -0.04365959 -0.060766734
0.037795473 -0.027946195 0.017510759 0.013276068 -0.037558418 0.042785767 0.06949972 0.07539349
-0.07412513 -0.050025817 -0.022079391 0.0076192245 -0.15082188 -0.10423221 -0.124793194 -0.15038237
-0.048123237 -0.002485761 -0.022522662 -0.060303267 0.07157576 0.11384659 -0.06952952 0.0057980325
0.010211737 0.004695593 0.029339356 0.022981891 -0.026095206 0.05321628 -0.032502666 -0.038194403
-0.06924778 -0.05505536 -0.0028984777 0.044947714 0.058612235 0.059009455 0.0835458 0.07401019
0.04488459 0.07154868 0.03760098 0.07119836 0.035786934 0.017615339 0.053144407 0.07799672
00000000: ea4f 913d abd2 063d 41f7 be3d 7f21 be3b
00000010: 50b5 7d3d 3ef2 823d 5607 1dbd b25b 963c
00000020: e040 e6bc e085 9dbd 08da 273d 52c8 36ba
00000030: 999f 8d3c c081 623d ea2a 9abd 3953 bdbc
00000040: ee04 303a f413 02bd 78a5 b2bd 5962 8a3c
00000050: 7e9e 8e3d f22c 05bc a8ce a7bd 265e 5e3d
00000060: 1c3b 0dbe abee 8cbd fd2c 13bb b1d7 a13d
00000070: c6cf 4c3c 98a1 5fbd a395 9a3d a635 25bd
00000080: 6eec 733d 73c3 12bd 94b1 56bd 9230 2ebd
00000090: 4261 0dbd ca67 39bd 2f4c 33bd ee3d 1f3d
000000a0: f144 4abd f9c9 80bc c70f e8ba cf20 823d
000000b0: d49c efbc 23be 16bd 8a61 abbd 471b c4bd
000000c0: e21d 48bd 955e cd3d 7c57 ac3d 30b0 10bd
000000d0: 4ccc 443c 6cb2 71bd 97aa 2e3c 7ba9 20bd
000000e0: a19e 06be 0f67 10bd 5ec4 8bbd 627a 74bd
000000f0: 1070 bb3d b8d8 523d 295a 26bd 21d3 a43d
00000100: 4ae1 5b3c 5caa a6bc ded9 a03b 7ee9 e43c
00000110: 4488 0b3d fedb ab3d 2d3d 9c3d 0645 49bd
00000120: d39c c13c 34df 4d3d 8586 313c 1385 903c
00000130: a168 aebd 9185 dcbd 3322 0a3d 678c 36bd
00000140: 654a d63c efa3 c1bc 2730 19bd 23cf b83c
00000150: 1913 dfbb 118b 2fbd 8abb 823d d808 823d
00000160: 824b 0ebd 154e 71bd def0 aabd de3c c8bd
00000170: daeb f53c 616f 2ebc 6115 ab3d 63f1 c63d
00000180: 3172 44bd d213 5dbd dcf4 503d 6ab8 d8bb
00000190: d8c6 643c 2683 c53d eb6b 69bd e053 8dbb
000001a0: b486 453d c49e 993c e3ce d6bd 759a a1bd
000001b0: 8828 f23c efa2 b5bd 6c5b c8bc a809 8e3d
000001c0: 956f 92bd a838 1b3c a043 9dbc 4dec 9b3c
000001d0: 3e07 83bd fbbc 7cbd 1ecd 07bd 34a1 d5b9
000001e0: 2896 533d 6e0c 06bc 8835 6fbd 1cdb c7ba
000001f0: 50a3 773d ca63 38bd 92ad bd3c efed 46bc
00000200: 75ee a13c 0de8 e43c 6a2b 283d 9fef 87bd
00000210: 1b79 9a3d c1fc 433d a2ea 5cbd 1362 bb3d
00000220: c301 0a3d 408d 00bb f7a8 eabc 799f 71bb
00000230: 6977 99bc f3c7 b5bb 800b f6bd 1f70 0c3d
00000240: 3c30 67bd 39b0 413d 1f8e ab3b 8f9a 673d
00000250: d234 303d a86a e13d cb56 43bd 2899 8b3d
00000260: 0dba 9d3d 7f5a 3abc f192 08bc 263e 8abd
00000270: 25f9 0ebb 2ad1 843d cb3a 2dbc ed80 983d
00000280: cc5f 473b f84c 553d 92dd 343d a4ea 3d3d
00000290: 1af7 66bd 15a5 9c3d fc96 4e3c ef2b a8bd
000002a0: a1d0 923c cf4e ab3b a632 7abc 218c 903c
000002b0: 93f0 a43d 835d 41bd 97a6 b4bc 8f15 abbb
000002c0: 7e94 fdbd 3cc2 44bc 012f 22bd 86ed bcbd
000002d0: e47c 6b3d 846c a5bd 6462 b7bd 4516 cfba
000002e0: 5638 ddbd 703f fb3b 8d80 dfbd 497d 09bd
000002f0: b8fe e4bc ec64 b8bc 9169 83bd af07 ba3c
00000300: ccfe 283c c2d3 5ebd e688 1b3d 4f70 5a3a
00000310: e7a2 cf3c 41df 623d 94a4 84bd 3a10 723d
00000320: f20e 783d 6df6 91bc 0e48 41bd 9488 13bd
00000330: 4cd2 0ebd d58e 3cbd 66d4 32bd 8ae6 78bd
00000340: 6dcf 1a3d 6bef e4bc b972 8f3c dd83 593c
00000350: dbd6 19bd 2140 2f3d df55 8e3d e767 9a3d
00000360: ebce 97bd dfe7 4cbd d7df b4bc b0aa f93b
00000370: 0d71 1abe b277 d5bd 9393 ffbd d6fd 19be
00000380: df1c 45bd 26e8 22bb 7281 b8bc 8f00 77bd
00000390: 5096 923d 6728 e93d 7e65 8ebd 6cfd bd3b
000003a0: 214f 273c 7ddd 993b 1759 f03c 8544 bc3c
000003b0: 9dc5 d5bc 50f9 593d 8421 05bd bc71 1cbd
000003c0: c8d1 8dbd bb81 61bd 63f4 3dbb 181b 383d
000003d0: 6213 703d e6b3 713d 0f1a ab3d a892 973d
000003e0: e7d8 373d 1d88 923d 7c03 1a3d 72d0 913d
000003f0: 5295 123d 0b4e 903c f3ad 593d bfbc 9f3d

layer1.1.bn2.weight f4 [16]
0.99870485 0.9987286 0.9680412 0.94112444 1.0490823 1.0167292 1.0566587 0.950159
0.9799624 1.0668519 0.990262 1.0150484 0.9803969 0.9867643 0.9828006 0.9645868
00000000: 1fab 7f3f adac 7f3f 8cd1 773f 88ed 703f
00000010: 5448 863f 2f24 823f 9840 873f 9f3d 733f
00000020: d1de 7a3f 9a8e 883f cf81 7d3f 1bed 813f
00000030: 4bfb 7a3f 969c 7c3f d298 7b3f 29ef 763f

layer1.1.bn2.bias f4 [16]
0.055330765 -0.0012111436 -0.025903497 0.0035457106 -0.06230219 0.015242335 0.027112931 0.0051830183
0.05306486 -0.024213158 0.029229023 -0.044659413 -0.0047251037 -0.027334284 -0.006387137 0.0043772706
00000000: 83a2 623d 3cbf 9eba 9233 d4bc 275f 683b
00000010: 9530 7fbd fdba 793c f01b de3c 4fd6 a93b
00000020: 8a5a 593d ac5a c6bc b471 ef3c caec 36bd
00000030: 0bd5 9abb 26ec dfbc 304b d1bb 356f 8f3b

layer1.1.bn2.running_mean f4 [16]
-0.2512861 -0.16747555 -0.13564602 0.085046284 0.03369848 -0.48987928 0.019392477 -0.15849802
-0.31735304 0.2733145 -0.061166983 -0.0660185 -0.032523613 -0.33827412 -0.022788564 -0.26029658
00000000: 92a8 80be b67e 2bbe cae6 0abe bf2c ae3d
00000010: 6b07 0a3d 75d1 fabe f9dc 9e3c 4e4d 22be
00000020: 197c a2be e1ef 8b3e 3b8a 7abd b534 87bd
00000030: 7b37 05bd 4432 adbe 15af babc 9845 85be

layer1.1.bn2.running_var f4 [16]
0.18966252 0.37032712 0.2529573 0.17011341 0.21805923 0.27788496 0.15873303 0.28407902
0.16483137 0.24019411 0.19984014 0.25563323 0.23252665 0.18455727 0.21304566 0.22782959
00000000: e436 423e 849b bd3e 9f83 813e 3632 2e3e
00000010: eb4a 5f3e f046 8e3e e98a 223e ce72 913e
00000020: 8ec9 283e 72f5 753e e5a2 4c3e 5ce2 823e
00000030: 771b 6e3e 95fc 3c3e a428 5a3e 294c 693e

layer2.0.conv1.weight f4 [32, 16, 3, 3]
-0.046129357 -0.032441936 0.07962998 0.0014661048 -0.096218504 -0.094652556 -0.08292469 0.050861657
0.016797524 -0.026123332 0.04712727 0.10427442 -0.042965792 -0.009143247 -0.0499253 0.03731165
0.027222442 0.07137723 0.008662917 0.091594875 0.003439146 -0.055963393 0.10137335 0.030622093
0.004734655 -0.03577786 0.06040909 -0.027453791 -0.04857259 0.04660068 0.051982343 -0.07597449
-0.08367069 0.030473286 -0.07569897 -0.06041146 0.056395892 -0.0074874735 -0.029620733 0.04156775
-0.0034146772 -0.06433443 -0.016688185 0.01002969 -0.10952069 -0.003377378 -0.048472334 -0.030741433
0.095857956 0.07427211 0.04301166 -0.07361738 -0.07361248 0.011270712 0.112757094 0.0015291532
-0.003799693 0.013557211 -0.010843879 0.036899235 0.038134772 -0.03573696 -0.02731079 -0.06212874
-0.07484933 0.036866993 -0.051991835 0.015798323 0.022141716 -0.05139121 -0.095462866 0.017708037
-0.02728837 -0.023499623 0.05588037 0.08688907 -0.016043376 0.06484789 -0.06480261 -0.011550583
-0.051546607 -0.07850639 -0.13283364 0.04216219 0.01095844 0.035582103 0.0037960755 -0.0814073
-0.104135446 0.023869608 -0.051189266 -0.064942375 -0.043126035 0.024767961 0.068897404 -0.07963578
0.09574957 -0.07066517 -0.034952212 -0.09574671 0.0035467702 -0.035921775 -0.039828345 0.00039883904
-4.5142897e-05 0.007463357 -0.039638955 0.08568425 -0.023710504 -0.10899535 -0.024947928 -0.022135329
-0.109209165 -0.05811118 -0.07378294 -0.038887892 -0.0706281 -0.007818767 -0.013362642 -0.047157817
0.055342007 -0.07218205 -0.0114566805 0.015081418 0.013930284 -0.059987396 -0.089917205 -0.04486332
0.005771647 0.066416405 -0.083154865 -0.055865332 0.0688812 -0.0605093 -0.020988015 -0.055195555
0.022117075 0.046760093 -0.083796784 0.037477538 -0.11725433 -0.109795265 -0.02693895 -0.07092593
-0.010653077 -0.022175442 -0.00858375 0.075292595 -0.02899337 -0.006972063 -0.06783932 -0.021992521
0.042174272 -0.10013689 0.018444503 0.051567983 -0.023782346 0.027584378 -0.04335987 -0.024965214
0.0035651186 -0.03471981 0.08889207 -0.0037150185 0.05495197 -0.06398731 -0.040397394 0.10667332
-0.09478262 0.057375748 0.07860093 -0.052079376 0.004778889 0.051289555 -0.036102653 0.04453524
-0.015166571 -0.00061132165 0.060090393 -0.016636021 -0.057717044 0.04404292 0.067732714 0.047367286
0.042818274 0.08537497 0.035786685 0.08748646 0.03581789 -0.091995575 -0.05303599 0.1109633
0.069522224 0.05519351 0.005496457 -0.0032494662 0.092442185 -0.12571143 0.029308764 -0.010539626
-0.1020192 -0.029683081 -0.019461123 0.03183987 0.0045508556 -0.046194516 0.11584953 0.06444925
-0.09664794 0.034468517 -0.07131418 -0.008180379 -0.05609585 -0.012422519 0.09174416 -0.009913303
-0.05703974 0.033567943 -0.018263387 0.017372249 0.013229435 -0.028380057 0.07962945 -0.016905757
-0.025040174 -0.10252043 0.023958785 -0.036003873 -0.053621903 -0.077663235 0.017145524 -0.059523974
0.016317721 0.0015256483 0.0009767821 -0.08742863 0.030026186 -0.014130429 0.09007607 0.07519517
0.015610489 0.0907257 0.014038378 0.01859038 -0.08541952 0.017772498 0.03705801 0.0011284773
-0.053345706 0.06499632 0.012764973 0.029141625 -0.08557598 -0.10066431 -0.01081665 -0.06505155
00000000: 23f2 3cbd d6e1 04bd 0b15 a33d 502a c03a
00000010: 350e c5bd 33d9 c1bd 6bd4 a9bd 5054 503d
00000020: f69a 893c 9900 d6bc 8608 413d d48d d53d
00000030: e6fc 2fbd 8fcd 15bc 797e 4cbd 1ad4 183d
00000040: 9901 df3c 3a2e 923d e8ee 0d3c 1896 bb3d
00000050: 4c63 613b df39 65bd d59c cf3d 2fdb fa3c
00000060: 2a25 9b3b ce8b 12bd 866f 773d c6e6 e0bc
00000070: 0df4 46bd 5be0 3e3d 70eb 543d 8398 9bbd
00000080: 8a5b abbd 1da3 f93c 1008 9bbd 0272 77bd
00000090: 61ff 663d 7b59 f5bb 2ea7 f2bc f242 2a3d
000000a0: c7c8 5fbb c5c1 83bd a9b5 88bc 9253 243c
000000b0: 624c e0bd 0057 5dbb ed8a 46bd 75d5 fbbc
000000c0: 2d51 c43d fa1b 983d ff2c 303d b5c4 96bd
000000d0: 24c2 96bd cba8 383c 31ed e63d de6d c83a
000000e0: 4504 79bb 101f 5e3c 86aa 31bc a723 173d
000000f0: 3533 1c3d eb60 12bd e1ba dfbc b57a 7ebd
00000100: 9b4a 99bd d801 173d 64f5 54bd 7c6b 813c
00000110: 8b62 b53c 977f 52bd 0982 c3bd 7210 913c
00000120: dc8b dfbc 4882 c0bc d1e2 643d e6f2 b13d
00000130: 666d 83bc f8ce 843d 3bb7 84bd a83e 3dbc
00000140: 8922 53bd f5c7 a0bd 8b05 08be 43b2 2c3d
00000150: 078b 333c 8abe 113d 94c7 783b dfb8 a6bd
00000160: f744 d5bd 328a c33c d6ab 51bd 8200 85bd
00000170: eda4 30bd 2ee6 ca3c 151a 8d3d 1518 a3bd
00000180: 5a18 c43d e7b8 90bd 0d2a 0fbd da16 c4bd
00000190: ee70 683b b622 13bd 0c23 23bd 451b d139
000001a0: d157 3db8 2d8f f43b 755c 22bd 397b af3d
000001b0: 883c c2bc f438 dfbd 995f ccbc 2655 b5bc
000001c0: 0ea9 dfbd fd05 6ebd 831b 97bd e948 1fbd
000001d0: 77a5 90bd 491a 00bc fcee 5abc 8e28 41bd
000001e0: 4dae 623d 2fd4 93bd cdb4 3bbc 0d18 773c
000001f0: d93b 643c 58b5 75bd 8326 b8bd 9ac2 37bd
00000200: 1620 bd3b 5305 883d 194d aabd 0cd3 64bd
00000210: 9611 8d3d 9ad8 77bd 0fef abbc bc14 62bd
00000220: de2e b53c 8387 3f3d a69d abbd 0c82 193d
00000230: 0a23 f0bd 57dc e0bd 13af dcbc 9d41 91bd
00000240: 3e8a 2ebc 46a9 b5bc dba2 0cbc 0133 9a3d
00000250: 8183 edbc e775 e4bb 57ef 8abd a929 b4bc
00000260: eebe 2c3d 9214 cdbd ed18 973c f338 533d
00000270: 32d3 c2bc a2f8 e13c 1e9a 31bd d983 ccbc
00000280: c4a4 693b 5c36 0ebd 0c0d b63d ab77 73bb
00000290: 5115 613d c70b 83bd bd77 25bd 8b77 da3d
000002a0: 641d c2bd d502 6b3d 86f9 a03d 2f51 55bd
000002b0: 3a98 9c3b ff14 523d 60e0 13bd 956a 363d
000002c0: 367d 78bc 1a41 20ba 5821 763d 4448 88bc
000002d0: b568 6cbd 5966 343d 73b7 8a3d 3304 423d
000002e0: 3762 2f3d 13d9 ae3d 0f95 123d 1a2c b33d
000002f0: c8b5 123d 2d68 bcbd 443c 59bd ba40 e33d
00000300: ab61 8e3d 9712 623d a01b b43b fff4 54bb
00000310: 5452 bd3d 7fba 00be ef18 f03c 65ae 2cbc
00000320: 71ef d0bd ef29 f3bc ef6c 9fbc 866a 023d
00000330: 581f 953b 7636 3dbd 8542 ed3d f8fd 833d
00000340: 5bef c5bd dc2e 0d3d 2b0d 92bd ff06 06bc
00000350: c3c4 65bd d287 4bbc 5de4 bb3d 686b 22bc
00000360: 81a2 69bd 8a7e 093d 199d 95bc 3f50 8e3c
00000370: 46c0 583c 4b7d e8bc c414 a33d f17d 8abc
00000380: 0d21 cdbc 3bf6 d1bd 3745 c43c cc78 13bd
00000390: a4a2 5bbd e70d 9fbd c574 8c3c 69cf 73bd
000003a0: beac 853c 43f8 c73a 5e07 803a c80d b3bd
000003b0: 7af9 f53c 5183 67bc cd79 b83d edff 993d
000003c0: 23c3 7f3c 65ce b93d 3a01 663c da4a 983c
000003d0: 6ef0 aebd a197 913c 24ca 173d 6ae9 933a
000003e0: 0781 5abd ca1c 853d 2d24 513c 6bba ee3c
000003f0: 7642 afbd 1729 cebd 5238 31bc bf39 85bd

layer2.0.bn1.weight f4 [32]
0.93398476 1.0239444 0.9537534 1.0042801 1.0283513 1.00173 0.98820966 0.9918144
0.9654215 1.0503768 0.99303985 1.0119559 1.018172 1.0033067 0.94201297 1.0350924
1.0108978 0.9571327 0.9693822 1.0238018 0.99008155 0.9724893 1.0059748 0.9596429
1.0935022 0.9941008 0.91608185 1.0139458 0.94376045 1.0421797 1.051215 1.009741
00000000: a019 6f3f 9c10 833f 2f29 743f 408c 803f
00000010: 04a1 833f b038 803f 4ffb 7c3f 8ce7 7d3f
00000020: dd25 773f bf72 863f dc37 7e3f c587 813f
00000030: 7653 823f 5b6c 803f c327 713f e87d 843f
00000040: 1965 813f a606 753f 6f29 783f f00b 833f
00000050: fc75 7d3f 0ff5 783f c8c3 803f 28ab 753f
00000060: e1f7 8b3f 647d 7e3f 5784 6a3f fac8 813f
00000070: 499a 713f 2566 853f 378e 863f 313f 813f

layer2.0.bn1.bias f4 [32]
-0.03787474 -0.0068554287 -0.10490933 0.019942343 -0.047216874 -0.04723422 -0.03123787 -0.009852984
-0.010840741 -0.034343116 -0.030010715 0.020605989 -0.0149469515 0.020385468 -0.049248137 -0.034550883
0.0024376758 -0.04248172 -0.05954981 -0.028089926 0.012081001 -0.06793834 -0.0018626993 -0.13261534
0.014222806 -0.0013799916 -0.08243347 0.011228968 -0.028821964 -0.052387033 -0.13804927 -0.046725757
00000000: 8b22 1bbd 81a3 e0bb b4da d6bd 205e a33c
00000010: 7b66 41bd ab78 41bd 90e6 ffbc 696e 21bc
00000020: 5d9d 31bc 5eab 0cbd 08d9 f5bc e4cd a83c
00000030: 0fe4 74bc 6dff a63c 6ab8 49bd 3a85 0dbd
00000040: 6ac1 1f3b 5001 2ebd 80ea 73bd d81c e6bc
00000050: 64ef 453c 4223 8bbd d125 f4ba 51cc 07be
00000060: c606 693c d6e0 b4ba e1d2 a8bd b5f9 373c
00000070: 0a1c ecbc c993 56bd ca5c 0dbe 8263 3fbd

layer2.0.bn1.running_mean f4 [32]
-1.7667483 0.49815193 -0.7458751 0.289788 -0.44743192 -0.61323667 -0.36001387 -0.14856276
-0.113113925 0.6924054 -0.53346545 -1.4524082 -1.8643776 -1.5410717 -1.6886077 0.33491567
0.2005457 0.19145983 1.4823657 -0.56087184 -0.5661037 0.042841706 -1.2142298 0.9856182
-0.16415463 -1.153601 -0.36306733 -0.862587 -0.9027283 -0.7753393 0.5614033 -0.8629708
00000000: cf24 e2bf c50d ff3e acf1 3ebf 185f 943e
00000010: cc15 e5be 14fd 1cbf bd53 b8be d620 18be
00000020: 46a8 e7bd 7b41 313f 3191 08bf 83e8 b9bf
00000030: eda3 eebf d641 c5bf 4c24 d8bf 117a ab3e
00000040: da5b 4d3e 0c0e 443e 29be bd3f 4c95 0fbf
00000050: 2cec 10bf c97a 2f3d e26b 9bbf 7951 7c3f
00000060: 2718 28be 33a9 93bf f6e3 b9be 80d2 5cbf
00000070: 3419 67bf a37c 46bf 20b8 0f3f a8eb 5cbf

layer2.0.bn1.running_var f4 [32]
0.8960387 0.72609776 1.0434589 0.7322685 1.410843 0.92257214 1.0604552 0.72346675
0.98673034 1.7460403 0.8898602 1.6284386 1.2578356 1.7335818 1.0020273 0.9561687
1.0248975 0.9044983 0.5591599 0.7103479 1.5873202 1.2960408 1.1399885 0.7647631
1.0820692 0.7308685 0.85184747 0.95865035 1.6746968 1.0846176 0.95013136 0.50347966
00000000: cb62 653f 8be1 393f 1090 853f f375 3b3f
00000010: 8196 b43f b02d 6c3f ffbc 873f 1e35 393f
00000020: 5c9a 7c3f 407e df3f e1cd 633f ad70 d03f
00000030: c200 a13f 02e6 dd3f 6e42 803f 79c7 743f
00000040: d72f 833f 338d 673f 1a25 0f3f 5cd9 353f
00000050: 4f2d cb3f aae4 a53f 25eb 913f 84c7 433f
00000060: 3e81 8a3f 331a 3b3f ad12 5a3f 1c6a 753f
00000070: 775c d63f c0d4 8a3f cf3b 733f 0be4 003f
