Partha's CNN/MNIST.pth (torch, 709243 bytes, 14 tensors)

weight f4 [6, 1, 5, 5]
00000000: 1453 d03e 616e 3e3e 1bd1 9d3e cb52 4d3d
00000010: b100 8fba 62aa f03e 5f91 ea3e 3eae 073f
00000020: 3796 2f3e 6093 ae3e 06a8 003f 6414 863e
00000030: 0de3 bf3e 2da7 ed3d 24ac 803e 047a ba3e
00000040: 1583 c33d 7de2 d5bb a64f 863d 6b0e 873d
00000050: 9bb6 173d 4506 44bd 2c11 0e3e aca6 90bc
00000060: e887 cabd 6bbe 063e 7e46 263e 1ca6 793e
00000070: 2c6d 5a3e 3d37 40be 8b4e 8b3d faa8 ba3d
00000080: aecf ce3e 7894 833e f650 90bd bfda 08be
00000090: b040 de3e 2fc6 c63e f65b 6cbd 48cc 5abe
000000a0: 8e95 093e 2d64 c03d 84eb cb3e 7593 9abd
000000b0: be7e b63d 71a6 833e c779 153d f868 5f3e
000000c0: 9f75 0cbd 7836 2b3e 40ec 263e 0159 97bc
000000d0: f27d 34be 69d2 433e c18b fa3d 8843 523e
000000e0: f411 ea3d 6405 4d3e b5bb 063e 509a 203d
000000f0: dd38 b13d 96cd 4b3e 41c5 17be 15b6 723e
00000100: 5838 fcbc 4645 0a3e 0768 78bc bb9f 833c
00000110: e8e0 5b3e eac3 8d3e d478 a83d d4a7 c63c
00000120: 6a7b 103d d09c 063e 3bc7 d93b 4fbe 90bd
00000130: eb70 4cbe d03d fabd 72cc ae3c 53f9 4dbe
00000140: 091f 763d c5ec 8b3e 8071 fdba 1bbf 133d
00000150: d6d5 803d d74e 8d3e a97c a53e f074 a23e
00000160: f63f ba3e b2fd 463d 796b 0f3f 5208 223f
00000170: f010 603f 27a2 373f ea7b b73e 6ffa e03e
00000180: 025d 383f 63ae 3a3f 78dc 1d3f 0aff 723e
00000190: a851 11bc 80cf 0abe f70c 33be 69da b43d
000001a0: 6fa9 a43e 016f 95bd 7ca9 953c 9bc1 49be
000001b0: 10ea cfbc da35 9c3e 8b5b 1ebe 6ae8 edbd
000001c0: ce7b 38be 34f5 133e 92d5 5e3e 1813 62be
000001d0: efdd 2d3d a5a9 57be db72 013e e4b1 913e
000001e0: ab6e fbbd cb19 f5bd efbf 803d 29f4 d8bc
000001f0: 62e9 a13e 8364 86be ec6e 53be a391 35be
00000200: 3469 313e 3a3d bc3e 5c94 52be 891b 423d
00000210: 03ec 183e 47c7 003e 5984 cb3e 9f00 cc3d
00000220: 96a9 a0bd fd36 f2bd 3f3e c93d cf1d b53e
00000230: e0da 46bd f493 793e bd02 38bd 9dcd 943e
00000240: 6dcf 7b3e d0a1 ab3e 2aea 48bd 9a34 893e
00000250: 0eec 493e afbf 693e
0.40688384 0.18596794 0.30823597 0.050127786 -0.001091024 0.47004992 0.45814034 0.5300025
0.17147146 0.34096813 0.50256383 0.26187432 0.37477913 0.11604152 0.25131333 0.36421216
0.09546486 -0.0065272436 0.065581605 0.06594547 0.03703938 -0.04785754 0.13873738 -0.0176576
-0.09889203 0.13158576 0.16237828 0.24379772 0.21330708 -0.18771072 0.0680209 0.09114261
0.40392822 0.2569921 -0.07046692 -0.13364695 0.43408728 0.38823077 -0.05770489 -0.2136699
0.13435957 0.09394107 0.39828122 -0.075476564 0.08910893 0.25712922 0.03649309 0.21817386
-0.03429186 0.16719997 0.1630106 -0.018475058 -0.1762617 0.19123234 0.12233687 0.20533574
0.114292055 0.20021588 0.13157542 0.039209664 0.08653424 0.19902644 -0.1482134 0.23702271
-0.030788586 0.13502988 -0.015161521 0.016067376 0.21472514 0.27688533 0.08226171 0.024249949
0.035273947 0.13145757 0.0066460646 -0.070675485 -0.1996495 -0.12218821 0.021337721 -0.20114641
0.06008819 0.27329078 -0.0019336194 0.036070924 0.06290786 0.27599213 0.3232167 0.3172984
0.36376923 0.048581786 0.56023365 0.63293946 0.87525845 0.717318 0.35836726 0.43941066
0.7201692 0.72922343 0.61664534 0.23730102 -0.008869566 -0.13555717 -0.17485414 0.08830721
0.32160518 -0.07296563 0.018269293 -0.19702761 -0.025380164 0.30509835 -0.15464608 -0.11616595
-0.18015978 0.14449006 0.21761158 -0.22077596 0.04244798 -0.21060808 0.1264147 0.28456032
-0.122769676 -0.1196781 0.062866084 -0.026483612 0.3162337 -0.2624856 -0.20647782 -0.17731337
0.17325288 0.36765462 -0.20564407 0.04738954 0.14933781 0.12576018 0.3974941 0.09961056
-0.07844846 -0.118268944 0.098263256 0.35374305 -0.04854858 0.24372846 -0.044924486 0.2906312
0.24590845 0.3352189 -0.04905144 0.26797944 0.19718954 0.22827028

bias f4 [6]
00000000: 1684 c6b8 abe3 c73d 5b5d ac3d d1e8 a73d
00000010: 49cd b9bd 344a 503d
-9.465979e-05 0.09760221 0.08416244 0.08198703 -0.09072358 0.050852016

weight f4 [16, 6, 5, 5]
00000000: 3a28 f23d 0766 a13d f8d7 333d 50e8 f53d
00000010: 1503 8e3d bc9e a13c 4040 c5bd 3376 c5bd
00000020: 568f a1bd 5145 6bbd 0b56 2bbd 0e50 53bd
00000030: 69f0 3a3c 9f74 d1bd 0ed2 82bd 0811 303c
00000040: 46af ac3d e442 f33c 3d50 0d3c a445 613c
00000050: 0b00 91bd 46b4 85bd 5e8d 723d 6d87 c23d
00000060: 86fa 87bd 83cc 3a3b 043d f9bc fd25 a93d
00000070: 1d6f ab3d 0f82 4e3d 194f 01bb 3084 043d
00000080: 6516 74bd d08a 7cbd c2da 153c d499 97bd
00000090: 8371 8cbd 01b3 033b d3b5 a9bd c7c0 61bc
000000a0: f42d 933d fd85 38bd 6d53 04bd cb84 943c
000000b0: c08e 683d 9e7c 4d3d 3a0e d3bc 030c b33d
000000c0: 85fd a53d 2c79 023c 4adc 093c 47c6 403d
000000d0: d39c bc3d 1f49 a43c 9bcc 7e3b 8445 a5bd
000000e0: 267e 88bd 5971 82bb b320 953c d23f 38bd
000000f0: ddb0 a8bd 5766 60bc 8ae4 a2bd fd74 083c
00000100: f0a3 1dbd 1ae8 0e3d db18 283d 298f 273d
00000110: 390e 603d 003a e83c f1be 453d dd3b 51bd
00000120: 7de8 a7bc 6de3 1e3c a66e 97bd 1948 5a3d
00000130: 624e b5bd b10c a53c 7755 83bd 5179 e4bd
00000140: 228b e1bd dca4 a1bd 6954 00be 8f13 5dbb
00000150: ec7e c4bd fe15 75bd 2d50 13bd bc0e 063e
00000160: fada 0d3e f8d3 c2bc 0f27 1abd a757 183d
00000170: b084 e23d 4406 3a3c 7552 e3bc 516d 7a3d
00000180: 8163 e3bd c503 89bd 3c2a 6d3d 3e1f df3c
00000190: 3989 043d 7e6a 723d d354 c1bc 49a9 063d
000001a0: 4efb 103d 8830 53b9 66ef 8abd 86bd 213c
000001b0: 8099 2ebd 4fd9 f8bc cd37 823d 2411 0e3c
000001c0: 6317 203d e151 5abc d49f 93bc e559 8dbd
000001d0: d3dd 38bd d8cf a5bc 68b9 733c b10f 8a3d
000001e0: 5f55 91bd 80bf 143d cfea 4dbd f8dc e23c
000001f0: 1868 9d3c 1a91 84bd ec2d 823c 8960 a63d
00000200: 9827 153d f57b 0a3d 0f10 7fbd 583a c6bd
00000210: aa05 583d 53ff 44bc 4dc5 6f3d 0a1d 14bd
00000220: 392c f83c d13c 73bd 05f7 2b3d 3221 273d
00000230: ffdd 7bbd 89bb 48bd cece 343d bb2d a73d
00000240: ad45 5f3d 8cb8 51bc f80e 843d 0cb5 0a3d
00000250: 14f0 75bd fc89 673d 03a9 a5bd 8d27 07bd
00000260: c97c fdbd 0798 c53b 23a0 0bbe ea37 72bc
00000270: c94b 38bd 24a1 0f3c faf4 8cbc ace2 8dbd
00000280: 71b8 913d 92a1 203e 4f2f f53d 25e4 043e
00000290: 533c 653d 3d0f 773d eae9 01bd 3195 40b9
000002a0: 684f 3c3d 0441 2dbd 1dd3 07bc f36f 8bbd
000002b0: 2b29 ffbd d255 0bbd e780 c83d c8b0 cbbd
000002c0: d16e 5bbc 1cc6 a0bd e8fd a53c 6647 00bd
000002d0: 0abb babd 8238 28bd 5a1c a7bd 801e acbd
000002e0: df7a 6f3d 8502 66bc beac a03c f77c 913d
000002f0: 0197 143c 88e5 253d dc99 e63c 9707 68bd
00000300: 84d8 913d 9302 8abd 03b9 ae3d 9c23 f8bc
00000310: e0a9 01bc 23e8 b9bd ad07 73bd 901e 453d
00000320: 18ca 8c3b 402c 63bd 20f3 10bd f07f 04bd
00000330: e640 3dbc 4c8e 593d ed11 5d3d 8f8c da3c
00000340: d8ec a13c 7c5d 5dbd 5957 e93c ee49 39bd
00000350: 7b79 6dbd a75c a83d e877 d03a 3537 afbc
00000360: 8c6f 8a3d d925 223d 527d 433c 943a 36bc
00000370: 3e9b a2bd 850f a5bc 9ba9 263d ebe3 4b3a
00000380: 35d9 e63c 0bfd babd 0cc3 08be bdcb f5bd
00000390: 7b81 22be 5a8c a2bd 93d7 cb3d 1049 ef3d
000003a0: 5464 483e daf5 803e b4f8 643e 7ef3 433a
000003b0: 57d7 f63d eb67 173e 937e 3dbc 935c 883d
000003c0: fc31 04be 8a68 13be 94c3 43bc 6b72 abbc
000003d0: bffd cc3d e8a8 ce3d 4921 96bd 9d4b 93bc
000003e0: 7c2d cf3d 7b1a 543d 06be 743d c795 4a3d
000003f0: 871a 8ebc c3c5 59bd 1e76 b4bd 1264 c7bd
0.11824079 0.07880788 0.043907136 0.12007201 0.069341816 0.01972901 -0.09631395 -0.09641685
-0.07888667 -0.057439152 -0.041830104 -0.051590018 0.011409857 -0.10227322 -0.06387721 0.010746248
0.08431868 0.029694982 0.008625087 0.013749514 -0.07080086 -0.06528525 0.05921685 0.09498487
-0.066395804 0.0028503246 -0.030424602 0.08259199 0.083708026 0.050417002 -0.0019730984 0.032352626
-0.05959167 -0.06165582 0.009146394 -0.07402387 -0.06857588 0.0020095708 -0.08286633 -0.013778872
0.07186499 -0.045049656 -0.032306124 0.018129727 0.056776762 0.050167672 -0.02576362 0.087425254
0.08104996 0.00796346 0.008414337 0.047064092 0.09209599 0.020054398 0.0038879279 -0.080699
-0.06664686 -0.0039807972 0.018204069 -0.04498274 -0.08236859 -0.013696275 -0.079537466 0.008328673
-0.03848642 0.034889318 0.04103933 0.040908013 0.054701064 0.028347969 0.0482778 -0.05108248
-0.020496601 0.009697777 -0.073941514 0.053291414 -0.08852841 0.020147653 -0.064127855 -0.11155952
-0.110128656 -0.078927726 -0.125322 -0.0033733582 -0.09594521 -0.059835427 -0.035965133 0.13091558
0.13853064 -0.023782715 -0.037634905 0.037192967 0.110604644 0.011354033 -0.02774928 0.06113941
-0.11102963 -0.06690172 0.057901606 0.027236577 0.03235743 0.05918359 -0.023600018 0.032876287
0.035395913 -0.00020140607 -0.06783943 0.009871846 -0.042626858 -0.030377058 0.063582994 0.008671079
0.039084803 -0.0133251855 -0.018020548 -0.06901912 -0.045133423 -0.02024071 0.014875747 0.06741274
-0.07096361 0.03631544 -0.05027276 0.027693257 0.019214675 -0.064729884 0.015891038 0.08123881
0.036414713 0.03380962 -0.062271174 -0.09679097 0.052739777 -0.012023765 0.05853777 -0.036160506
0.030294525 -0.05938417 0.041983623 0.040803142 -0.06149101 -0.049006972 0.044142537 0.08163019
0.054509807 -0.012800347 0.064481676 0.033864066 -0.06004341 0.056528077 -0.08088877 -0.032996703
-0.123773165 0.006030086 -0.13635306 -0.014783839 -0.04499415 0.008766446 -0.017206658 -0.06928
0.071152575 0.15686634 0.11971914 0.12977655 0.055965733 0.060317267 -0.03171722 -0.00018366125
0.045974165 -0.04229833 -0.008290079 -0.06808462 -0.12459024 -0.03401739 0.09790211 -0.09945828
-0.01339312 -0.07850286 0.020262673 -0.03131809 -0.09117706 -0.041069515 -0.081597045 -0.08404255
0.05846679 -0.014038687 0.01961362 0.07103913 0.009069205 0.0405021 0.028149538 -0.056647863
0.07121375 -0.06738772 0.08531382 -0.030290417 -0.0079140365 -0.0907748 -0.059333492 0.04812485
0.0042965524 -0.055462122 -0.035388112 -0.032348573 -0.0115511175 0.05311422 0.053972173 0.026678352
0.019766256 -0.05404423 0.028484033 -0.04523652 -0.05797718 0.08220797 0.0015904875 -0.02138863
0.06759557 0.039586876 0.011931734 -0.011122365 -0.07939766 -0.020149002 0.040689092 0.0007777798
0.028179744 -0.09130295 -0.13355654 -0.120017506 -0.15869705 -0.07936926 0.09953227 0.116838574
0.19569522 0.2518757 0.22360498 0.0007474943 0.120527916 0.14785735 -0.011565822 0.06658282
-0.12909693 -0.14395347 -0.011948485 -0.020928582 0.10009336 0.1009081 -0.073305674 -0.017980391
0.10116097 0.051783066 0.059751533 0.049459245 -0.017346634 -0.053167116 -0.088115916 -0.09735884

bias f4 [16]
00000000: 406c 6dbc 990b 2b3d b74b 04bd b33c 16bb
00000010: ee5b eb3c db77 313a 17d8 93bd f9f2 61bd
00000020: b22d 8dbd a8fe 823c c8cd 04bb 2984 233d
00000030: cc0c 5fbd 0244 f73c 5ac4 623d fdbe 89bd
-0.014491141 0.041759107 -0.03229877 -0.0022924363 0.028730359 0.0006769874 -0.0721895 -0.055163357
-0.06893481 0.01599057 -0.0020264257 0.03992096 -0.054455563 0.030183796 0.055363037 -0.06725881

weight f4 [256, 256]
00000000: 0d07 593c b30a 54bc 9887 3ebc 0224 35bc
00000010: 1125 4abd 337d 2b3d 04f2 a8bc a240 2ebd
00000020: 5adf 44bc ef2d 2abd 2bbc c33c 125c f23c
00000030: 3618 e13c fa0e 5c3c 7d18 a03c 3923 7cbc
00000040: 8f15 94ba 8505 16bb 293b 0d3c 2742 a83c
00000050: fd7e 27bd dd0c 21bd 1f91 29bd 683d 87bc
00000060: 1a32 d33c 4a29 393c 2c8c b93c 5bd7 173d
00000070: 02d7 3f3d 1449 2d3c 3c6c 5f3d c663 0fbd
00000080: c475 293d 9371 dd3b 4cac aabd 3c31 93bd
00000090: 9fa1 f5bc c8dd fbbc 109c 19bd a0e7 093d
000000a0: 6e8e d4bc efaa 5b3d 7a94 813d 8413 a33c
000000b0: 437c b93b 8ccf 0c3d 1be6 573d c209 d4bb
000000c0: bb5a 68bd 4bda 13bd 69f6 683d 3517 123d
000000d0: 77f3 c9bc 2a15 3cbb 22b9 053d 841a 13bd
000000e0: 88ae 66bd 1630 c2bc afcf 76bd 98e6 47bd
000000f0: f96c 0fbc de44 b6bd 4e53 70bc 456e 5a3d
00000100: 9f17 9d3c 30b7 0c3d 1747 893d 1863 783d
00000110: 2a50 3fbd 7559 d13c 9bc9 5c3d 7105 8f3d
00000120: 9ae2 79bb 9330 b53d 1361 34bc 0efc 93bd
00000130: d8c4 3d3d c552 273c ae75 cd3c f0b7 6ebc
00000140: 3267 4fbc c147 efbc aa9c 6bbd 5a42 b2bd
00000150: 45f6 303d 3a00 70bd c4a4 153c 5dd4 fcbc
00000160: 66b7 953c 4093 59bd 9a60 70bd 516f 83bd
00000170: 6324 69bc 9946 ad3c 73e4 fb3c 07f9 773c
00000180: 5970 0ebd d80a 383d 2d69 5bbd 591c 28bd
00000190: 9d43 443d ca9e 123d 7319 e4bb 7df6 7bbc
000001a0: 7780 d2bc 1153 f33b 787b 253d 17f2 713c
000001b0: 2fbf 1bbb 86a3 0a3c 515c 64bd ed30 2a3d
000001c0: 1228 4f3c d059 9a3d f9c6 f1bc 5db6 cdbc
000001d0: 6295 d93c 1ce4 1f3d e9e0 143b 815d 10bd
000001e0: f739 35bd 156e 113d ae8f 293d feae 24bd
000001f0: 63e4 87bd 27c4 ffbb 312b 673d 6971 9b3d
00000200: 7e3a f3bc 8e05 393d 3f3e 20bd 3697 253d
00000210: 3097 15bd 57cd 3a3d f891 45bd e96f 4bbc
00000220: b347 20bd 7b87 623d 0411 03bd 702e 1ebd
00000230: 9787 fdba 1778 9fbc 7c89 a9bc 8fb9 2d3d
00000240: 4d0f 3bbd 7bf3 533d 4a0b 40bd 759a b9bc
00000250: 18f6 69bd 495f 5dbc 3938 27bd f028 7b3d
00000260: 38a0 3c3d db13 c43b 4fdc ff3c d32b ccbc
00000270: b09e 08bc cdd7 2e3d 539d 6e3c b643 393c
00000280: 7607 b93a e0bd 89bd 0a6d dbba c8f5 813c
00000290: d351 593d 5211 fdbc 29a5 20bd 2ce6 d43b
000002a0: f142 adbc 2cc4 89bc 9337 193d 9fbf 5abd
000002b0: 1c68 993c 5dd5 1cbd af84 a7bd 8bd9 853c
000002c0: dfb6 223d b66b 30bc 2677 45bc 5cdc 443d
000002d0: a542 c1bc 0b01 c53c 87fb 383d 3569 723d
000002e0: d8c0 40bd 0bec 8c3b 4c35 b3bc eb93 fbbc
000002f0: 1744 853c 9442 3f3d 8224 babc fd8b c9bb
00000300: d743 6a3c a1f4 653c 37d9 50bd 9346 06bd
00000310: 3930 2a3d d4af 6a3d fad7 67bd cb47 93bc
00000320: d360 8fba c073 5fbd 06a7 16bc b3ae 4abd
00000330: 6cb3 89bc c5ce 113d 621e 1bbd 0216 17bb
00000340: 14f2 01bd 6fa8 2abd edb5 e83c ea35 d8bc
00000350: c99a 20bd 91fc 003d 68fb ccbc 181c 113b
00000360: 8835 bebb 1ca3 ed3b a46d 54bc 53e4 9c3c
00000370: a974 083d b392 423b 1972 82bc 9348 6fbc
00000380: 2e26 d4bb dbda bfbc bd5d 8abc 2999 3abd
00000390: 805f 04bd 20de c23c d7e9 9cbd d6af 72bd
000003a0: 91dd bd3d 3865 71bd 40ef de3c c3cd 3f3c
000003b0: cb9b 9d3c 2e97 0abd 89b9 32bd eec2 a93c
000003c0: ea6c 813c 478e 04bd c876 d2bc 0355 24bc
000003d0: 1e06 79bc 3ad4 983d 1152 fa3c e520 3dbd
000003e0: f038 cdbc 0860 a1bc 38a7 a0bc d8cc 12bc
000003f0: d8e7 63bc 13fc 06bc 49ce 923d 0c08 833d
0.01324631 -0.012942004 -0.011629008 -0.011055948 -0.049351756 0.041867446 -0.020623215 -0.042542107
-0.012016142 -0.041547712 0.023893436 0.029584918 0.027477365 0.013431305 0.019542927 -0.015389257
-0.0011297929 -0.0022891473 0.008620062 0.020539356 -0.04089259 -0.039318908 -0.041398164 -0.016508773
0.025780726 0.011301348 0.022649847 0.037070613 0.046835907 0.010576505 0.05454658 -0.03500726
0.041372076 0.006757924 -0.08333644 -0.07187125 -0.029984294 -0.030745402 -0.03750235 0.03366816
-0.025946822 0.05362981 0.06327148 0.019906767 0.005660565 0.03437762 0.05270968 -0.00647089
-0.056727152 -0.036096852 0.05687562 0.035666663 -0.024652226 -0.0028699138 0.03264726 -0.03591396
-0.05631879 -0.02370457 -0.060256656 -0.048803896 -0.008754008 -0.08899854 -0.014668299 0.053327817
0.019176302 0.03435439 0.067030124 0.06064138 -0.04670731 0.025555352 0.053903203 0.0698346
-0.003812945 0.088471554 -0.011009472 -0.0722581 0.046330303 0.010212605 0.025080528 -0.014570221
-0.012658881 -0.02920902 -0.057522453 -0.08704062 0.04320361 -0.058593966 0.0091335215 -0.030862981
0.018275928 -0.053118944 -0.058685876 -0.06417716 -0.014229867 0.021151828 0.030748582 0.015135056
-0.03477511 0.044932216 -0.0535671 -0.04104266 0.047916044 0.035795964 -0.0069610416 -0.015378592
-0.025696022 0.007425674 0.040400952 0.014767191 -0.0023765077 0.008461839 -0.055752102 0.041550566
0.012643831 0.075366616 -0.029513823 -0.025111372 0.02656049 0.0390359 0.0022717065 -0.035245422
-0.044244733 0.035505373 0.04139679 -0.040205948 -0.06635358 -0.0078053656 0.056437675 0.07589991
-0.029690977 0.045171313 -0.039121863 0.04042741 -0.036521137 0.045605984 -0.04823491 -0.012416818
-0.039130878 0.055304985 -0.03199865 -0.038618505 -0.0019342777 -0.019466443 -0.02069544 0.04241329
-0.04566889 0.051745873 -0.046885766 -0.022656659 -0.05711946 -0.013511487 -0.040825102 0.061318338
0.046051234 0.0059838123 0.031232981 -0.02492324 -0.008338615 0.042686272 0.014563876 0.011307647
0.0014116603 -0.06725669 -0.001674087 0.015864268 0.05305655 -0.030892048 -0.03922001 0.006497165
-0.021150084 -0.016817175 0.037406515 -0.0534054 0.018726401 -0.038289417 -0.08179604 0.016339084
0.03972518 -0.010767868 -0.012052333 0.048061714 -0.023591349 0.024048349 0.04516175 0.059182364
-0.04705891 0.0043005995 -0.021876 -0.030710181 0.01626782 0.046694353 -0.022722486 -0.006150721
0.014298401 0.014035375 -0.050988402 -0.03278215 0.041549895 0.05729659 -0.056602456 -0.01797857
-0.001093889 -0.054553747 -0.009195095 -0.049483012 -0.016809188 0.03559758 -0.037870772 -0.002305389
-0.031725004 -0.041664537 0.028407061 -0.026392896 -0.039210115 0.031490866 -0.025022224 0.002214199
-0.0058047213 0.00725211 -0.0129655935 0.019151842 0.03331438 0.002968949 -0.015923547 -0.014604705
-0.006474278 -0.023419788 -0.016890401 -0.04555622 -0.03231764 0.023787558 -0.07661789 -0.05924972
0.09270776 -0.05893442 0.027213693 0.011706772 0.019239327 -0.033835582 -0.04363397 0.020722833
0.015799005 -0.03236225 -0.025691405 -0.010030034 -0.015199212 0.07462354 0.03055671 -0.04617395
-0.025051564 -0.019699112 -0.019610986 -0.008959971 -0.013910256 -0.00823881 0.07168252 0.06398019

bias f4 [256]
00000000: 0a16 5f3d 004b 313d 6e57 7bbd d2b5 2c3d
00000010: a1c0 4e3d 8100 22bd db01 d93c 570d 4ebd
00000020: dd51 73bb c88f 36bd f93a 5f3b 6bee 19bd
00000030: 43b7 da3a bc1b 673b 8bb4 5dbb bad2 47bc
00000040: abd8 45bd 75e0 283d 2c1c 6b3d 64c1 1a3d
00000050: 430a 613d 1c93 69bd 3af8 59bc 566b 30bd
00000060: 9edf 353d 05b5 24bc f5ce 853d cec9 8b3d
00000070: a1c3 5abd 5df8 7dbd 9282 48bd dda2 2c3b
00000080: eab7 0fbd 6e06 6fbd 7c27 8cbc 44fc 15bb
00000090: 4366 793d c58c 913d c2a4 19bd 0ab4 a7bc
000000a0: f9be a8bc 2f6e 12bc 052e 983c 94e0 043d
000000b0: 8ac1 5fbd 5344 20bd 631b 90bc 7c75 523b
000000c0: 69ee 693c be9e 2dbd a0bd 603d e642 d1bc
000000d0: df7f 66bd 1661 363c e91b 4bbd 5a6c 843d
000000e0: 9e4d 333c 5d85 0f3d cf7d 443d ee7e 04bd
000000f0: 1c3e 043d dd9d 063b 225b 69bd 8c4c d2bc
00000100: 1dda 38bd fbdd 29bd a051 49bd 3590 abbc
00000110: 272a 2abd 7b7b 8b3d 99c7 0abd 4b0f e73c
00000120: 7954 0e3c 5b11 a0bb 6829 0a3d 4cca 133d
00000130: d288 fd3c 9281 a33c 43bd e23c c39e 37bc
00000140: c799 10bd f7bf 23bd e788 9cbd 7d04 18bd
00000150: d36a 0e3d e95d 623c 019a 493d 1818 ffbc
00000160: 1829 53bd f605 1abd 0c2e 74bc ed76 8dbc
00000170: 4dee 5ebd 05e7 213d e128 69bd fac4 0a3d
00000180: c75d 723d 0284 8e3c f695 7cbd f6be 083d
00000190: d8d1 063d a8aa a8bc 3271 c23c 19b7 2e3c
000001a0: ab0e a93c ef0b 283d e80b 163d 43ca efbc
000001b0: 914a 75bd 5417 023c 1fc1 27bd 6dcf acbc
000001c0: b60d 2d3d ebf3 efbb 7532 c4bc eac5 a93c
000001d0: f5d0 163d 99b8 2fbd f224 cbbc 4b11 0fbd
000001e0: db33 093c b998 02bc 58f9 e8bb 9b39 413d
000001f0: 80ce 5f3d ca19 4a3d 591c e1bb 2a24 87ba
00000200: a52f 543c fe12 60bc 3d0c 67bd b014 de3c
00000210: 37d4 4b3d 4809 e2bc df92 403d d9e5 103d
00000220: ef74 273d ecce 6c3d d9ff 273d a335 7cbd
00000230: 063e 83bd 0153 6f3c e85c 723d 65eb 1fbd
00000240: 993b 4f3d cd42 90bc 586f 5ebd 89f8 4c3b
00000250: 0013 743c ef7e 323d 0188 5d3d 07b5 1e3d
00000260: d9f6 6c3d 7a08 4e3d c2fa 893c 5810 98ba
00000270: d877 3dbc dda3 753d 9e77 3b3d 9769 5dbd
00000280: 0162 8e3c bd67 80bc 9f06 f4bc eca8 af3c
00000290: 5e28 94bc 730f 7cbb f201 c33c 0757 fabc
000002a0: 8107 a13c 2428 09bd 3314 68bd 3db9 2fbd
000002b0: 784a 5d3d 7039 e0bc e8c4 ca3c 8544 4b3c
000002c0: ef7a 0ebb d47a 34bd 60fe 873c bbf1 cc3c
000002d0: 6152 813c 9462 3e3b 7a53 d0ba 593c 633d
000002e0: d8f6 15bd 0b0b 19bd fceb 9dbb ca82 553d
000002f0: 0f86 933c 934b bfbc 82f0 21bd 65bd 44bd
00000300: f4ae 8bbc 7fc8 cf3c 4bae b63b 989e 5bbd
00000310: 4936 67bd 23b7 223d 1e62 3ebd dab4 6a3b
00000320: 332e 25bd e009 843d ee0d 533d f99a 093d
00000330: 0e42 3bbd 8cea 21bb 3091 38bd 0090 06ba
00000340: fe4e 43bd e37b c3bc e00b eabc 9d37 083d
00000350: 5fae cabc 6774 d3bc b99b dbbc 0db4 7abb
00000360: 78a2 6bbc a86b 78bb 442b 223d fed5 8cbc
00000370: a2bd 37bc fc04 cd3c 647f 043d ed8c d0bc
00000380: 5c48 d03c a4c9 613d 75db 133d 8bee 82bd
00000390: 7ab8 fc3c 634b 653c f11a 17bd 4815 5a3d
000003a0: 2c2c 78bb 2e43 99bc c0a9 57bd 9fc5 e6bc
000003b0: baf3 42bd 9719 b23c 1e1b 49bd 3048 3b3d
000003c0: 7af1 8abc 96b0 86bc 9885 3c3d 24bc d0bb
000003d0: b6c1 223d 7a1e 38bd bd37 78bd 7ca5 e13c
000003e0: bbf9 58bd 2f12 3e3d db54 bf3c aa1d 0dbd
000003f0: 0a77 793d f6c9 343c dfb3 80bd c166 8f3d
0.054464377 0.043284416 -0.061362676 0.042165585 0.050476674 -0.03955126 0.026490143 -0.05030569
-0.0037127652 -0.044570714 0.003406225 -0.03758089 0.0016686696 0.0035264334 -0.0033829536 -0.012196237
-0.048302334 0.041229684 0.057399914 0.037782088 0.054941427 -0.05702506 -0.013303811 -0.043071114
0.04440271 -0.010052924 0.065336145 0.068256006 -0.053409223 -0.062004436 -0.048952647 0.0026342191
-0.035087503 -0.05835574 -0.017108671 -0.0022885958 0.06088854 0.07106928 -0.03751064 -0.020471592
-0.020598875 -0.008937403 0.018576631 0.032440737 -0.054627933 -0.03912766 -0.017591184 0.0032113483
0.014278033 -0.042387716 0.05486834 -0.025544595 -0.05627429 0.0111315455 -0.049587164 0.06465979
0.010943798 0.035039295 0.047971543 -0.032347612 0.032285795 0.0020540871 -0.056971677 -0.025671266
-0.045129884 -0.041471463 -0.04915011 -0.020942787 -0.041544106 0.068106614 -0.033881757 0.028205534
0.008687132 -0.0048848814 0.033730894 0.036081597 0.03094903 0.019959245 0.027678138 -0.011207285
-0.035302904 -0.039977994 -0.076432995 -0.037113655 0.034769844 0.013816335 0.049219135 -0.031139418
-0.051552862 -0.03760334 -0.014903557 -0.017268622 -0.05442648 0.039526958 -0.05692375 0.033879258
0.059171464 0.01739693 -0.06166645 0.03338524 0.032914966 -0.020589188 0.023735616 0.010663771
0.020636877 0.041027006 0.03663245 -0.02927125 -0.059885565 0.007940132 -0.04095566 -0.021095002
0.042249404 -0.0073227785 -0.023949841 0.020724256 0.03682037 -0.042900655 -0.02479789 -0.0349286
0.00837418 -0.007970982 -0.007109802 0.047174077 0.054640293 0.049341 -0.0068698344 -0.001031046
0.0129508125 -0.013676403 -0.056408156 0.027109474 0.04976293 -0.027592316 0.047015067 0.03537545
0.040883 0.057814524 0.04101548 -0.06157459 -0.064083144 0.014607192 0.059170634 -0.03904285
0.050593946 -0.017609978 -0.054305404 0.0031276068 0.014897108 0.043578085 0.05408478 0.03874686
0.0578526 0.050301053 0.016843203 -0.001160155 -0.0115642175 0.059970725 0.045768373 -0.054055776
0.017380716 -0.015674466 -0.029788313 0.021442853 -0.018085655 -0.0038461357 0.023804639 -0.030559076
0.019656898 -0.033485547 -0.05665989 -0.042901266 0.054026097 -0.027371138 0.024752095 0.012406473
-0.0021740755 -0.04406245 0.016600788 0.02501761 0.015786352 0.0029050456 -0.0015894019 0.055477474
-0.03661236 -0.037364047 -0.0048193913 0.052126683 0.01800826 -0.023351466 -0.039536007 -0.048032183
-0.017051198 0.025364159 0.0055749766 -0.053618044 -0.056448255 0.039725434 -0.04648029 0.0035813362
-0.040327262 0.06447196 0.051526956 0.03359506 -0.04571729 -0.0024706451 -0.045060337 -0.0005133152
-0.047682755 -0.023862785 -0.028570116 0.033256162 -0.02474135 -0.02581234 -0.026807653 -0.0038254291
-0.014381997 -0.0037905965 0.039592043 -0.017191883 -0.011214646 0.02502679 0.03234805 -0.025457824
0.025425129 0.05512394 0.036097962 -0.06393155 0.030849684 0.013995024 -0.036890928 0.05324295
-0.0037868125 -0.018708792 -0.05265212 -0.028170405 -0.047595717 0.021740718 -0.049098127 0.04572314
-0.016960848 -0.016441625 0.046025842 -0.0063700844 0.03973552 -0.04495094 -0.06060003 0.02754473
-0.052972537 0.04640406 0.023355892 -0.034452118 0.06090454 0.011034479 -0.06284308 0.070020206

weight f4 [256, 256]
00000000: 348f 82bd 2597 563d 5db2 ed3b e98a cfbb
00000010: 8f19 ddbc 63bf f13c cc41 323d b800 653d
00000020: 57ab 863c bcfa d9bc 1c3d abbd 423f 343d
00000030: 1667 45bd 8087 733d 8032 713d f94f 07bb
00000040: 4dad 90bd 7976 71bd f9e6 233d af58 ecbb
00000050: e19e 30bd 9798 f73b 81b4 153d 0b6c 633d
00000060: 9de8 56bd 4a6f 1abd 29d3 783d 703a 593d
00000070: 185b 34bd ea4c 2a3d 8111 31bc c41c 4ebd
00000080: 7348 4cba 6e98 86bc b58c a33b 700a a6bc
00000090: 9ce2 713a 688d cc3c 7638 59bd d6bf b6bb
000000a0: 3820 ed3c bd3a 3b3d 1783 99bc 76bd f5bc
000000b0: 4a8b 9a3b 5892 0e3d c612 373d 709e e6bb
000000c0: 114a 393d 7295 0abd d9a3 c6bb a3e8 8ebc
000000d0: ed73 16bd bd61 33bc 7242 143d 3c51 eebc
000000e0: ffd5 3bbd 537b c7bc 13f7 f33c 803c 36bd
000000f0: 70af 833d 491c 5c3d 42ce 8a3a 1f29 3e3c
00000100: 9318 973c 8a29 43bd 1de4 783d efbd 5fbd
00000110: 0d18 76bd a964 0e3c 6fc4 693d eaef 2b3c
00000120: 1cc8 f7bc 88c3 2dbd 44d2 e6bc aef1 073d
00000130: 328b 133d eaac ddbc 8ca2 723d 3d90 593d
00000140: 24b6 26bc 5215 09bc 6bd1 173d 1e62 36bd
00000150: b05b 9a3d a38e 0a3d a597 68bd 9279 bb3c
00000160: a2f3 893d 8866 02bd 07f9 66bc cbbc 3dbd
00000170: aa3a 00bd f8f3 d23c af40 bebc 78a3 72bd
00000180: eef0 a23d b84d c13c 75a6 993c 583c 47bc
00000190: 68df 51bd f46a f8bc 4fb3 6a3d 2574 e33b
000001a0: 0073 b63c 5d85 9b3c 0547 8cbb b115 f83c
000001b0: e6ab fdbc 858d 89bc 5747 97bd 02be 383d
000001c0: 2f70 2bbd 8a53 bfbc e9dc 81bc ad19 043d
000001d0: 5ef5 ecbc 2ca2 51bd 4a99 7cbd d49f 0ebc
000001e0: d445 a23c 86cf af3c 425c 28bd 5034 93bc
000001f0: 819b 723d c961 483b 67f7 3a3c 1ae2 d73c
00000200: 0097 093d 210c a63c d630 ce3c 3795 733d
00000210: 52a4 6dbd 48d1 d73c d0f4 083d 71db 0a3d
00000220: a830 43bc 3aad febc 81bb 96bd a6b6 5f3d
00000230: b9aa 72bd 9ae9 37bd 5608 f93c 539e 973c
00000240: 6c6f e23c e9cf a53c 3a5f 203d 810d 66bc
00000250: 18f1 03bd 4875 66bb 9b5e 243d b4a4 bd3c
00000260: c075 113d 00c5 54bc 42f3 0dbc 3680 5bbd
00000270: 90d3 babc 0790 d6b9 77ee e33c 1c12 723d
00000280: cbc2 6a3d 01e8 80bb 93f0 d93c 11fc 05bd
00000290: 1b55 e03c d255 7c3d 795c 573d a32b 17bd
000002a0: 3d0b 713d bed5 683d d3c7 1f3d 81cd 803d
000002b0: 5fba c53c 8d5b 0a3d 72db db3c 1a0b 4fbc
000002c0: 0a10 283d d002 863d 8d85 4fbd 23b4 55bd
000002d0: 906d 0d3c d3f1 293d 2962 0fbd 6326 aabc
000002e0: 50f6 143d 58ef 76bd e9fc 99bd c0dd 1bbd
000002f0: 9dd6 1ebc 98e9 b2bc 5117 863d 6e33 6b3c
00000300: f6e4 253d 01c4 2d3d 2fc3 fcbc ca72 e5ba
00000310: 4ade 92bc 38a5 50bd db4e cd3b d340 2fbc
00000320: 354d a63a 8eba 8a3b 3706 65bd 9ea5 6538
00000330: e12b 23bc 01f9 dc3c b1b5 d7bc 20db 293c
00000340: 04c0 6f3d 9469 503d 4988 65ba bb0a f53c
00000350: 769f a43c 7923 c43c 98f6 8dbc 7b3a 8b3c
00000360: 4bd4 743d 94fd f83c 6aac 3a3d 154c 2e3b
00000370: ceae 5a3c a943 12bd 14ae 6a3d d849 553d
00000380: dfb0 bd3c 7d6c 4d3d f3c5 5dbd c7ec 03bc
00000390: 8754 55bc 0749 5cbd 4f6a 6b3c e63b b93d
000003a0: b550 ffbc 906a 333d df9b 12bb 1dd9 9e3b
000003b0: 9171 c5bc b97f 33bd 57f1 0dbd 78f7 113d
000003c0: a3ca 9b3c 4d5c 273c c26c 253d a3b5 77bd
000003d0: c25e 383d 804a 173d cdb9 973c b6ef 243d
000003e0: 21ce b23c 39ca 2b3d 2301 18bd 4b41 773d
000003f0: 54a5 0b3d d034 5bbd 9318 053d 7ad7 b9bc
-0.0637497 0.052390236 0.0072539286 -0.006333698 -0.026989726 0.029510206 0.04351978 0.05590889
0.016439123 -0.026608817 -0.08361265 0.04400564 -0.048194014 0.059455395 0.05888605 -0.0020647033
-0.070643045 -0.058950875 0.040015195 -0.0072127203 -0.04312027 0.007556032 0.036549095 0.05552296
-0.05246793 -0.03770379 0.060748253 0.053034246 -0.044032186 0.041577257 -0.010807396 -0.0503204
-0.0007792778 -0.016430106 0.004991139 -0.020268649 0.0009227188 0.024969772 -0.05303236 -0.005577068
0.028946027 0.045710314 -0.018739266 -0.029997569 0.0047163116 0.034807533 0.044695638 -0.00703793
0.04523665 -0.03383393 -0.0060620126 -0.017444914 -0.03673165 -0.010948596 0.03619618 -0.02909147
-0.04585838 -0.024350798 0.0297809 -0.04449129 0.064299464 0.053737912 0.0010590034 0.011606484
0.018444335 -0.047647037 0.06076442 -0.054624494 -0.06008153 0.008690991 0.0570721 0.010494212
-0.030246787 -0.0424228 -0.028176434 0.033189468 0.03602142 -0.02705999 0.059237048 0.053116072
-0.010175262 -0.0083669 0.03706495 -0.044527166 0.07537019 0.033827435 -0.056785244 0.022885118
0.067359224 -0.031836063 -0.014097459 -0.046322625 -0.031305946 0.025751099 -0.023224203 -0.059237927
0.0795611 0.02359663 0.01875613 -0.012160383 -0.051238447 -0.030324437 0.05729991 0.0069413357
0.022271633 0.018984491 -0.004280927 0.03028378 -0.030965757 -0.016791115 -0.07386654 0.04510308
-0.041855033 -0.023355264 -0.015852408 0.03225105 -0.028925594 -0.05118005 -0.061669625 -0.008705098
0.019808687 0.02146126 -0.04110361 -0.01796928 0.05923033 0.0030575863 0.011411524 0.02635293
0.03359127 0.020269455 0.025169771 0.059468474 -0.058018036 0.02634491 0.033436596 0.033900682
-0.011913456 -0.03108846 -0.07359982 0.054617546 -0.059244845 -0.044900514 0.030399483 0.018508112
0.02764102 0.02024074 0.039153315 -0.0140413055 -0.032212347 -0.003516512 0.040129285 0.023149826
0.035512686 -0.012986422 -0.008663954 -0.05358907 -0.022805959 -0.0004092457 0.02782367 0.0590993
0.057314675 -0.003933907 0.026603973 -0.032711092 0.027384331 0.061605282 0.052578423 -0.03690685
0.05884861 0.056844465 0.039008927 0.06289197 0.02413672 0.033778716 0.026838038 -0.012636924
0.04103092 0.06543505 -0.050664473 -0.052173745 0.008632079 0.041490387 -0.035005722 -0.020770257
0.036367714 -0.06028685 -0.07518942 -0.038053274 -0.0096947225 -0.021839902 0.06547416 0.0143555235
0.040501557 0.042423252 -0.03085479 -0.0017505523 -0.017928261 -0.050938815 0.006265504 -0.010696608
0.0012687804 0.004233665 -0.05591413 5.4752098e-05 -0.009959192 0.026974203 -0.026331754 0.010367185
0.05853273 0.050881937 -0.0008755965 0.029912343 0.020095568 0.023942696 -0.0173295 0.01699566
0.05977277 0.030394353 0.045574583 0.0026595641 0.013347341 -0.035709057 0.05729492 0.052072376
0.023155628 0.05015229 -0.054143857 -0.008052058 -0.013020641 -0.05378058 0.014368608 0.09044628
-0.031166414 0.043802798 -0.0022370738 0.0048476593 -0.024102004 -0.043822978 -0.034653988 0.035636395
0.019017523 0.010214877 0.040386923 -0.060475957 0.045012243 0.036936283 0.018521214 0.04026767
0.021826806 0.0419409 -0.03711046 0.060365003 0.034093216 -0.053517163 0.03249414 -0.022685755

bias f4 [256]
00000000: a924 4c3d f844 613d bc8d f6bc 5d70 4e3d
00000010: 0d54 f6bc c943 133d df0e 213d 632a d2bc
00000020: a42f 5dbd b90e 4dbc 302b 2d3b fb96 a7bc
00000030: 687d 62bc ed05 923c 0287 053d 183a 57bd
00000040: 47db 24bd 1232 863d db39 14bd ae9f e93b
00000050: e207 343c bfca 5d3d fcdc 39bd e55b 5fbd
00000060: 4fbf 653b a690 d63c 761f 4a3d 8ce1 f33c
00000070: 2bfe 4c3d c720 0a3d 1a44 1abd 6dc6 553d
00000080: a041 f43b 0f76 c83c d203 bc3c 77e8 583c
00000090: d296 6f3d 73d0 b73c eb3b 683d dad3 1d3d
000000a0: a02e 81bb d219 373d 2e7f bbbc 20b0 1ebd
000000b0: b7e0 87bd 906a eb3c 3ca3 c43c fd45 83bd
000000c0: 889b 5ebd e640 e53b d144 52bd c346 d63c
000000d0: 9bb7 243d 3610 4c3d 589a 1ebd 3437 f8bb
000000e0: f4d8 3ebd bb0c 8e3c 8bb9 743d b5c6 843d
000000f0: cf98 843c 1f21 4b3d 6577 e1bc 1799 a7bc
00000100: c6ea 51bd cb39 1cbd 8fc9 30bd 5d5a cbbc
00000110: 032a c23c 90a2 9a3b 32c7 ed3c ee82 4e3d
00000120: ac13 4d3d 08b3 1cbb 4c13 fcbc 3fc5 833d
00000130: 2045 25bd 0d49 6dbd 9f27 b7bc c510 afbc
00000140: 9678 d63c 1ffc e5bc 5cd9 7b3c de6a 68bd
00000150: 1965 cebc b807 0fbd 59e3 17bd 955d 243d
00000160: 9212 59bc 82ff cf3b 512e 613d 42bc 143d
00000170: 5c5f 463d f477 c4ba d406 f33c 6de0 1ebc
00000180: 719f 8abb cbcb 22bd c23f 25bc 1abc 3bbd
00000190: b1e1 5bbc 5bdb 663d 0ef4 c0bc bdf1 2d3c
000001a0: 4baa be3b aa14 eebc b021 403d def4 953c
000001b0: 47b0 dc3c d2e9 443b 6365 273d 49fb 4c3d
000001c0: ed85 f33a e441 41bb 4b8c a73c ddd3 d33c
000001d0: 42ec d73c 23ac f7bc 40dc 1c3d e5c7 393d
000001e0: e93a 263c b277 40bd 0af7 793d 6595 273d
000001f0: 0ac8 593a f68e 033d 05dd 12bd fd63 553c
00000200: 521d 903b e98c c73c 40d3 48ba 0eb1 08bd
00000210: fbe3 113d 5447 d93b 903a ce3b 9bcd 64bc
00000220: d475 17bc 60e3 023d d03f 813d bef1 3bbd
00000230: a4f5 51bd e2a0 9e3c b22a ae3c 8239 adbc
00000240: 93ab 6c3d f0d2 e53c c7ef c03c 93f3 5e3d
00000250: 06c4 b83c 97ab b4bc 56b3 833d 554f 34bd
00000260: 019c e8bc 1653 4d3d 991b 203d 9b9f 38bd
00000270: c647 4fbd b2e1 113d 3d1b 38bd 3686 e7bc
00000280: 06a6 023c e994 7e3d 001b 60bd 6ae4 463d
00000290: 0c49 67bd 5876 3f3d 0b5b 58bd 9a20 6e3d
000002a0: 4d78 2f3d fa80 8e3c 430f 33bd f679 1dbd
000002b0: e501 7e3d fda3 853d b543 fc39 1b55 383d
000002c0: b6ab 59bd ff8c 3f3d 4a34 5d3d a031 213d
000002d0: 14c1 4d3d cf3b 23bd d292 593d dbec 603c
000002e0: b150 f7bc 5b00 c8bb 22d3 aabc f456 163d
000002f0: f115 9ebc 273e 98bd b5c4 83bc 404d 62bd
00000300: dcd7 c03c 479e d2bc c736 833d 169e 0e3d
00000310: 9a6d a53d cac2 43bd dd2b 873d 24de f23c
00000320: 8901 453d 4e89 6a3c 792f 793d 4297 93bc
00000330: ab28 aebc 3ecc c1bc fec0 d33c 8d61 693c
00000340: 08ef 333d ad14 8abc 0bf7 003d 9203 81bd
00000350: dd85 8fbb adb2 13bd b5b3 19bd 91e6 0e3a
00000360: fd52 1f3d aee8 5f3d 2d2d 9c3c 52e7 4ebd
00000370: c4c1 943c 6cc1 633c c254 68bc 161e 09bd
00000380: 27d1 753b 2a39 863c 4551 39bc 0970 113d
00000390: d72b 50bd 8e2d 433d 17a5 41bd 1be7 8d3d
000003a0: 67e9 e2bc d259 21bd 3af4 8a3c de7a 293d
000003b0: d9d1 343b 35aa b3ba 8bbe 5f3d 2eec ad3c
000003c0: fc8d 38bc acb7 3cbc e4f1 d6ba a1d7 2abc
000003d0: 3a08 14bd 94c1 86bc 9d27 3e3d 741b 8ebc
000003e0: 1b50 febb 71fb c83b a063 c43c e373 92bc
000003f0: 563f bb3c 9f21 4cbc acdd 9b3c 8ba8 443d
0.04983965 0.054997414 -0.030096881 0.050400127 -0.030069375 0.035953317 0.039320823 -0.025654977
-0.05400051 -0.012515717 0.0026423447 -0.020457735 -0.0138238445 0.017825091 0.032599457 -0.052545637
-0.04024818 0.06552519 -0.036187988 0.007129631 0.0109882075 0.054148432 -0.045376763 -0.054530997
0.0035056656 0.02619202 0.04934641 0.029770635 0.05004708 0.033722665 -0.037662603 0.052191187
0.007454112 0.024470357 0.02295104 0.013239018 0.058493443 0.022438264 0.056697767 0.038532116
-0.0039423257 0.04470236 -0.022887792 -0.038742185 -0.06634658 0.028737336 0.024003617 -0.064098336
-0.054347545 0.006996262 -0.05133516 0.026156789 0.040214162 0.049820147 -0.038721412 -0.00757494
-0.04659362 0.017340055 0.05974726 0.06483213 0.016186146 0.049592134 -0.027522752 -0.020458741
-0.051249288 -0.038141053 -0.04316097 -0.024823362 0.023701673 0.004719086 0.029025648 0.050417833
0.05006759 -0.0023910422 -0.03077092 0.06434106 -0.040349126 -0.057930995 -0.02235776 -0.021370301
0.026180547 -0.028074322 0.015371647 -0.05674254 -0.025194691 -0.03491947 -0.03708205 0.04012831
-0.013249056 0.0063475976 0.05497581 0.03631235 0.048430786 -0.0014989362 0.029666342 -0.009697062
-0.0042304327 -0.039745133 -0.010086002 -0.045833685 -0.013420508 0.056361537 -0.023553874 0.010616717
0.0058186403 -0.029062588 0.046907127 0.018305238 0.026939524 0.0030046594 0.040868174 0.05004433
0.0018579342 -0.0029488737 0.02045264 0.02585786 0.026357774 -0.030233448 0.038295984 0.04535665
0.010145881 -0.04698915 0.06102661 0.040913958 0.0008307701 0.03211876 -0.035855312 0.013024327
0.0043980265 0.024359183 -0.0007660873 -0.033371978 0.03561781 0.0066308174 0.0062936023 -0.013965036
-0.009244401 0.031955123 0.063109994 -0.04588484 -0.05125965 0.019363824 0.021260593 -0.021145586
0.057780813 0.028054684 0.023551835 0.05443151 0.022554409 -0.022054477 0.0643069 -0.04402097
-0.028394701 0.050128065 0.03908882 -0.045074087 -0.050605558 0.03561563 -0.04494785 -0.028262239
0.007974153 0.06215373 -0.05471325 0.048557676 -0.056466147 0.04674372 -0.0528212 0.05813656
0.042839337 0.017395485 -0.043715727 -0.03844639 0.062013526 0.06525419 0.0004811563 0.045003038
-0.053142272 0.046765324 0.054004945 0.039353967 0.05023296 -0.03985196 0.053118534 0.013728346
-0.030189844 -0.006103558 -0.02085263 0.03670402 -0.019297572 -0.074337296 -0.016085008 -0.055249453
0.02354043 -0.025710238 0.06406932 0.03481873 0.080775455 -0.047793187 0.06600163 0.02964694
0.048097167 0.014314963 0.06083629 -0.018016461 -0.021259626 -0.02365696 0.025848862 0.014244449
0.04392913 -0.016855562 0.0314856 -0.06299509 -0.0043799714 -0.03605907 -0.037524898 0.0005451227
0.038897503 0.05466526 0.01906451 -0.050513573 0.0181588 0.013901096 -0.014180364 -0.033475958
0.0037508698 0.01638468 -0.01131088 0.035507236 -0.05082306 0.047650866 -0.047276583 0.069288455
-0.027699186 -0.0393923 0.01696216 0.04137694 0.00275909 -0.0013707342 0.054625075 0.021230783
-0.01126432 -0.0115184 -0.0016398993 -0.0104273865 -0.036140658 -0.016449727 0.046424497 -0.017347075
-0.007761014 0.00613349 0.023973286 -0.017877525 0.02285735 -0.012459188 0.0190266 0.048012298

weight f4 [128, 256]
00000000: 4e58 17bd 13a9 d0bc c9a1 0a3d a695 ea3c
00000010: 3ba7 3fbd 8c94 453d c922 823d f885 603d
00000020: 9a76 4bbd a349 b03c 727a fbbc 7eaf 38bc
00000030: f563 b83d 2234 993d cc8f c9bc 6967 f93a
00000040: 03df 1a3d 6af2 543d b2a7 d23c 3d4c d73c
00000050: 9175 623c 875f c93c 46d7 513d 6b27 bc3c
00000060: 6850 943a 1426 6bbd 48a6 a43d 3621 25bd
00000070: f4cd 4dbc 50db 1bbd cd30 a33c 5866 943d
00000080: 73dd a5bc a7f5 003d f038 4cbb 6417 4dbd
00000090: f269 2bbd a791 cf3c 7175 ad3b bd4b 4a3d
000000a0: a21c 653d 2b00 8e3d 0894 14bd 6ee3 483b
000000b0: 6cd9 45bb 0598 53bd 190c 123d 175b 87bd
000000c0: d8bb a63c f86a 8abd a3f3 30bd cbb5 13bd
000000d0: 677a 60bc 5e87 6ebd a792 043d ec8c 53bc
000000e0: 3ef2 413d c972 8e3d cdd1 37bd 0dab 4cbb
000000f0: 8936 5cbc 6e34 4b3d 50b3 ffbb ae62 a7bc
00000100: f0b2 8f3c b0b4 0b3d 66b8 ffbc 8e1f 143d
00000110: 5eef 38bc af27 663d 733e 513c 4064 c9bc
00000120: dc5b 3b3d cc9b b43d baea db3a 6e67 bfba
00000130: 62b6 083d 7bdf dabb 464f 35bc b096 96bd
00000140: c9bb 9d3d 8749 3b3d 6fec 0a3d fe2c 6bb8
00000150: 7861 8d3c 3503 a83d 4fda 7a3d 9a58 17bd
00000160: c338 b63a 2b12 a2bc 514a 02bd d50e 20bd
00000170: ac6d 4d3c 13ff f83c a7f5 8abd a731 313c
00000180: a8c3 953d 1672 303d 2eca f83c c4a1 38bd
00000190: d128 a73d 93d2 823d 17da 7e3c ff00 6b3d
000001a0: bf2d 33bd 88a4 5b3d 11f9 8fbd c31c 0d3d
000001b0: 9e98 46bd 34fe 763d 33be c3bb 9220 853d
000001c0: 6414 fabc d431 59bd fd5e 2dbc 0674 18bc
000001d0: d0ef 93bc de5d 713d 46ff 35bd 9299 3ebd
000001e0: cd7c 4fbd fe28 2f3d 1f39 923c f386 13bb
000001f0: 6742 c23d 47a9 4dbc 453d cfbc 7927 e7bb
00000200: 914b e73c 409d 753d 5b00 9bbc e491 55bd
00000210: e666 533d 353f 4e3d b20e 68bd 0b2e 6bbd
00000220: f8ca 77bd 4230 5d3d e193 123d c3cc 18bd
00000230: e8be 52bd b8e0 9e3d eba0 21bd 817d 17bd
00000240: e352 e03b 4fae 5f3d 02d2 b9bc 2a95 68bd
00000250: 40fc d8ba cf03 8fbc 8e3e 173d 8138 ba3c
00000260: 2e94 56bd 5696 743c 5d91 133c c3dc 77bd
00000270: c208 0ebd 1cf2 8b3d 873e 2f3d 365f 62bd
00000280: 196c 0e3d 4f11 873d b042 e33c 6098 423a
00000290: acca 9fbd 4563 b53d e4e8 dbbc 4f08 aa3d
000002a0: 6196 22bc 559e 38bb 3436 22bc 1cff 29bd
000002b0: bbc5 e7bb bb3c a0bc 4201 1c3d 0983 c33c
000002c0: a6eb d43c 416a df3c 68b0 20bd e736 023d
000002d0: 3221 48bd 8e51 4dbd 7974 ac3a dd70 1c3a
000002e0: 89c9 43bb 7f5b 2f3d 8849 37bd a942 90bd
000002f0: ce28 1f3b fcd7 82bd 68f0 f23c 77b3 2c3c
00000300: 91f1 8abc d49f 75bd 0f79 383d 1b20 543d
00000310: b539 4dbd a3f5 993d 199f 5d3c 68f8 23bd
00000320: a99d ab3d 591c 3ebc 4fd9 103b c7a9 a33d
00000330: ea17 bb3c 515c 60bd 14d1 51bc e982 e33c
00000340: 0325 9abb a619 4f3c ef84 b93d dee7 473c
00000350: f4e6 c23c ce91 8c3a 3453 893d 2755 5ebd
00000360: 5cb6 97bc 8c27 d2bc 82b4 7bbd 27f4 16bd
00000370: 8552 0dbb d371 39bd 2efb 0fbd 8d74 5bbc
00000380: fd06 75bd 8941 acbc bcb0 103d 146a 943c
00000390: 84fa b9ba f6e3 6abc 5990 403c 76bd b33d
000003a0: 825b cd3c 7544 dcbc a0ac b4bb 3064 63bd
000003b0: 5f04 ee3c 72f3 083d bb8d 8b3c 5c29 663d
000003c0: 8ab7 563d 767a 043c 6c8c ef3c 3e96 8fbc
000003d0: e0bf 213d b65e 10bc d808 353d 0ca0 6dbd
000003e0: 0bb5 e9bc 3524 1c3c 21e0 0bbd 5dad 1a3b
000003f0: 5da8 5abc 0339 0d3d a167 d9bc 030a 15bd
-0.03694945 -0.025471246 0.033845697 0.028635811 -0.046790343 0.04823737 0.06354291 0.054815263
-0.049673654 0.021519488 -0.030698035 -0.011272309 0.0900344 0.07480647 -0.0246047 0.0019028011
0.037810337 0.051988997 0.025714729 0.02628147 0.013821975 0.024581684 0.05123069 0.022968015
0.0011315467 -0.05740936 0.08039528 -0.040314876 -0.01256131 -0.03805095 0.019920731 0.07246083
-0.020247197 0.031484272 -0.0031161867 -0.050071135 -0.041849084 0.025338007 0.005293541 0.049388636
0.05593551 0.06933626 -0.036273986 0.0030653137 -0.0030189408 -0.05165865 0.03565607 -0.06609171
0.020353243 -0.06758684 -0.0432011 -0.036062043 -0.013701058 -0.058234565 0.03236642 -0.012912016
0.04735016 0.06955487 -0.044877816 -0.0031229884 -0.013440737 0.049610548 -0.007803358 -0.020432796
0.017541379 0.034107864 -0.031215858 0.036162905 -0.011287538 0.05619019 0.012771237 -0.024583936
0.0457419 0.088187784 0.0016778328 -0.0014602968 0.03337706 -0.006679473 -0.011066264 -0.0735296
0.07701833 0.045724418 0.033916887 -5.607027e-05 0.01725839 0.08203737 0.06124335 -0.03694973
0.0013902414 -0.019784054 -0.031809155 -0.039076645 0.012538355 0.030395066 -0.06785136 0.010815061
0.07312709 0.04307755 0.030369844 -0.045076147 0.08162082 0.0638782 0.015554926 0.057373997
-0.0437448 0.053623706 -0.070299275 0.034451257 -0.04848539 0.06030102 -0.0059736012 0.06500353
-0.030527301 -0.053026035 -0.010581729 -0.009305006 -0.018058687 0.05892741 -0.0444329 -0.046533175
-0.05065613 0.042763703 0.017849503 -0.0022510856 0.094853215 -0.012552566 -0.02529777 -0.007054266
0.028234275 0.05996442 -0.018921068 -0.052141085 0.051611803 0.050353248 -0.05665464 -0.057416957
-0.0604963 0.0540011 0.03578556 -0.03730465 -0.051451594 0.077577055 -0.039460104 -0.036984924
0.0068458184 0.054609593 -0.022683147 -0.05678288 -0.0016554669 -0.01745787 0.03692489 0.022732021
-0.05238741 0.014928421 0.009006825 -0.06051327 -0.03467632 0.06833288 0.04278424 -0.05526658
0.03477106 0.06595098 0.02774176 0.00074232183 -0.078023285 0.08856825 -0.02684445 0.08302366
-0.009923548 -0.0028170545 -0.009900618 -0.041503057 -0.007073132 -0.019560209 0.038087137 0.023866193
0.025991272 0.027272345 -0.039230734 0.03179064 -0.048859783 -0.050126605 0.001315727 0.00059677457
-0.0029874763 0.042811867 -0.04474786 -0.070439644 0.0024285796 -0.06388852 0.02965565 0.010540835
-0.016960891 -0.059966877 0.045037325 0.05178843 -0.05010386 0.075175546 0.013526701 -0.04003182
0.08379681 -0.011603438 0.0022102182 0.07991367 0.022838552 -0.05477554 -0.012806196 0.027772384
-0.004704119 0.012640392 0.09058558 0.012201278 0.023791768 0.0010724606 0.06705323 -0.054280426
-0.018519573 -0.025653623 -0.061451443 -0.036853936 -0.0021564078 -0.045274567 -0.035151653 -0.013394487
-0.059821118 -0.021027343 0.035324797 0.018116988 -0.0014189039 -0.014336577 0.011753165 0.08776371
0.025068048 -0.026888112 -0.0055137426 -0.055515468 0.029054819 0.033435293 0.017035356 0.056191787
0.05242113 0.008085838 0.029241763 -0.017527696 0.039489627 -0.008811643 0.044197887 -0.05801396
-0.02852871 0.009530117 -0.034149293 0.0023601868 -0.013345805 0.0344782 -0.026538672 -0.0363865

bias f4 [128]
00000000: 3a4d 273d ef73 06bd 9162 bfbc 8a3c d9bc
00000010: 95f4 983d eae6 7c3d c806 4c3d bfc9 1b3d
00000020: aa11 893d 2c8d 8d3c b266 adbc d9c2 7d3d
00000030: 0462 80bd f754 f73b 77db 363c 8a95 463d
00000040: b6dd 843c d27c 05bd 8124 263c fb3a a73d
00000050: fe24 84bb 0028 d03b 00bd 283d 733f c93c
00000060: dbc3 a53d 9ee2 453c 21fd f63b f8c3 29bd
00000070: 8bab ab3c 0779 423c c15c 0ebd 9b04 023d
00000080: 1bca 4dbd 3236 4bbd 1abc 393c 1bcf 203d
00000090: 5e73 4bbd a93a febc 0b35 8cbd aa45 a73c
000000a0: 5df2 8d3d 554f 833d f1e3 1dbd e3c8 0b3d
000000b0: aa4f 3dbd 4ba7 da3c a521 f73c 5df2 0ebd
000000c0: 6b01 903d 8955 48bd 906a 1abd 4e5f e1ba
000000d0: c979 af3d 23c5 eabc 2f2a a03b 3a6c 9d3d
000000e0: a3bd 223c 169e 4abd de50 73bd 25f7 0abd
000000f0: b6be a83b 50e3 3bbd c5ed 3c3b 9c55 4e3d
00000100: 68bd e43c 80ac 53bd cd8d 543d b765 6e3c
00000110: 7a66 32bc eba6 a8bb 64fe a7bb 443d 843d
00000120: 5a30 1b3d 1b05 4dbd 6318 2d3c fdbe 42bd
00000130: 9bc4 243c fe67 cdbc 911a 2b3d 043a 6ebd
00000140: 5dcd 543d ff0c 4f3d db7e 083d 9513 12bd
00000150: 0e9f 943d 44fd e43b 00d0 3c3d 029b 87bc
00000160: cfbc f33c cac2 2a3d 1b54 383d 1aca 74bc
00000170: f289 a53d de88 ab3d 1a5a 15bd 19f5 0e3d
00000180: 5437 bb3c 6d46 27bd e2a6 a2bc a30e 633d
00000190: cf6f 0bbd 533d cc3b f15c 583d 1bc9 67bd
000001a0: e978 87bd 1633 7ebc 6465 c03d bcfa 4dbd
000001b0: d1bd a93d 7fc1 4d3d ae9a f7ba 5920 25bd
000001c0: 17ab adbc 8fa6 c3bc 27fa 9c3d c66f 27ba
000001d0: 29eb 4d3c 5a3e c6bc 6e30 65bb 64e2 983c
000001e0: 41a1 c43c 0d4a 52bd df15 b5bc 85b8 02bd
000001f0: e0cc 0b3d 8548 a23c 7b16 0a3d 6cd1 37bd
0.040845133 -0.032825407 -0.02336243 -0.026518125 0.07468525 0.061743654 0.049811155 0.038034197
0.06692822 0.01727923 -0.021167133 0.0619534 -0.06268695 0.0075479704 0.011160723 0.048482455
0.016219001 -0.03258974 0.010140539 0.081655465 -0.00403273 0.0063524246 0.04119587 0.024566388
0.08093997 0.0120779555 0.0075374995 -0.041446656 0.020955821 0.0118696755 -0.034756426 0.031742673
-0.05024157 -0.04961223 0.011336351 0.03926001 -0.04967057 -0.03103383 -0.06846055 0.02041896
0.06930993 0.06411616 -0.03854746 0.034127127 -0.04621855 0.0266911 0.03016741 -0.034899104
0.070315205 -0.048909698 -0.037699282 -0.0017194541 0.085681506 -0.028658455 0.004887841 0.07686658
0.009932908 -0.04946717 -0.059403293 -0.0339271 0.0051496876 -0.04587108 0.0028828245 0.050374612
0.027922347 -0.05167818 0.051893044 0.014550618 -0.01088869 -0.0051468513 -0.0051267613 0.06456998
0.03788791 -0.050053697 0.010564896 -0.047545422 0.01005664 -0.025074001 0.041773383 -0.058160797
0.051953662 0.050549503 0.033324104 -0.035663206 0.072569 0.0069881994 0.0460968 -0.016553406
0.029753117 0.04168967 0.045002084 -0.014940763 0.080829516 0.08375715 -0.03646288 0.034901712
0.022853531 -0.040838648 -0.019854967 0.05543388 -0.034042176 0.0062328964 0.05282301 -0.056588273
-0.06614859 -0.0155151095 0.09394339 -0.050287947 0.08288158 0.05023336 -0.0018890703 -0.040314052
-0.021199746 -0.023883132 0.076649 -0.00063872 0.012568274 -0.024199653 -0.0034971493 0.018662639
0.024002673 -0.05134015 -0.022105156 -0.031914253 0.03413093 0.01980997 0.033712845 -0.044877455
