Partha's CNN/MNIST_sd.pth (torch, 180231 bytes, 10 tensors)

conv1.weight f4 [6, 1, 5, 5]
00000000: 4d85 fc3d 4f75 2a3e a883 303d 2910 c9bd
00000010: 7099 05bc 9eb8 28bc c5d8 733c cf5c 23be
00000020: df7d d8bd 7bad 56bc 0591 5bbd 951d ebbd
00000030: 5756 573d 6dbd 033d a0b8 e3bd 612b 4bbe
00000040: c5c5 ac3d de37 3abe 2af0 2a3c ae59 e5bc
00000050: 4f09 e3bd 969c 473d b424 23be a021 21be
00000060: 6361 3ebe a670 c33d c430 19be cbc3 bdbc
00000070: 9ef9 ecbd 46cd c63a dc67 32be 5b09 55be
00000080: bf40 e8bd b1e0 503d 3f5e dbbd ef2b febd
00000090: 72c6 2e3e d714 22be 1fb5 e43d e42f 843e
000000a0: 301e ef3b 317f a3bd ecf9 123e 56e2 6a3d
000000b0: 0939 983d 36cb 123e 0e0d 54bd d4c8 733e
000000c0: cd47 59bd f5c8 1c3e cc50 9b3e 0627 883e
000000d0: cfa7 a03d b174 8a3e 5e3b 93bd ba0d 0a3e
000000e0: a49a c53e 92cb e23e 5f86 aa3e f086 50bd
000000f0: ae11 ff3e cf3c 1a3f de99 733e 6d9c 313e
00000100: eb7d ba3c 3605 1d3f d9ee b63e 4488 e43e
00000110: 7265 b13d 4349 d9bc d7d2 c33e 01fd 193f
00000120: 7ec6 0b3f 816c b43e ebe3 853d d5bb 26be
00000130: 8b52 ed3c c9de 3ebe e7ce 1dbe c09e 45be
00000140: de81 46be f9a9 43be 3cc0 a0bd 829e 2b3c
00000150: bbbd 2dbe f497 4b3d 5436 933d f74c 12be
00000160: 2b3e 813d db80 13bc a908 e43c 88f2 e83d
00000170: 5097 423e 0a1c 843d 5b71 e9bc ad1c a63d
00000180: 833d 22be c240 063e 7f7c edbd 2df8 2e3d
00000190: c2ae 4f3e 179d fd3d 0338 f5bd 2dd4 28be
000001a0: 5a39 3bbe d61e cabd 5179 783b d28f 0cbe
000001b0: ecab 863c b2a3 6a3e 1df7 763c 0d4c 393d
000001c0: eb5f 4d3e bb02 653e 035b 0d3b 1298 193e
000001d0: 8f63 743e befc acbd 3fe4 a93d a434 8d3e
000001e0: 8655 883e e34e 613c 3db5 88bd 5c67 05bd
000001f0: d8e7 0fbd 84f2 1abe c034 773d 1cea ed3d
00000200: 8979 f9bc a7ef 08bc 04c9 2fbd 6e58 843c
00000210: ce82 953c 1151 543e d3ba 7b3e b102 d03c
00000220: 0546 0cbe a1f9 1f3e 7e30 cfbd 234c 873e
00000230: 4c63 44be 7aa3 fdbd 8ac3 633d ba71 7f3e
00000240: 26c8 863e 48be 39bd cd35 a13d 8956 cdbd
00000250: 1f8c cabc 657a 403e
0.123301126 0.16646312 0.043094307 -0.098175354 -0.008154258 -0.010297922 0.014883225 -0.15953372
-0.10570883 -0.013102884 -0.0536051 -0.11480252 0.052572574 0.032163072 -0.11119199 -0.19840766
0.08436159 -0.18185374 0.010433236 -0.027996864 -0.1108576 0.048733316 -0.1593197 -0.15735483
-0.18591838 0.0954297 -0.14960009 -0.02316465 -0.11571048 0.0015167377 -0.17422432 -0.2080435
-0.11340474 0.050995532 -0.107113354 -0.124107234 0.17067888 -0.15828262 0.111673586 0.25817788
0.0072973 -0.07983244 0.1435315 0.057344757 0.074327536 0.14335331 -0.051770262 0.23807079
-0.05304699 0.15311034 0.3033508 0.26592273 0.07844507 0.27042153 -0.07189058 0.13481799
0.38594544 0.44295937 0.33305642 -0.050909936 0.49818176 0.60249037 0.23789164 0.17344828
0.02276512 0.61336076 0.357291 0.44635212 0.08661927 -0.026524192 0.38246796 0.6015168
0.5459975 0.35239032 0.065376125 -0.1628259 0.028970024 -0.18639673 -0.15410958 -0.1929884
-0.19385478 -0.19107808 -0.07849166 0.010474803 -0.16966908 0.04970546 0.07188097 -0.14287172
0.06310686 -0.0090028895 0.02783616 0.11374384 0.19003034 0.064506605 -0.028496435 0.08110938
-0.15843777 0.1311064 -0.11596011 0.042717148 0.20281509 0.12383478 -0.11973574 -0.16487189
-0.18283597 -0.09869163 0.0037914107 -0.13726738 0.0164394 0.22914007 0.015073565 0.045238543
0.20056121 0.22364323 0.002156914 0.14999416 0.23866104 -0.08446644 0.082954876 0.27579224
0.2662775 0.013751718 -0.066751935 -0.032569274 -0.035133213 -0.15131575 0.06035304 0.116169184
-0.03045346 -0.008357919 -0.042916313 0.016155448 0.01825085 0.2073405 0.24582987 0.025391908
-0.13698585 0.1562257 -0.10116671 0.26425275 -0.19178504 -0.12384696 0.055606402 0.24945727
0.26324576 -0.045347482 0.0787159 -0.10026271 -0.024725018 0.1879669

conv1.bias f4 [6]
00000000: f5ca 813d 3223 643e 56b3 393e c6a0 16be
00000010: 5c1b 133e 8850 1e3e
0.06337539 0.22279051 0.18134817 -0.14709768 0.14365906 0.15460408

conv2.weight f4 [16, 6, 5, 5]
00000000: 07b0 97bd f724 ea3c fbd6 bdbc 70dc 9e3d
00000010: 50fe 963d a292 643d 679e 5cbb b47e b3bc
00000020: 5c1b 533d 7cdc 1abd 2455 53bd 0fe6 8a3d
00000030: b820 983d cd49 8b3d b528 b23c e32a a13d
00000040: 7b8e 9bbd 5a34 943d 9755 393d eba5 9ebd
00000050: b31a fa3b 2dcc 16bc 7d0e 7f3c edd2 57bd
00000060: 4d59 9bbd ea1c 403c a64e ccbc 237a 75bd
00000070: 47c3 9e3d 3863 ba3c a3fb e13c 81fa a2bd
00000080: a783 c23c 1d0b 80bd ff6e a6bd 42c7 98bd
00000090: 101a 77bd 77cc e63c 3219 84bd e657 113d
000000a0: 7c5c 30bc 6488 0bbd ce24 d3bc 97b7 2abd
000000b0: 1472 3e3d 4887 9abd 7a17 743c bf8b 38bd
000000c0: add1 67bd 1a0f 6ebc 34a0 93bd 92e4 323c
000000d0: 0e47 01bc 7ff3 42bc e27f 643c d7c9 453d
000000e0: bfb1 eb3b a612 c6bc 5953 79bd 26a2 ed3b
000000f0: 0546 b73b 4d62 643d ed47 7d3c 81dd 90bd
00000100: 1e43 19bd 065a 7dbd e03f 143d 8de2 d53b
00000110: fa16 2fbd b01f 11bd df80 563d 1dc4 7dbd
00000120: ff90 43bd c3bc 47bd ba11 78bc faeb e0bc
00000130: 140a 813d bf72 96bb c4a4 4b3d e13a 013d
00000140: 2573 443d 4514 b2bc 3500 3cbd 2ab0 0dbd
00000150: f9f1 a33d f520 033d 7276 093c 8b3b 7d3d
00000160: 225a 3ebd 48f0 99bd 5fcb 80bd 1380 a43d
00000170: 4a25 8d3b d55b 4dba db3a 063d d7f1 8b3d
00000180: cf53 84bd ed53 9fbc 07aa d53c 282e 18bc
00000190: 0692 14bc f86d 133d 691d 13ba f321 bf3a
000001a0: bb41 a5bd 2e41 73bd 30e9 8abd d6ef e4bc
000001b0: 6904 713d 2d4e 5739 32df 1b3c a69e c9bc
000001c0: d3c0 3abd 2315 9b3b 7c3a 913d f2ce 99bd
000001d0: 158e 61bd a27e 9f3b d4a8 f23c 5629 153d
000001e0: cb42 1abd 98ff 363c 07fe fe3b 672b 62bc
000001f0: 2fde 2cbd b491 b23b c785 12bd ab39 97bd
00000200: e8a9 473d c01a 913d b6f6 b4bc 2c1b 90bd
00000210: 35ae 48bc ea62 a3bd 5411 ba39 4506 eabc
00000220: 3deb 32bd 9abe 2abc bd76 993b ec7e 01bd
00000230: 0936 34bd 13e7 5bbd 8de1 333d 189b 6cbd
00000240: 909b 9fbc fef6 74bd e6ce 28bc b80e 493d
00000250: 3dc1 23bb 442f 35bd ba59 adbb 517b 963c
00000260: 3685 843d 200d 3a3b 4a23 cfbc 39a3 2d3d
00000270: 82a3 683b acc3 4d3d 0c48 553c d7a7 0fbd
00000280: 55e3 91bd 4e24 203d b88e 0e3c 7f00 2c3d
00000290: 66ed fbb8 5fca 5c3d d45d de3c 61de 70bd
000002a0: 2c1c 653d a9ff 633d 3189 fa3c e8e5 ae3c
000002b0: 5cd3 1ebc 3c05 9b3d ab62 76bd 5512 97bd
000002c0: 6292 c0bc e730 08bd 14e4 853c e848 05ba
000002d0: 1b66 c2bc ed8d 5d3d 959f cd3c 0ec6 783d
000002e0: cdb2 b33c 72d2 9839 5093 e8bc b351 513c
000002f0: 25c1 86bd 56a1 cfbb 6e9a 36bd ee00 8c3d
00000300: f6c1 40bc 17aa 833d df70 b13c 92db 79bc
00000310: 57e2 e6bc c852 a03d 85d7 23bd 91d0 7a3c
00000320: c959 80bd d7df d9bd 27a9 ccbd 3fc7 faba
00000330: b1c7 5a3d c98e 813c 3dfc d6bd 1b8d 82bd
00000340: cc69 fdbb b024 24bd def4 713d 899b a0bd
00000350: e109 d4bc 1d85 e13d 8d6b b03d 1607 fcbc
00000360: c1cb c4bc 5f51 b93c e353 703b 5a46 e73d
00000370: 91cf 56bd 0eb4 8e3d e0fe 9b3d 5f66 093e
00000380: 0fb2 833c 7641 88bd 947c ebbb 8b1f 85bc
00000390: 2c33 94bd 389f 49bd 0973 d53c 75cb f53c
000003a0: 7f5a 9e3d 3e78 9c3d 3fb5 6f3c 64f1 8e3c
000003b0: f346 d53b 2f47 5b3d c837 b3bc 7719 abbc
000003c0: 9384 35bd 1140 3b3d 8c40 343d 5caf 7ebd
000003d0: 1938 8f3d 98ed 5d3d 5330 edbc e2d7 633d
000003e0: f888 f2bc 1ecb 0cbc f516 0dbd 5bdb 97bd
000003f0: a94c 9a3d 42ad 94bd 7d1d d43c 5ca1 453c
-0.074066214 0.02858208 -0.0231738 0.07756889 0.07372725 0.055803902 -0.003366375 -0.021911003
0.051539764 -0.037807927 -0.05159487 0.067821614 0.074281156 0.06801186 0.021747926 0.07869508
-0.07595535 0.07236548 0.04524764 -0.0774649 0.0076325773 -0.009203953 0.015567419 -0.05269139
-0.07585392 0.011725644 -0.024939846 -0.05993093 0.0775209 0.02275239 0.02758581 -0.07957936
0.023744417 -0.0625212 -0.081266396 -0.074598804 -0.06032759 0.028173668 -0.06450118 0.035484217
-0.0107642375 -0.03406562 -0.025774386 -0.04167899 0.046495512 -0.07545334 0.014898175 -0.045055147
-0.056596447 -0.014529968 -0.07208291 0.010918753 -0.007890476 -0.011898874 0.013946505 0.048288193
0.00719282 -0.024178814 -0.060870502 0.0072519956 0.005593064 0.05575781 0.015459043 -0.070734985
-0.037417524 -0.06185343 0.03619373 0.006527251 -0.04274652 -0.03543061 0.052368995 -0.061954606
-0.0477457 -0.048764 -0.015140945 -0.027456272 0.063007504 -0.0045913155 0.04971768 0.031550292
0.047961373 -0.02173818 -0.045898635 -0.03459183 0.08005137 0.032013852 0.008390056 0.061824363
-0.046472676 -0.07516533 -0.0628879 0.08032241 0.0043074237 -0.00078338134 0.032770973 0.06833237
-0.06461298 -0.019449199 0.026082052 -0.009288348 -0.009068018 0.035993546 -0.00056119874 0.0014582261
-0.08069178 -0.059388332 -0.06782758 -0.027946394 0.058842096 0.0002053312 0.009513663 -0.024611782
-0.045594048 0.0047327443 0.07091233 -0.07510175 -0.05506714 0.0048673907 0.02962152 0.036416374
-0.037661355 0.011169337 0.0077817473 -0.013804293 -0.04220408 0.005449498 -0.03577211 -0.07384046
0.04874602 0.0708518 -0.022090297 -0.070364326 -0.012248565 -0.07977851 0.00035489595 -0.028567443
-0.043681372 -0.0104214195 0.004683344 -0.031615183 -0.043996844 -0.053687166 0.043916274 -0.057765096
-0.019483358 -0.059805863 -0.010303235 0.049086303 -0.0024987005 -0.04423453 -0.0052902373 0.018369349
0.064707205 0.002838917 -0.025285382 0.04239199 0.003549785 0.050235435 0.013017666 -0.035072174
-0.07123438 0.039097123 0.008701019 0.04199266 -0.000120128316 0.053903934 0.02714435 -0.058805827
0.05593507 0.05566374 0.030582996 0.021349862 -0.009693947 0.07569358 -0.06015269 -0.073765434
-0.0235073 -0.033249762 0.016344108 -0.0005084411 -0.023730328 0.05409043 0.025100509 0.060735755
0.021935845 0.00029148493 -0.028390557 0.012775826 -0.06579808 -0.0063363714 -0.04458087 0.06836115
-0.011764994 0.064289264 0.021660266 -0.015250104 -0.0281841 0.07828289 -0.040000457 0.015308515
-0.06267125 -0.10638397 -0.09993201 -0.0019132866 0.053413097 0.015815156 -0.104973294 -0.0637457
-0.0077335592 -0.04007405 0.059071414 -0.07842166 -0.025883617 0.110117175 0.08614264 -0.030765098
-0.024022939 0.022621809 0.0036671094 0.11292715 -0.052444045 0.069679365 0.07616973 0.13417958
0.016076116 -0.06653111 -0.0071864817 -0.016250392 -0.07236323 -0.04922411 0.02605583 0.030004242
0.077321045 0.07640122 0.014630615 0.017449088 0.006508702 0.053534683 -0.021877185 -0.020886166
-0.044315886 0.045715395 0.04400687 -0.062178954 0.06993122 0.054181665 -0.028953707 0.055625804
-0.029606327 -0.008593349 -0.03444572 -0.074148856 0.07534153 -0.07259609 0.025892967 0.012062397

conv2.bias f4 [16]
00000000: 194a 603d 0a1c 6abd d17f d33c b9f7 a73c
00000010: 8bec c53d 943a 29bd 7141 fc3d 3cfc ad3d
00000020: e21e 423d 9969 af3b dc70 f7bb 83dc 633d
00000030: 24ec 803d afae 7d3d f951 8b3d 0f7b bb3d
0.054758165 -0.057155646 0.025817784 0.020503866 0.096642576 -0.04131563 0.123171695 0.084953755
0.047392733 0.0053531644 -0.0075512957 0.05563022 0.0629504 0.06193417 0.068027444 0.09154331

fc1.weight f4 [128, 256]
00000000: 6ada 63bd 3fce ebbb a7f9 223c 33e7 ad3c
00000010: f4f3 d63c 775c 313d c9f8 e33b fa13 adbc
00000020: b663 333d c15c 1cbc ad4f 1bbd 9e17 2e3d
00000030: 4c57 d4bc 8893 e4bb 8e63 9ebc 443b 043c
00000040: ba33 2abd 5a46 14bc 6445 c23b 78c5 223d
00000050: a311 723d 9d21 0dbd 05bc 543c 32b1 29bc
00000060: e89f 74bc e973 15bd ffc3 23bd 08bf c1bc
00000070: 192e 05bd 3a2c 753d 1388 463d 9397 38bb
00000080: 51fc d6bc 77db 2cbd 9a62 55bd 8b84 4dbd
00000090: 1fc9 383d 755a 5fbd 3b77 bcbc 3d2b e2bc
000000a0: 61e6 693d 6f07 183d e957 873c a90f 0fbd
000000b0: 3c84 553d b1e2 a3bc c050 7abd 7687 6a3d
000000c0: bb59 723c 90fc d63b 3e22 1b3d 6a4d 4abd
000000d0: 2748 52bc c146 903c 8758 42bd 821a 19bb
000000e0: 58d7 8dbc ce64 0b3c 8375 2cbd 4c4a cabc
000000f0: 2f74 553d 20ee 1c3d 9b86 a7bc 81a8 20bc
00000100: ddb6 693d d541 2f3d 80df 7f3c 11ae 4dbd
00000110: 3644 f63c 034b e03c 7939 67bc 9573 4d3d
00000120: e053 503d 6c07 3f3d ce40 4fbd fb03 693d
00000130: 7be1 39bc 6b9b 55bd 9466 163d 8ade 7cbd
00000140: ac3f 6ebc 5d4d 4e3d d319 c2bc 802a 633d
00000150: 93e0 cd3c 82bc 4ebd fd91 f5bc a009 79bb
00000160: aeb9 78bd 082d d1bc 4105 6e3d 1c0a a43c
00000170: 6c01 83ba 9ee3 0bbc 2873 0e3d 8607 0fba
00000180: 3e21 163c 4dc2 393d 977f 123d 0520 773c
00000190: 9c80 3c3c be72 afbc 83b5 633c e62b 6ebd
000001a0: d310 b63b d2a9 2139 d67e 6b3d e37c 2c3c
000001b0: 1df0 133c 2b3e 3939 907a 063d 97e1 60bb
000001c0: 55c5 0bbd fa6d 1b3d 8470 a83c 8f8e ed3c
000001d0: f77d 2d3d 4493 5c3d f2f4 2bbd d927 553d
000001e0: b51c 96bb 1d53 5fbd c529 69bd 542d 07bd
000001f0: 1661 503c df7f 583c 5659 0d3d a0a4 983b
00000200: 531e 533d 43de 81bb af78 44bc de16 133d
00000210: 1d8f 093d 9dcd 3fbd 454e 213d 4243 ff3c
00000220: dcff 62bd 07b3 73bd d616 af3c 1754 fdbb
00000230: a012 693b 8015 ed3c 081f bd3c 6ad9 693d
00000240: 8959 62bd 79f6 3cbd 1b20 d4bb edb3 b83c
00000250: 8dab b4ba 318e 46bd c54d a03a 711b a1bc
00000260: f502 e0bc f01c 57bd 5278 453d c264 253c
00000270: 01ee 1f3d 804a 32bc a6ab 6ebd c853 65bd
00000280: 7481 a33c 64ad eebc 2b84 a93a 046c 79bd
00000290: da02 13bd 616d 383d a05c 00bd 4c2c 0e3d
000002a0: 95ad c5bc fa0c 60bd c0e7 923c a05e 863c
000002b0: 1e1f 4ebd 90dd efbb b89f f3bc 70cb c13c
000002c0: 4952 dd3a 7d2d 233b 479f 0a3b ba30 56bd
000002d0: eed4 2b3d 07ff 21bd f0d6 003d f8d8 05bd
000002e0: ecf2 16bd 8a51 103c 79b9 85bc 9717 56bd
000002f0: 7c2e 34bc bae4 2cbd 10f7 6fbd 9cfe 00bd
00000300: 4530 53bc bb0a 3fbd 20a5 18bd c50c a8bc
00000310: 2bac 48bd 2113 833c 7ce1 68bd e592 9ebc
00000320: 9525 20bd bd9e 98bc cd22 5b3d eefb 5c3c
00000330: 6f10 7ebc f78e 89ba 9678 773d 5d4e 50bd
00000340: 7419 debc 1c81 68bd b044 8abc cadd 74bd
00000350: 1935 593d b7a1 10bd b479 16bb 7caa 3bbd
00000360: f8df 2abd cedc 253d 3948 173d a702 08bd
00000370: 742c d3ba bff4 8a3c 66ab 383d cee1 313c
00000380: 4f6a 4dbd 4ae8 073d c5d5 f3bb 8b99 a2bc
00000390: 8406 19bd 0d0e e0bc 4d40 5c3d cd3c 743c
000003a0: 0109 d7bc 1e24 c53a d595 89bc d376 763d
000003b0: a900 3c3d 4636 473d 3fe0 21bd 28ae bcbc
000003c0: 2acf 2d3d 167d 59bc 706d 09bd d400 f5b8
000003d0: 9498 dd3b d133 0fbd 9990 e33c 8cdf 363b
000003e0: 5445 953c 5057 ccbb 84cf f73b 33af eebc
000003f0: bb84 343c 84dd 7cbd ecfe 2b3d 99b0 94bc
-0.055628218 -0.0071962173 0.009947217 0.021228408 0.026239373 0.043301072 0.0069571477 -0.02112769
0.043796264 -0.009543599 -0.03791778 0.04250299 -0.025920533 -0.006975595 -0.01933458 0.008070771
-0.041553237 -0.009049976 0.005928682 0.039739102 0.05909885 -0.034455884 0.0129842805 -0.010357188
-0.014930703 -0.036487494 -0.03998184 -0.023650661 -0.032514665 0.05985663 0.048469614 -0.0028166517
-0.02624336 -0.042201485 -0.052095987 -0.05017523 0.04511368 -0.054529626 -0.023006072 -0.027608508
0.057104472 0.037116464 0.016521411 -0.034927044 0.05212806 -0.020005556 -0.061112165 0.057258092
0.014791901 0.0065608695 0.037874453 -0.049390234 -0.012834585 0.017611863 -0.047447708 -0.0023361747
-0.017314598 0.00850792 -0.042104255 -0.02469363 0.052112754 0.03831303 -0.020449927 -0.009805799
0.057059158 0.04278739 0.015617251 -0.05021483 0.030061822 0.027379518 -0.014112824 0.050159056
0.05086124 0.046637937 -0.050598912 0.05688856 -0.011345263 -0.05215017 0.03671892 -0.061735667
-0.014541548 0.050366748 -0.023693955 0.055460453 0.0251315 -0.050472744 -0.02997684 -0.0038000122
-0.060723953 -0.025534168 0.05811048 0.020024352 -0.0009994931 -0.008538155 0.03477779 -0.0005456138
0.009163199 0.045351315 0.03576621 0.015083318 0.011505272 -0.021417018 0.013898256 -0.058147334
0.005556205 0.0001541742 0.057494007 0.010527822 0.009029415 0.00017666134 0.03283173 -0.003431415
-0.034123737 0.03794668 0.020561464 0.028998641 0.042356458 0.05385138 -0.041981645 0.052039955
-0.004581059 -0.054522622 -0.0569246 -0.033002213 0.01271846 0.013214081 0.034509026 0.0046582967
0.05154259 -0.0039632632 -0.011991664 0.03591048 0.03358375 -0.046826947 0.039381284 0.03116
-0.055419788 -0.059496906 0.021373194 -0.0077309716 0.003556408 0.028940916 0.023086086 0.057092108
-0.05526117 -0.046133492 -0.006473554 0.022546733 -0.0013784036 -0.048475448 0.0012230208 -0.019666405
-0.02734516 -0.05251783 0.04821045 0.010094823 0.039045338 -0.01088202 -0.058269165 -0.055988103
0.019959189 -0.029135413 0.0012933066 -0.060894027 -0.03589139 0.045026187 -0.031338334 0.034710214
-0.024130622 -0.054699875 0.017932773 0.016402543 -0.050322644 -0.0073201135 -0.029739246 0.023656577
0.0016885485 0.002489894 0.0021152066 -0.052292563 0.041951112 -0.039549854 0.03145498 -0.03267762
-0.036852762 0.008808503 -0.016323792 -0.05226859 -0.010997411 -0.04221032 -0.058585227 -0.031492814
-0.012889926 -0.046641093 -0.03726685 -0.020513901 -0.048992317 0.016000332 -0.056855664 -0.019357154
-0.03909834 -0.01863038 0.053499985 0.013487799 -0.015506848 -0.0010494877 0.060417734 -0.050855983
-0.027111746 -0.056763753 -0.016878456 -0.059781827 0.053029153 -0.035310473 -0.0022960724 -0.045816883
-0.0417175 0.04049378 0.03693411 -0.033205654 -0.001611127 0.016962407 0.045085333 0.010857059
-0.050150212 0.033180512 -0.007441255 -0.019848606 -0.03735973 -0.02735045 0.05377226 0.014907074
-0.02624941 0.0015040671 -0.016795078 0.060171913 0.045899067 0.048635744 -0.0395205 -0.023032263
0.042433895 -0.013274452 -0.033551633 -0.000116826646 0.0067625735 -0.034961525 0.02777891 0.002790424
0.018221535 -0.0062359944 0.0075625796 -0.029136276 0.011017974 -0.06173469 0.04199116 -0.018150615

fc1.bias f4 [128]
00000000: 7908 803c 38a2 573c 22a4 c63c e84d 643d
00000010: 4366 9a3d cae6 d9bc 45d8 a03c f3b5 22bd
00000020: 6671 0f3d 0b8e 68bd 0613 c8bc 7f4a e5bc
00000030: 75be 463d 8975 16bc c31f f5bc 3237 303b
00000040: 2aab 8a3d de47 0e3d bc3d 9b3c e252 7dbd
00000050: 1396 d73b e135 4f3d 9326 143d b9c3 8c3d
00000060: 3288 4bbd a392 ed3c 0a66 a2bb 1ee6 783d
00000070: f0db 963b 7529 e9bc 7d1e 053d f95b 6b3d
00000080: 49ce 3bbd a169 e3bb f806 4fbd b3f9 073b
00000090: 25ef 7dbc 1e35 9cba 931d aa3d b9a8 68bc
000000a0: ae29 6abc a1a4 73bd f939 563d fd26 ddbb
000000b0: 2ba3 10bd 2daa 10bd 3e35 0f3d 7b77 67bd
000000c0: 7659 5bbd 0de9 c63c 984c 6a3d fc66 123d
000000d0: 2abb 083d d10f af3c ff03 30bc 75e3 233d
000000e0: eafa 43bc bcd3 53bd 2fda 703c d712 6dbc
000000f0: c8c1 033d 1b74 383d ee39 9bbc 767e c83c
00000100: b774 0e3d 8ca1 213b c7dc 353d d9ed 2a3d
00000110: 4790 de3c 8332 61bd 15d5 13bd 8688 813d
00000120: 6577 863c 4a03 103d 3f03 06bd acb9 613d
00000130: f983 a9bc d91c 3ebd 8656 643d 6880 1bbd
00000140: 8e3d 6a3c 98f4 c6bc c785 1dbd 7bcf 28bd
00000150: 93e4 36bd 1f50 c2bc 6dae 87bc 30a0 f23b
00000160: 6a0a 6e3d 7b60 3e3d e793 7d3c 8dca 843c
00000170: 8c09 563b 35e0 55bc 5b4f 48bc 4e74 0d3d
00000180: 5a89 293d 7c3f 823d 5e3a 1c3c cae0 ce3b
00000190: ea63 f7b9 4ade 4cbd 1e04 34bc a395 f1bc
000001a0: e0b6 8a3d c8a7 5ebd e4ff 27bd a8cf 59bb
000001b0: a2a0 843c 4d85 87bd 3ad1 6e3d 4dcc fbbc
000001c0: 8d57 3dbc 3978 173d 154a a03c e45b e13c
000001d0: 849b 0d3d cee3 6d3d af93 833d 9c28 0ebb
000001e0: 4b17 06bc f358 633c c0a9 653c b079 0e3d
000001f0: 34b4 7d3d 4ee8 473d d00b 0f3d 5b31 423b
0.01562904 0.013161235 0.024248186 0.05573836 0.07539036 -0.026599307 0.019634375 -0.0397243
0.035020255 -0.056776088 -0.024423134 -0.027989624 0.048521478 -0.009183296 -0.029922372 0.0026888368
0.06770928 0.034736507 0.018950336 -0.06184662 0.0065791695 0.050588492 0.0361696 0.06873269
-0.049690433 0.029000586 -0.0049560117 0.06076633 0.0046038553 -0.028462151 0.03249978 0.05746076
-0.045851026 -0.006940082 -0.050543755 0.0020748198 -0.015498911 -0.0011917686 0.08306422 -0.014200383
-0.014292164 -0.059483174 0.05230138 -0.0067490325 -0.03531186 -0.035318542 0.034962885 -0.05651043
-0.053552113 0.02428105 0.05720195 0.035742745 0.03338162 0.021369847 -0.01074314 0.04001184
-0.011961678 -0.051715598 0.0147004565 -0.014469824 0.032167226 0.0450326 -0.018948521 0.024474364
0.034779277 0.002466294 0.044400003 0.041730735 0.027168406 -0.054979812 -0.036091883 0.06324868
0.016414354 0.035159387 -0.03271794 0.05510871 -0.020692812 -0.04641423 0.055746578 -0.037964255
0.014296902 -0.024286553 -0.03845766 -0.041213494 -0.04465158 -0.023719845 -0.016562665 0.0074043497
0.0581154 0.04647873 0.015477157 0.016209865 0.00326595 -0.013053943 -0.012225951 0.034534745
0.041390754 0.06359765 0.0095354 0.006313418 -0.00047185953 -0.05001668 -0.01098731 -0.029490298
0.06773162 -0.054359227 -0.04101552 -0.0033235345 0.016189877 -0.06617222 0.058305003 -0.030737067
-0.011556518 0.036979888 0.019566575 0.027509637 0.03457214 0.05807858 0.06424653 -0.0021691686
-0.008184264 0.013876188 0.014017522 0.03478402 0.061939433 0.048805527 0.034923375 0.002963147

fc2.weight f4 [64, 128]
00000000: b4f9 adbd d2bf 223d 4c9c 353d 03f3 b1bc
00000010: b9b4 9e3d d9e7 5e3c 0013 83bd 8bd1 dbbc
00000020: 1319 203d d890 a63d d662 74bd 2937 1c3d
00000030: 6a5a 8fbc b952 283d 685e 85bd ad15 943b
00000040: c7e4 843c 4c87 57bd 253e 2bbc 1066 8d3d
00000050: 7b3f 7fbc 1529 86bd 83e0 79bc 3a11 1dbd
00000060: c69e 713d 998a a0bd cafe 8bbd eae7 8dbd
00000070: 80eb 43bc a7e4 8abd 98e7 98bd 7ed6 943d
00000080: 4b25 a1bc df4a 1ebd 6c1c 47bd cfa5 aa3d
00000090: af1a 86bd 7c9b fdbc a557 873c b14d 46bd
000000a0: 399e 9ebc bfc8 45bd 5e28 54bd 0f49 47bd
000000b0: 96c7 6bbb 717e 61bd 0592 a63b 8f0e b43d
000000c0: bfa4 bbbc 9512 36bc 38b8 dcbc b619 abbc
000000d0: abb6 11bd ba98 023a 857e b0bd 145c a3bd
000000e0: 03d0 65bd 2396 863c 8b23 e4ba b70b 683d
000000f0: 7598 693d 3c6b 9e3d ae74 923d 9d94 023d
00000100: e78d 913d d0c8 e8bc d765 aabd b036 213d
00000110: e649 df3c 693b 513d b2ac 9e3d 8dd8 3fbb
00000120: 7994 5b3d dc1e 27bd 3be2 b03d 8d5b 8f3d
00000130: ba5d 1fbc e5c4 fd3c fdd2 893d 3bdb d6bb
00000140: f324 70bc 24c1 b13d 049c 5bbd 7488 07bc
00000150: 91e5 7d3d 0af4 2abd e764 8a3d 5f7f 8cbd
00000160: 4e14 4e3c b1b3 d53b 6ecd 703d 9e80 713d
00000170: 4005 4cbd cf86 efbc 5ff6 123d 78de d63c
00000180: b1cc 18bd cff4 143d b8ae 7fbd e287 613d
00000190: d529 72bd a9a0 7ebc 6377 9ebd 7d12 4a3d
000001a0: 8890 8fbd 408f a2bb 1d87 603d 2522 90bd
000001b0: aa2f a53c c68f 20bd 3ba8 35bd ea72 aebb
000001c0: beb8 afbd 618d 12bd f15f 113d a845 a4bd
000001d0: 21af 3dbc 0221 003d 4711 ca3c ead5 353c
000001e0: c4d6 ad3b 9ca5 59bd 6459 d5bc 3ad6 883d
000001f0: 6bac b83d 742f 41bd 2bc9 ac3d 7d53 bf3c
00000200: 96ee 493d 231b 973d f68f 76bd c84c be3c
00000210: 65a1 46bd 3572 8d3d 7eea 003d df47 91bd
00000220: 0870 223c bbc2 813d 6a6f 94bd bb58 863d
00000230: b08e ffbc f49a 94bd bec2 223d 84f1 983c
00000240: f2fa 39bd d81c 0fbc 346e c2bc eb24 25bd
00000250: f362 abbd 51bb 22bd 53ec 983d cf91 aa3d
00000260: 40a0 74bd 1be5 8d3d 0aab eabc 3e0c 533d
00000270: fec9 713d 08fe 283c 73a3 b03d 9e2a 173d
00000280: 4ac0 433d 5ce2 dc3c f0c9 843c 2419 e03c
00000290: 25a0 51bd ce2a f7bc 1458 76bd c06e 903c
000002a0: 8ad2 453d ca63 72bd 6e6e 483d 29dc 29bd
000002b0: 6f46 5dbd 04db af3c b845 83bd 3e72 293d
000002c0: 8060 dbba e8af 0f3d fa74 3a3d f635 0b3d
000002d0: 42de 613d 40e1 ab3c 24b2 2ebd fc8d 8dbd
000002e0: 7e13 223d 8839 313c 18bc 30bd 9355 5cbd
000002f0: f647 583d a65e 763d d0e1 1dbc d2e8 34bd
00000300: fd3e 76bd f1d3 9cbd b5fc 43bd 4087 ba3a
00000310: f706 21bd ae8a 333d 6e9b 073d 4823 c6bc
00000320: b463 6ebd 62de 553d dfa6 8abd 667c 663d
00000330: b8d7 03bc c037 193b 981f 49bd 76f4 3d3d
00000340: 1d0b 0dbd ddda b43d 306f 4bbd 3c35 7abd
00000350: b6ba f6bc c954 03bd 676a 9dbd 4839 743c
00000360: e497 25bd eac2 6d3d 3a0c 763d 1ba7 29bd
00000370: e4dd 93bd c7c9 863d e0ef 213b b4d0 aebc
00000380: 71d3 51bd 0939 1bbd 181a 883c 5ba7 45bd
00000390: 0bd0 a5bd c84a 47bd 50c1 d93c 764f 4f3d
000003a0: 3287 433d d0a5 1d3c 6d9d b13d f0e4 4cbd
000003b0: 1c8a c93c 03e3 53bd 517f 0ebd 88a9 88bd
000003c0: 8214 623d 6064 293c 2b92 0ebd ca6f 253d
000003d0: c6e8 89bd d2f8 05bd 3a72 7dbd c878 b2bc
000003e0: 0e0d 3f3d ef5e 62bd 3392 8e3d 64d9 cebc
000003f0: 1b6e 90bd d89f 553c 94cd 16bd 1a68 6dbd
-0.08494893 0.039733715 0.04433851 -0.021722322 0.07749314 0.0136050815 -0.06400108 -0.026833316
0.039086413 0.081330955 -0.05966457 0.038138542 -0.017499167 0.041094515 -0.06512147 0.0045191855
0.01622237 -0.052619264 -0.010451828 0.069042325 -0.0155791 -0.065508045 -0.015251282 -0.038346507
0.05898931 -0.078389354 -0.068357065 -0.06929 -0.011958003 -0.06781893 -0.07466048 0.07267474
-0.019671103 -0.03864562 -0.04861109 0.08332407 -0.06548058 -0.03095793 0.016521284 -0.048413936
-0.019362556 -0.04828715 -0.05179631 -0.04865366 -0.0035977117 -0.055052225 0.005083325 0.08791839
-0.022905705 -0.011112829 -0.026943311 -0.020886283 -0.035574596 0.00049818645 -0.08617882 -0.07976547
-0.05610658 0.016429013 -0.0017405612 0.056651797 0.05703016 0.07735297 0.07151161 0.03188001
0.07107144 -0.028416067 -0.08320206 0.039358795 0.027256917 0.05108205 0.07747783 -0.0029273361
0.05360839 -0.040800914 0.086369 0.06999884 -0.009726936 0.030977676 0.06729696 -0.006556896
-0.014657247 0.08679417 -0.053615585 -0.008272279 0.06198651 -0.04173664 0.06757527 -0.068602316
0.012578083 0.006521665 0.058789663 0.05896055 -0.049809694 -0.029239086 0.03587949 0.026229128
-0.037304584 0.03636628 -0.062422484 0.05506123 -0.059121925 -0.015541234 -0.07737615 0.049334038
-0.07009989 -0.0049609244 0.054816354 -0.070377626 0.02016433 -0.039199613 -0.04434989 -0.0053237574
-0.08580159 -0.03577936 0.035491887 -0.080210984 -0.0115773985 0.03128148 0.024666442 0.011098364
0.005305143 -0.053136453 -0.026043601 0.066814855 0.09017261 -0.047164395 0.08436807 0.02335524
0.0492998 0.07378223 -0.060195886 0.023229972 -0.04849376 0.06906549 0.03147363 -0.070937864
0.009914406 0.0633597 -0.07247813 0.06559893 -0.031195968 -0.072561175 0.039736502 0.018669851
-0.045405336 -0.008734904 -0.02373419 -0.04031841 -0.083684824 -0.03972942 0.0746695 0.08328592
-0.05972314 0.06928464 -0.02864601 0.051525347 0.059030525 0.010314472 0.086249255 0.036905877
0.047790803 0.026963405 0.016209573 0.027355738 -0.051178116 -0.030171778 -0.06014259 0.017630935
0.04829649 -0.059177198 0.04893344 -0.041469727 -0.05402225 0.02146674 -0.06409782 0.041368715
-0.0016737133 0.035079867 0.045521714 0.033987008 0.055143602 0.020981431 -0.042650357 -0.06911847
0.03956937 0.010816939 -0.04314813 -0.053792547 0.052803002 0.060148858 -0.009636357 -0.044167347
-0.060118664 -0.07657612 -0.047848422 0.0014230981 -0.039313283 0.043833427 0.033107214 -0.024186745
-0.058200553 0.052214034 -0.067701094 0.05627098 -0.008047037 0.0023379177 -0.049102396 0.046375714
-0.034434427 0.08830807 -0.049666584 -0.061085925 -0.030118328 -0.03206328 -0.0768631 0.014906235
-0.040428057 0.058047213 0.060070254 -0.04141913 -0.07220057 0.06581455 0.0024709627 -0.021339752
-0.051227037 -0.03789619 0.016614005 -0.048255306 -0.08096322 -0.0486553 0.026581436 0.05061289
0.047736354 0.009622052 0.08672605 -0.05002302 0.024601988 -0.051730167 -0.034789387 -0.066729605
0.05519534 0.010338873 -0.034807365 0.040389813 -0.06733851 -0.032707997 -0.061876513 -0.021786109
0.04664331 -0.055266317 0.06961479 -0.025250144 -0.07052251 0.013038598 -0.03681715 -0.057960607

fc2.bias f4 [64]
00000000: 92f9 6ebb 66f3 57bd 0fca ed3b 7b7b 89bd
00000010: 3e47 973c 5263 843d 0559 903d 2adf e33b
00000020: 718c a23d 1c29 843d c52a 103d 298d 2ebd
00000030: 4db4 643d 2524 ce3d 80ce db3d cadf c23b
00000040: 1515 aebd eedf 603e 7d90 77bd cccd 2bbd
00000050: 90f8 1abd f30f c2bc 5744 03bd 20d6 b03d
00000060: 5a6c f73c 8215 9d3d c2a4 ad3d 5c83 523d
00000070: 7db0 55bd b622 2bbd 3e45 153d 5a94 993d
00000080: 85dc 2ebd e690 073d 216f d93d 8551 ab3d
00000090: 8a53 8ebd 7913 4e3d a433 8d3d ce28 aa3d
000000a0: 8f4d 5e3d f2f0 ff3c f42b 7ebd 16ac 803d
000000b0: 843a 95bd f269 863d 3c72 b2bd 402a fcbc
000000c0: 30ac 1cbd da5c 233e 1304 3d3e e798 0bbd
000000d0: dffa 31bc 690e 7dbd cf68 033e 9586 9abd
000000e0: 6740 b9bc a282 1abd 5244 0a3e b571 8fbd
000000f0: d7dd 333d cda7 253d bf4c 17bd 4ae7 b23c
-0.0036464673 -0.052722357 0.0072567533 -0.06713005 0.018466588 0.06464256 0.07048229 0.0069540935
0.07936943 0.064531535 0.03519704 -0.04261509 0.05583601 0.10065488 0.10732746 0.005947088
-0.08500115 0.21960422 -0.06044053 -0.04194431 -0.037834704 -0.023689246 -0.032047596 0.08634591
0.030203033 0.07670118 0.08478691 0.051394805 -0.052170265 -0.04178115 0.036442988 0.07498999
-0.042690773 0.03309717 0.10616899 0.08365158 -0.069495276 0.05031154 0.06894615 0.08308564
0.054273184 0.031242821 -0.062053636 0.06282823 -0.072865516 0.06563176 -0.08713195 -0.030781865
-0.03825015 0.15953389 0.18458585 -0.034081366 -0.010863035 -0.06178132 0.1283295 -0.07545201
-0.022613717 -0.037722237 0.13502625 -0.0700411 0.043912735 0.04044323 -0.036938425 0.021838803

fc3.weight f4 [10, 64]
00000000: 3227 373d 40ac 9d3b 0e2a a53d 7bfb b8bd
00000010: 3bb5 4f3d 67dd 733e e69d 2ebe 8c46 ea3c
00000020: 9922 ab3b 310e 843e 3aaa b3bc 2dcf 2dbd
00000030: 72e7 1cbd 1c82 72bd 3c29 8f3d 6044 eabd
00000040: baa9 973d 0f15 32bc 5486 e3bd 42b1 643e
00000050: f480 c13b 2ee7 4b3d e891 41be ce2c 373d
00000060: 1e1c 68bd e380 6f3e 6c91 af3d a3c7 e83c
00000070: a63c cc3d 2830 9a3d 448c 6bbe 9fa7 6dbd
00000080: db95 44bd 558e fe3d 191e 2e3e 177c 153c
00000090: 80f3 13be 0c1f 9abd 6222 3d3d bd49 8dbd
000000a0: 09bf 4e3e 7a95 2c3d 00ce 183b aaaf 5cbe
000000b0: b0ac ca3b 8e96 29be 6474 96bd e2b0 dbbd
000000c0: 2e59 8abb f2e3 0d3d 8fd0 47be b9d0 72bd
000000d0: 2a15 333d e3fd d83d 49b9 883b 36cf 1bbd
000000e0: c2df 9cbb 909f bb3d 70ce 863b 7017 133c
000000f0: cb43 8b3d 7125 8dbd e8c7 92bc de94 793d
00000100: d32d dcbd 6e62 eabd 4f98 4e3c 9cb8 ccbd
00000110: 97e8 20be b367 e83d c726 ddbc cdeb 2dbe
00000120: b1f0 4dbe 2532 15be 6c23 133d 0470 943d
00000130: ba2d c9bd e8af 3e3e 5f54 7c3e c7f5 883d
00000140: 063d e73d 8a9d 033e 4a8c f5bd f90d 89be
00000150: 548c b33d d40b a0bd 17a5 493c 32af 9bbd
00000160: 00e0 5e3e cacb 12be bce9 893d 1309 433d
00000170: e48d 62bd b0bb 72bc 96de 2d3d 603d edbc
00000180: 88b6 fd3d 98f7 3dbe 9e86 a8bd a672 95bd
00000190: 485c cabd 4528 68bd aa48 01be 4eff 723e
000001a0: 06c8 583d 7209 c63d 86de aa3d 26bb 9f3d
000001b0: a222 ea3d fee6 42bd ee68 babd ca04 883d
000001c0: 0e74 16bc 2eea 633e e0e0 763e 42f9 f43d
000001d0: c4b0 27bd aa69 24be e0af ebbd 4d37 9d3d
000001e0: 2123 923d a8ed be3c c2a6 333e 8cdf aa3d
000001f0: 2739 7d3d 18df bfbd 90b5 963c c967 b2bd
00000200: c023 b03d f80d febd 0380 443d 6d83 fabd
00000210: 014e ae3d 685c 87bc 4321 e3bd a2af 673e
00000220: 8df9 743e 0ea1 963d 1384 233e 72ee 72bb
00000230: 142b c53d e153 bf3d d8c9 a03d d1d4 aa3d
00000240: 0cf8 02bd 806d 023e bcc7 4dbd 5917 643d
00000250: fa88 24be 6822 f4bc 8b02 abbc 5ffa 56be
00000260: d29f e6bc 242f 0cbe 1c78 e73d fe1a 253e
00000270: c03d b0bb 0278 b83d 42fc ad3d 48bd 64be
00000280: 9ae2 87bd 8e9d fcbc 50a5 b9bd 51f6 753d
00000290: 5006 243d ee97 ed3d 8a71 2b3e ea41 21bc
000002a0: f157 40bd b53a fd3d a0a8 223c a4c9 133e
000002b0: 3398 da3d a3e7 2abe 9aeb 943d 4c57 dd3d
000002c0: a8d1 753d 22f4 723e bf27 993d 983d 023e
000002d0: 8643 cebc 041d a63b 293e 0ebe 8870 6dbd
000002e0: 7a37 313d 649f b5bd 791a 7a3d 80d9 8aba
000002f0: 60c8 f9bd 3f24 9abd 9024 20bd c235 813d
00000300: 6a08 4ebc caed 913d e949 fd3b 35b3 0b3e
00000310: b4a8 5abd 13f3 edbc 9a66 de3d 7057 82bd
00000320: 56cc b03e 1143 d93c c64b 5a3d 94df 98bd
00000330: cd30 6fbc b5e6 883d 6bb2 3abe ec52 633b
00000340: de17 db3d d913 8a3d 3871 e9bd ebe4 febd
00000350: 6e6c 803d b1a0 b33d dfb7 abbd 4aef 263d
00000360: c186 543e 6c1f 54be d0ba c73d f322 88bd
00000370: 6851 f53d 9e51 c4bd 52e7 073e 4056 a3bb
00000380: d0fe 7d3c 5c16 13be fc15 823e 7ca8 92bb
00000390: 6c2e c6bd 9765 b73c 78d1 d3bd a037 083e
000003a0: b584 8aba b55a c7bd 6c7c a8bd bc0c b23a
000003b0: 9829 66bd 78b3 273d e04f 09bd 401b b1bd
000003c0: f320 37bd f0bc b4bd 0f75 463e 6794 033e
000003d0: cb30 223e a015 06be c2c4 8e3d 9e45 b9bd
000003e0: eb18 823c e5c8 05bc 5074 f8bd 10dd 80bd
000003f0: 7c75 193d 09cb ae3d bcb3 9dbd 416a be3d
0.044715114 0.0048117936 0.08064662 -0.09032341 0.050709944 0.23814927 -0.17052421 0.028598092
0.00522263 0.25792077 -0.021931756 -0.042433906 -0.03830666 -0.059206113 0.06990287 -0.11438823
0.0740542 -0.010869279 -0.111096054 0.22333243 0.005905265 0.049781017 -0.18903315 0.044720463
-0.05666744 0.2338901 0.08572659 0.028415507 0.09972505 0.07528716 -0.23002726 -0.058021184
-0.047994476 0.124294914 0.17003669 0.009123824 -0.14448357 -0.07525453 0.046175368 -0.0689883
0.20190062 0.04213474 0.0023316145 -0.21551386 0.0061851367 -0.16561338 -0.073464185 -0.10727097
-0.004222057 0.034641214 -0.19513153 -0.059281085 0.043721355 0.105953 0.0041724783 -0.03803941
-0.004787416 0.091612935 0.0041139647 0.008977756 0.0680004 -0.06891907 -0.017917588 0.060932986
-0.10750928 -0.11444555 0.012609555 -0.09996149 -0.15713726 0.11347904 -0.02699603 -0.16984482
-0.20111348 -0.1456991 0.035922453 0.07247928 -0.09823175 0.1862179 0.2464156 0.06687503
0.11290936 0.12853065 -0.11989649 -0.26768473 0.08767 -0.07814756 0.012307427 -0.07601775
0.21765137 -0.14335552 0.067340344 0.047616076 -0.0553111 -0.014815256 0.042448603 -0.02895993
0.12388331 -0.18551481 -0.08228801 -0.07297258 -0.098808825 -0.05667903 -0.12625375 0.23730204
0.052925132 0.0966977 0.08343224 0.077993676 0.11432387 -0.047583573 -0.09102045 0.066415384
-0.009182943 0.22257301 0.2410922 0.11961605 -0.04094006 -0.16055933 -0.11508155 0.076765634
0.071356066 0.023306683 0.17544082 0.083434194 0.061822083 -0.09368724 0.018397123 -0.08711202
0.08600569 -0.12405008 0.047973644 -0.12232099 0.08510972 -0.016523555 -0.110903285 0.22625592
0.23923321 0.073549375 0.15968351 -0.0037068394 0.09627357 0.093421705 0.07850999 0.08341373
-0.031974837 0.12737083 -0.05023931 0.05568633 -0.16067877 -0.029801562 -0.020875236 -0.20993946
-0.02815238 -0.13689858 0.11302206 0.16123578 -0.005378455 0.09007265 0.0849538 -0.2233783
-0.06635018 -0.030836847 -0.09064734 0.06004936 0.040045083 0.11601244 0.1674253 -0.009842375
-0.046958867 0.12364713 0.009927899 0.14432389 0.10673561 -0.16689925 0.072715 0.10807666
0.060014397 0.23725942 0.07478284 0.12718809 -0.025178682 0.005069377 -0.138909 -0.057968646
0.043265797 -0.08868292 0.061060403 -0.0010593385 -0.121964216 -0.07526445 -0.03909737 0.063090816
-0.012575248 0.07125433 0.007729758 0.13642581 -0.053383544 -0.02904657 0.108594134 -0.06364334
0.34530896 0.026521238 0.05329492 -0.07464519 -0.014599037 0.06684629 -0.18232124 0.0034686876
0.10697912 0.06742067 -0.11398548 -0.124460064 0.06270681 0.08770884 -0.0838468 0.040755548
0.2075453 -0.20715111 0.097524285 -0.06647291 0.11978418 -0.0958588 0.13271835 -0.004984647
0.015502647 -0.14363998 0.25407398 -0.0044756513 -0.09676823 0.022387309 -0.10342687 0.13302469
-0.0010568114 -0.09734098 -0.082268566 0.0013584117 -0.05619201 0.04094264 -0.03352344 -0.08647776
-0.044709157 -0.088250995 0.19380592 0.1284958 0.15838926 -0.13094187 0.06971122 -0.090464815
0.015881022 -0.008165573 -0.1213156 -0.06292164 0.037465557 0.0853482 -0.07700297 0.0929761

fc3.bias f4 [10]
00000000: 3e38 d83d f91b b73e 6995 7b3d 0599 803d
00000010: 9bbf 8e3d b9cb 503e 167d b03d 34e6 58be
00000020: ecaa 9abe ff84 5bbe
0.10557602 0.3576353 0.061421786 0.06279186 0.069701396 0.20390214 0.08617608 -0.21181566
-0.30208528 -0.21437453
