Partha's CNN/MNIST.pth (torch, 709243 bytes, 14 tensors)

weight f4 [6, 1, 5, 5]
-0.04516859 -0.12656459 -0.1631299 -0.03881641 -0.03946854 0.16296753 -0.031425178 -0.07816172
-0.07004795 -0.030038642 0.013854117 0.15870233 -0.09919626 -0.13958909 0.08092026 0.19476455
-0.18167645 -0.16627617 -0.12789088 -0.03272286 -0.18292618 0.16210134 0.026804697 0.19195423
0.18214805 -0.1346233 0.11235125 0.19012158 -0.19559948 0.0102816345 -0.13855317 -0.115671754
0.036429543 -0.1794543 0.0864575 0.14493285 -0.16224097 -0.08686245 -0.065438166 -0.030942772
0.009400634 -0.15133964 0.029724598 -0.104765676 0.035608012 -0.09564961 -0.16792297 0.043261856
-0.07313155 -0.04306811 -0.107195504 0.00981628 0.044311076 -0.18025634 0.20587313 -0.023008391
-0.18874104 -0.033881232 0.1723186 -0.015667144 0.1519797 -0.0016284294 0.03664666 -0.038183365
0.07552537 0.07903046 -0.08330515 0.07604327 -0.043958463 -0.012932129 -0.13410135 0.11270651
0.08977535 -0.07123397 -0.0971281 -0.024635833 -0.12358649 -0.18844333 0.14737289 -0.08357114
0.048580565 0.04602247 -0.07383164 -0.1180803 -0.14716883 0.07987792 0.1463609 -0.07063412
-0.058546536 -0.01968549 0.18258381 -0.116577245 -0.0673948 0.04845286 0.12908085 0.04056656
0.08253259 0.06696988 -0.04641734 -0.1834622 -0.12869228 -0.053496815 -0.0010185456 -0.1504158
-0.026051275 -0.06670726 -0.10741787 -0.16055363 0.17791805 -0.118381195 -0.05715894 0.0392888
-0.18644637 0.18845743 -0.064537495 0.14490633 -0.14862908 -0.19019133 -0.18745457 -0.05215364
-0.047895495 0.11660361 0.103351235 0.07596189 -0.11532294 -0.106979825 0.113361925 0.11615103
0.17296341 0.14966561 0.067655824 -0.006759359 -0.17461057 0.07349693 0.18342604 0.1517981
0.02670189 0.16720018 0.08969809 0.0036412 -0.15079033 -0.1757263 -0.1610565 -0.049007952
0.05198763 0.043451864 -0.14738038 -0.026011646 0.091140494 0.110228375
00000000: b302 39bd 269a 01be 860b 27be f5fd 1ebd
00000010: c4a9 21bd f6e0 263e b0b7 00bd 4013 a0bd
00000020: 4d75 8fbd 9913 f6bc 61fc 623c dd82 223e
00000030: 6927 cbbd 71f0 0ebe 85b9 a53d 5c70 473e
00000040: 6409 3abe 4d44 2abe d4f5 02be 6808 06bd
00000050: 0051 3bbe e5fd 253e 8695 db3c a68f 443e
00000060: 0585 3a3e b1da 09be 6a18 e63d 3baf 423e
00000070: 3b4b 48be 4d74 283c e2e0 0dbe 50e5 ecbd
00000080: 2537 153d dec2 37be a110 b13d 4769 143e
00000090: 7f22 26be f1e4 b1bd 7204 86bd b27b fdbc
000000a0: 1e05 1a3c c7f8 1abe 0081 f33c 638f d6bd
000000b0: b5d9 113d f1e3 c3bd 00f4 2bbe 5833 313d
000000c0: fec5 95bd 3068 30bd 5189 dbbd 76d4 203c
000000d0: 887f 353d 1e95 38be 68d0 523e 187c bcbc
000000e0: 5545 41be 0cc7 0abd 4974 303e 6258 80bc
000000f0: 91a0 1b3e 0671 d5ba cf1a 163d 2966 1cbd
00000100: 0cad 9a3d b9da a13d e49b aabd 93bc 9b3d
00000110: ca0d 34bd 48e1 53bc dd51 09be acd2 e63d
00000120: 24dc b73d 1ee3 91bd 19eb c6bd 16d1 c9bc
00000130: ea1a fdbd 4af7 40be ebe8 163e 5927 abbd
00000140: 6afc 463d 0f82 3c3d 0b35 97bd 16d4 f1bd
00000150: 6db3 16be 0997 a33d a2df 153e 9fa8 90bd
00000160: 7ece 6fbd 7743 a1bc 40f7 3a3e 0dc0 eebd
00000170: 4906 8abd 8276 463d c52d 043e 1f29 263d
00000180: d906 a93d 8127 893d 1c20 3ebd 84dd 3bbe
00000190: e9c7 03be 7a1f 5bbd b880 85ba 9906 1abe
000001a0: 7c69 d5bc d19d 88bd e6fd dbbd 2c68 24be
000001b0: 2630 363e d771 f2bd 7e1f 6abd 4bed 203d
000001c0: cceb 3ebe fcfa 403e 3c2c 84bd 5362 143e
000001d0: 3932 18be 84c1 42be 17f4 3fbe 0e9f 55bd
000001e0: 112e 44bd e0cd ee3d d0a9 d33d e891 9b3d
000001f0: 6f2e ecbd 3d18 dbbd 4c2a e83d 97e0 ed3d
00000200: 521d 313e f141 193e 238f 8a3d 9d7d ddbb
00000210: 1dcd 32be 8f85 963d 09d4 3b3e f670 1b3e
00000220: ecbd da3c 8636 2b3e a2b3 b73d 33a1 6e3b
00000230: c868 1abe 98f1 33be ffeb 24be 90bc 48bd
00000240: fbf0 543d 95fa 313d e2ea 16be 6016 d5bc
00000250: dea7 ba3d 6abf e13d

bias f4 [6]
-0.14568463 -0.029653678 0.022297254 -0.18319719 0.19602674 -0.15508421
00000000: 5a2e 15be 45ec f2bc bba8 b63c 0b98 3bbe
00000010: 3cbb 483e 65ce 1ebe

weight f4 [16, 6, 5, 5]
-0.033892266 -0.07858588 0.020276835 -0.051770933 0.015703725 0.069658175 0.043311086 0.0070027974
-0.07376107 0.01413508 0.07060841 0.045676474 0.055362612 0.021711065 0.044955466 -0.040550124
-0.015172729 -0.039207682 0.059125666 0.04767574 0.058785032 0.043820478 0.05461927 -0.050649732
-0.06334352 -0.026849253 0.05523695 0.025411323 -0.02975285 -0.006678713 -0.048474938 0.0633365
0.044706255 0.05120284 -0.072458334 0.05195388 0.0019950178 0.03496393 0.02013673 0.06952426
-0.05841506 -0.010622728 -0.059995703 0.027359491 -0.017778901 0.06736829 0.02661279 -0.026424043
-0.024161434 -0.012863389 -0.008490984 -0.0046267062 0.0049158977 0.025966145 -0.04768114 -0.036380075
-0.0063920203 -0.025839115 -0.032655858 0.018022917 -0.060788393 -0.069298394 -0.064727075 0.008668873
-0.01916762 0.026014192 -0.06726181 0.04861424 0.005792845 0.027007299 0.004597186 -0.038990397
-0.021294732 0.0063825706 0.056253556 -0.034231342 0.026433546 0.026041653 0.06288094 -0.06758662
-0.0024288497 0.028538266 0.012144104 0.06908114 -0.02594431 0.028352218 0.0027316678 -0.00073741033
-0.06818633 0.060185757 0.0029562626 0.069351636 0.035809487 0.00054967584 -0.0011531689 -0.0050850348
-0.06707965 -0.021818649 -0.011062328 -0.03999953 0.051930573 -0.05368078 0.080686115 0.06744106
-0.017489562 0.069381416 -0.024130657 0.0070669143 -0.011899712 0.069780394 0.051658668 -0.0049003717
-0.047724158 0.07963492 0.07609537 0.06531631 -0.026034523 -0.009107719 -0.03419778 0.025672108
0.04768574 0.07370873 0.042485084 0.045049343 0.018080655 -0.07849395 -0.08091004 -0.061789725
-0.06396691 0.046451077 0.08077396 -0.038562328 0.052665673 0.022688633 -0.016773086 0.0808423
-0.02004447 0.0007857935 0.021898022 -0.046047557 0.04240589 -0.03087536 0.02031415 -0.040092587
0.003963393 0.057164013 0.026659995 -0.0060688294 -0.035310768 -0.006324956 0.032111984 -0.02026918
-0.05493134 -0.037010595 -0.049359325 -0.05258637 -0.06184314 -0.05856228 -0.06263026 0.022575455
-0.031133449 -0.023939708 -0.00521834 -0.070919245 -0.06570397 -0.0708096 0.061852567 -0.0026138222
0.032573745 -0.070807904 -0.017297417 -0.06464016 0.016163783 0.027188107 0.0419946 0.06479673
0.02720322 0.014457074 0.079839915 -0.03601936 0.019590193 0.051903598 -0.032394886 -0.0061021927
0.060249574 0.031886112 -0.039975055 0.04220167 -0.04864248 -0.013393315 0.014839234 -0.03891219
0.013680959 0.01583493 -0.059156496 0.062495936 0.07356353 -0.008658744 0.014089888 -0.04636281
-0.009362685 0.08026795 0.046307184 0.03227522 -0.056778144 -0.011317155 0.030798718 0.07549548
0.050703693 -0.065358646 -0.038846105 -0.05939836 0.054358598 -0.043436833 0.02201431 0.079298936
0.0022962994 0.0651505 -0.03843855 -0.06620964 -0.04383849 -0.050619837 0.07871945 -0.030177414
-0.07174416 0.05213641 0.030993767 -0.0792752 -0.010840217 -0.009633351 -0.034362406 -0.0589733
0.0814856 0.060051195 0.05034284 -0.013407602 -0.043173693 0.068628 0.051981095 -0.01977465
0.0373902 -0.007021458 -0.019603597 -0.009278238 0.067516804 -0.042247996 -0.08094121 -0.056199055
-0.01546745 -0.08099094 -0.07485697 -0.07895631 0.037260327 0.027244767 -0.036775842 0.07908033
00000000: 9ed2 0abd a2f1 a0bd 9b1b a63c c20d 54bd
00000010: 19a5 803c f2a8 8e3d f766 313d b977 e53b
00000020: 0b10 97bd d396 673c 249b 903d 4117 3b3d
00000030: e8c3 623d 67db b13c 3923 383d e317 26bd
00000040: 0a97 78bc 3c98 20bd c12d 723d a347 433d
00000050: 93c8 703d 1a7d 333d 75b8 5f3d 1876 4fbd
00000060: 3fba 81bd f7f2 dbbc 2440 623d 682b d03c
00000070: 40bc f3bc 1bd9 dabb a88d 46bd 91b6 813d
00000080: e81d 373d 12ba 513d 0965 94bd 97cd 543d
00000090: d8be 023b 5636 0f3d c9f5 a43c bc62 8e3d
000000a0: a144 6fbd f30a 2ebc 0ebe 75bd 0321 e03c
000000b0: 0fa5 91bc 63f8 893d 1103 da3c 3c77 d8bc
000000c0: 33ee c5bc f7c0 52bc c51d 0bbc a09b 97bb
000000d0: 8a15 a13b f4b6 d43c 4d4d 43bd 4603 15bd
000000e0: 2774 d1bb 8dac d3bc 26c2 05bd cca4 933c
000000f0: 40fd 78bd 51ec 8dbd a18f 84bd e407 0e3c
00000100: 6a05 9dbc b71b d53c 8fc0 89bd ba1f 473d
00000110: e8d1 bd3b 693e dd3c fea3 963b 65b4 1fbd
00000120: 4a72 aebc e224 d13b 216a 663d 2a36 0cbd
00000130: 2a8b d83c 4e55 d53c b9c7 803d db6a 8abd
00000140: 562d 1fbb 15c9 e93c 10f8 463c 6a7a 8d3d
00000150: 2989 d4bc e942 e83c c805 333b c54e 41ba
00000160: 46a5 8bbd 5785 763d dbbd 413b 3b08 8e3d
00000170: f8ac 123d 1f18 103a ed25 97ba 5da0 a6bb
00000180: 0e61 89bd 06bd b2bc c43e 35bc 8cd6 23bd
00000190: 27b5 543d 61e0 5bbd c33e a53d 8a1e 8a3d
000001a0: 4546 8fbc d817 8e3d a8ad c5bc 9391 e73b
000001b0: 02f7 42bc 06e9 8e3d 0a98 533d 4c93 a0bb
000001c0: 687a 43bd a217 a33d e4d7 9b3d 8fc4 853d
000001d0: 5a46 d5bc 8b38 15bc f912 0cbd 504e d23c
000001e0: 1f52 433d 9af4 963d d704 2e3d a985 383d
000001f0: e21d 943c 70c1 a0bd 2ab4 a5bd 3917 7dbd
00000200: 1501 83bd 7c43 3e3d d16c a53d 88f3 1dbd
00000210: f6b7 573d 83dd b93c b667 89bc a690 a53d
00000220: 4d34 a4bc b6fd 4d3a 7b63 b33c 5d9c 3cbd
00000230: ccb1 2d3d 53ee fcbc dc69 a63c 2038 24bd
00000240: 5adf 813b d024 6a3d 1066 da3c 08dd c6bb
00000250: 06a2 10bd 9441 cfbb db87 033d 8d0b a6bc
00000260: afff 60bd 6c98 17bd 012d 4abd ce64 57bd
00000270: 3b4f 7dbd 00df 6fbd 4b44 80bd 29f0 b83c
00000280: 930b ffbc 351d c4bc 9cfe aabb 1c3e 91bd
00000290: ce8f 86bd a004 91bd 1e59 7d3d a94c 2bbb
000002a0: 0c6c 053d bc03 91bd 50b3 8dbc 0f62 84bd
000002b0: e969 843c 98b9 de3c 8802 2c3d 26b4 843d
000002c0: 4ad9 de3c 5ddd 6c3c 1c83 a33d 0989 13bd
000002d0: 9d7b a03c de98 543d 80b0 04bd e7f4 c7bb
000002e0: 42c8 763d 039b 023d e2bc 23bd a9db 2c3d
000002f0: 563d 47bd a26f 5bbc 4220 733c 6362 1fbd
00000300: 1a26 603c 41b8 813c 154e 72bd bdfb 7f3d
00000310: 7aa8 963d 68dd 0dbc 46d9 663c eee6 3dbd
00000320: f265 19bc 8663 a43d 9aac 3d3d 0533 043d
00000330: 3390 68bd 976b 39bc 984d fc3c 609d 9a3d
00000340: adae 4f3d c1da 85bd 181d 1fbd b24b 73bd
00000350: 1fa7 5e3d d2ea 31bd 5b57 b43c 7b67 a23d
00000360: 837d 163b a06d 853d be71 1dbd eb98 87bd
00000370: fd8f 33bd bf56 4fbd aa37 a13d a036 f7bc
00000380: 9aee 92bd fd8c 553d a4e6 fd3c 095b a2bd
00000390: 2a9b 31bc 34d5 1dbc 98bf 0cbd fd8d 71bd
000003a0: ece1 a63d 3ef8 753d 4b34 4e3d 8fab 5bbc
000003b0: e6d6 30bd d68c 8c3d 21ea 543d 72fe a1bc
000003c0: 7726 193d 4214 e6bb b997 a0bc c003 18bc
000003d0: 4046 8a3d 3c0c 2dbd 81c4 a5bd fb30 66bd
000003e0: 306b 7dbc 94de a5bd 9c4e 99bd d9b3 a1bd
000003f0: 499e 183d 6b30 df3c 44a2 16bd def4 a13d

bias f4 [16]
0.020046694 -0.0429023 0.034362923 -0.06645424 0.0038558813 -0.06660257 -0.06383508 0.056916106
-0.0002603262 0.04592035 0.002571153 -0.079850495 -0.0023402171 -0.023520928 0.075878344 0.0836132
00000000: f738 a43c 52ba 2fbd 23c0 0c3d 2919 88bd
00000010: f4b2 7c3b ee66 88bd f7bb 82bd dd20 693d
00000020: 647c 88b9 fa16 3c3d ca80 283b a888 a3bd
00000030: 545e 19bb f6ae c0bc 1b66 9b3d 663d ab3d

weight f4 [256, 256]
0.04329192 0.052960902 -0.0017647296 0.055338606 0.0364495 -0.028499782 0.059796773 -0.020163894
-0.030367486 0.02095902 -0.030294672 0.06121347 -0.05149678 0.041974247 -0.027042486 -0.004693754
0.028543964 -0.0018192902 0.0050722063 -0.034301177 0.03953991 0.027310908 -0.019464947 0.029051691
-0.037606947 -0.054956928 0.012172148 -0.056047507 0.058490276 -0.022349939 0.031691797 0.043361343
-0.00061121583 0.027831323 -0.04705032 -0.015681766 0.054678723 0.05854576 0.040183432 -0.05235564
0.03641244 -0.04957363 -0.026511095 -0.032729864 -0.026736699 -0.0058568195 -0.0010369122 -0.060955875
0.038732275 0.045848355 -0.05598882 -0.030661672 0.050988585 0.018635944 0.043054603 0.021785825
0.04635881 0.059010454 0.028133184 0.04099135 0.025158398 0.04716953 -0.0064575523 -0.041268528
-0.022321053 -0.012286477 0.012062781 -0.0276184 0.013621286 0.03259357 0.0076081157 -0.05812957
0.04321234 -0.053231128 -0.023177259 0.010371618 0.01931972 -0.010781467 -0.0025115088 -0.05369278
0.05325508 -0.024579115 0.02545292 -0.021501891 -0.02354566 -0.025374353 -0.05305525 -0.047504984
0.03218873 -0.018156692 -0.04655868 -0.020702973 -0.060964122 -0.042131975 0.010581389 0.024122238
-0.024449803 -0.026851587 -0.0026657954 0.013001651 0.046228305 -0.04286875 -0.007740125 -0.022766069
0.013862684 -0.02621793 -0.031287424 0.026721172 -0.046633072 -0.022889853 0.049191758 0.018626407
0.052061617 -0.06047146 -0.025191337 0.017836854 -0.052066192 -0.028292254 -0.060012475 0.0024999455
-0.059954368 0.02649799 -0.010387383 -0.004568428 0.017411456 0.00923688 0.03456936 -0.030813232
-0.02012416 0.0022507682 -0.026909739 0.050160117 0.0009403825 -0.009432152 -0.049858585 -0.017031409
0.042336993 -0.016077287 0.05460757 -0.05371716 -0.011745632 -0.01861623 -0.053102463 -0.049129352
-0.005777307 0.017109245 0.044049308 -0.040636495 0.002887033 0.03591878 0.0167313 0.03860455
0.0555536 -0.01797121 -0.020239204 -0.013904631 0.03065776 -0.026797853 0.040232778 -0.045815803
-0.038229875 0.056015365 -0.035944834 -0.016075693 -0.017286114 0.013672061 0.017250583 -0.020739347
0.060582407 -0.022529922 0.051356226 -0.009078994 -0.043178603 0.036197275 -0.06201855 -0.021545015
-0.06082221 -0.034337275 0.0044586286 0.016487077 0.05738476 0.011838838 0.021333404 0.03059566
-0.0066635013 -0.028338455 0.043837257 -0.008070275 -0.05451738 -0.03190869 -0.056810014 0.04249122
-0.048008002 -0.041581795 0.048853464 -0.03132973 -0.05956348 -0.020320438 0.04032951 -0.044931315
-0.06213457 0.0010810941 0.061841406 -0.059055403 0.010314122 -0.058676444 -0.038459778 -0.018856913
0.023713268 -0.046834074 0.0542249 0.00081954896 -0.007705085 -0.051162116 -0.03323681 -0.05623538
0.056769766 -0.031692334 -0.061505765 0.058515944 -0.06240943 -0.020231046 0.04682096 0.023259558
0.036345534 -0.051804982 -0.04060533 -0.055992723 -0.018995479 0.057129845 0.05968146 0.022356547
0.024143137 0.028403647 -0.023648307 -0.045770757 -0.014772609 0.0095068365 0.04272476 -0.045662746
0.00081598014 -0.026615076 0.02437625 0.020743735 -0.0045628026 0.009560697 0.025813386 0.042593837
-0.048784316 -0.0074822307 -0.007704407 -0.05300475 -0.03871379 -0.028672047 -0.031732343 0.046236455
00000000: de52 313d 88ed 583d 804e e7ba bcaa 623d
00000010: 124c 153d 6078 e9bc 76ed 743d c02e a5bc
00000020: 3cc5 f8bc 40b2 ab3c 882c f8bc faba 7a3d
00000030: 4aee 52bd 30ed 2b3d 3488 ddbc 10ce 99bb
00000040: 08d5 e93c 4075 eeba c034 a63b 647f 0cbd
00000050: 9af4 213d 20bb df3c f474 9fbc d0fd ed3c
00000060: be09 1abd 841a 61bd b06d 473c 1292 65bd
00000070: 8093 6f3d 3817 b7bc 42cf 013d aa9b 313d
00000080: 003a 20ba 84fe e33c d6b7 40bd 0c77 80bc
00000090: ccf6 5f3d aecd 6f3d 6297 243d de72 56bd
000000a0: 3625 153d b80d 4bbd cc2d d9bc c00f 06bd
000000b0: ec06 dbbc 90ea bfbb 00e9 87ba deac 79bd
000000c0: bca5 1e3d 7ccb 3b3d 8854 65bd 302e fbbc
000000d0: 68d9 503d 68aa 983c 065a 303d 3078 b23c
000000e0: bce2 3d3d f2b4 713d 9077 e63c 8ce6 273d
000000f0: fc18 ce3c d634 413d e099 d3bb 3009 29bd
00000100: a4da b6bc 384d 49bc f8a2 453c fc3f e2bc
00000110: d02b 5f3c d680 053d 804d f93b 4619 6ebd
00000120: 6cff 303d e208 5abd 3cde bdbc b8ed 293c
00000130: 6444 9e3c c0a4 30bc 2098 24bb f6ec 5bbd
00000140: 0022 5a3d 245a c9bc a482 d03c bc24 b0bc
00000150: d4e2 c0bc e0dd cfbc 7650 59bd 9694 42bd
00000160: 54d8 033d 58bd 94bc 50b4 3ebd 4899 a9bc
00000170: 84b5 79bd 9492 2cbd 905d 2d3c 009c c53c
00000180: f44a c8bc dcf7 dbbc a0b4 2ebb e004 553c
00000190: e459 3d3d 2497 2fbd e0a0 fdbb e87f babc
000001a0: 5020 633c fcc6 d6bc 3e27 00bd 5ce6 da3c
000001b0: 5202 3fbd 8083 bbbc 4c7d 493d 6896 983c
000001c0: 903e 553d ecb0 77bd 105e cebc 981e 923c
000001d0: 5c43 55bd 28c5 e7bc a4cf 75bd 20d6 233b
000001e0: b692 75bd 5012 d93c d82f 2abc c0b2 95bb
000001f0: 78a2 8e3c 4856 173c 9a98 0d3d 086c fcbc
00000200: 6cdb a4bc a081 133b d071 dcbc b274 4d3d
00000210: 0084 763a 5089 1abc 8438 4cbd 7485 8bbc
00000220: 8e69 2d3d 84b4 83bc 30ac 5f3d 8606 5cbd
00000230: c070 40bc 1081 98bc f881 59bd dc3b 49bd
00000240: 904f bdbb b028 8c3c 0c6d 343d 7472 26bd
00000250: 6034 3d3b 921f 133d 1410 893c ce1f 1e3d
00000260: 2c8c 633d 5c38 93bc b0cc a5bc 40d0 63bc
00000270: fc25 fb3c 2c87 dbbc 20cb 243d 5aa9 3bbd
00000280: ee96 1cbd 5e70 653d e43a 13bd 2cb1 83bc
00000290: 9c9b 8dbc c800 603c 1851 8d3c 90e5 a9bc
000002a0: 4225 783d ac90 b8bc e85a 523d 10c0 14bc
000002b0: 0cdc 30bd 9843 143d 2a07 7ebd 2c7f b0bc
000002c0: b620 79bd 3ea5 0cbd b019 923b e80f 873c
000002d0: 480c 6b3d b0f7 413c 64c3 ae3c c0a3 fa3c
000002e0: 8059 dabb 0c26 e8bc b28e 333d 3039 04bc
000002f0: 9e4d 5fbd b0b2 02bd 9eb1 68bd 460b 2e3d
00000300: 0aa4 44bd ac51 2abd 921a 483d 9a53 00bd
00000310: d6f8 73bd 0c77 a6bc 8e30 253d e609 38bd
00000320: d280 7ebd 80b3 8d3a 6a4d 7d3d 14e4 71bd
00000330: 90fc 283c b656 70bd 0088 1dbd d079 9abc
00000340: 5442 c23c 16d5 3fbd ee1a 5e3d 00d7 563a
00000350: f07a fcbb 5e8f 51bd 5223 08bd 1257 66bd
00000360: 6a87 683d d2cf 01bd 78ed 7bbd 6aae 6f3d
00000370: 08a1 7fbd 94bb a5bc 56c7 3f3d d48a be3c
00000380: 0edf 143d 7631 54bd c651 26bd a058 65bd
00000390: 689c 9bbc fc00 6a3d 8c74 743d 1425 b73c
000003a0: d4c7 c53c c4ae e83c 18ba c1bc 1e7a 3bbd
000003b0: d008 72bc 90c2 1b3c 2800 2f3d dc08 3bbd
000003c0: 80e7 553a dc07 dabc b4b0 c73c c4ee a93c
000003d0: 9083 95bb 78a4 1c3c 9876 d33c e076 2e3d
000003e0: 10d2 47bd 802d f5bb 4075 fcbb 821b 59bd
000003f0: 5a92 1ebd a4e1 eabc c6f9 01bd 7062 3d3d

bias f4 [256]
-0.016349874 -0.05518447 0.056652464 0.036827132 0.0013207949 0.058302242 -0.020999493 -0.020310163
0.008773022 0.034882035 0.03495272 0.033133645 0.043743208 0.019237574 -0.0487435 -0.017993633
0.041400045 -0.022649873 0.0009700107 -0.022545675 -0.01029782 0.044746213 -0.03794056 0.027674163
0.031845413 -0.006277618 -0.014671166 0.027505808 0.04575601 0.05223918 0.02557816 0.036171403
-0.04301391 -0.021367302 0.055074282 0.05631506 0.0096625285 0.03969365 0.043089278 -0.050333753
0.037860345 0.043443833 -0.029770918 0.047161516 -0.02350798 0.03807011 0.06253481 -0.03327405
0.025462942 0.051785793 0.003334508 -0.0034774197 -0.057641152 -0.007206918 -0.063623525 0.0663002
0.061740912 0.006032289 -0.030633032 0.023458015 -0.021212721 -0.055572495 0.009485506 0.015585753
-0.060179867 0.05129258 0.015951589 0.016192008 -0.026070584 -0.034404267 0.031334575 0.0029545962
0.00075828366 0.048981365 0.03588377 -0.048861377 -0.00244275 0.054140583 0.05235078 -0.028067756
-0.0025142338 0.0056540305 0.04175069 0.0527053 0.0030943512 0.01968888 0.035872635 -0.00911884
-0.059633438 0.04128336 0.050751626 0.060579013 -0.037796315 0.0044653807 -0.031316116 0.0626985
-0.024471607 0.005937703 0.057482876 -0.060938735 0.009156538 -0.0074727456 -0.0083730975 -0.028625969
0.030749321 0.043418985 0.024508737 0.06412544 -0.04177833 0.0069488753 -0.030946154 -0.022523036
-0.041340426 -0.035907634 0.059925955 0.003483981 -0.026824558 -0.031304676 0.036650266 -0.026733693
0.04666033 -0.008948136 0.04092478 0.014606011 -0.03159611 0.04958403 -0.054951284 0.038118325
-0.04398058 -0.055379465 0.03424563 0.012601534 -0.04881312 -0.060645357 -0.038525622 0.048127797
0.023116965 0.0040553557 -0.008660761 0.042440217 0.00857217 0.014922777 -0.046934683 -0.03707342
-0.036473848 -0.013240479 0.01686824 0.04003017 -0.01776442 -0.050609924 -0.050190184 -0.0019277409
-0.061368033 0.041391987 0.04400516 0.019917624 -0.019599058 0.049639694 0.025427166 0.002823806
0.017821696 0.048926335 0.025708735 -0.00779018 0.027099226 0.0297532 -0.05946386 0.057227943
0.053988002 -0.055732347 0.04691751 -0.014753051 -0.01845716 -0.040927913 0.004455566 -0.030888163
0.055035397 -0.039781872 -0.02223943 0.021071918 -0.042737037 0.035879537 0.059858646 -0.036661178
-0.045868985 -0.0044956994 -0.00440161 -0.04550229 -0.0061812378 -0.062231533 -0.05360458 -0.034887742
0.0020703275 -0.0065453295 -0.042178627 0.040484525 0.014863047 0.025824847 0.027585031 -0.021713765
-0.0135299815 0.03158608 0.011043073 -0.03480695 0.0056776144 -0.04248046 -0.011356829 -0.050434936
-0.05972031 0.0303917 -0.049496047 0.007842286 0.028857445 0.06221936 -0.032032967 0.016991546
-0.059530094 -0.013182685 -0.012340974 -0.017601825 0.008002627 0.03608096 0.027284715 -0.048585903
0.02463063 -0.04064419 -0.012733409 -0.035069376 0.059973065 0.036420185 0.057621658 -0.056147337
-0.0066003427 0.04608097 0.018258914 0.049901366 -0.053590596 -0.035345808 -0.02457381 0.033263575
-0.052050147 0.0076716826 -0.062720135 0.04926201 0.03727279 0.00023363855 0.0064044767 -0.039195463
-0.0031024555 0.0377802 0.015632035 -0.03260476 -0.03050136 -0.037607722 0.05956033 0.014728195
00000000: 2cf0 85bc 1c09 62bd 6a0c 683d 0cd8 163d
00000010: 861e ad3a 55ce 6e3d 2107 acbc 8061 a6bc
00000020: b9bc 0f3c 77e0 0e3d 952a 0f3d 25b7 073d
00000030: 142c 333d 1e98 9d3c 44a7 47bd 6267 93bc
00000040: 1893 293d 3a8c b9bc 5148 7e3a b5b1 b8bc
00000050: 30b8 28bc ce47 373d 9067 1bbd edb4 e23c
00000060: 5670 023d 7ab4 cdbb 555f 70bc dc53 e13c
00000070: a76a 3b3d c0f8 553d 4a89 d13c 7728 143d
00000080: 5b2f 30bd 7b0a afbc 9295 613d 9faa 663d
00000090: 954f 1e3c cf95 223d 627e 303d c42a 4ebd
000000a0: 7313 1b3d 29f2 313d 24e2 f3bc 6f2c 413d
000000b0: cf93 c0bc 67ef 1b3d 4012 803d 5f4a 08bd
000000c0: a997 d03c 571d 543d c387 5a3b 6ce5 63bb
000000d0: 2119 6cbd 0328 ecbb 0d4d 82bd 66c8 873d
000000e0: 0ae4 7c3d 82aa c53b 20f2 fabc 062b c03c
000000f0: 4dc6 adbc fc9f 63bd 1969 1b3c 635b 7f3c
00000100: 2a7f 76bd 2b18 523d e8ac 823c 1aa5 843c
00000110: fa91 d5bc 7deb 0cbd af58 003d e6a1 413b
00000120: 8ec7 463a afa0 483d dcfa 123d de22 48bd
00000130: 8b16 20bb 84c2 5d3d c66d 563d 5aee e5bc
00000140: d8c5 24bb 7245 b93b c602 2b3d 83e1 573d
00000150: 99ca 4a3b 934a a13c 2fef 123d 3067 15bc
00000160: 3142 74bd be18 293d f0e0 4f3d b321 783d
00000170: 4fd0 1abd 5452 923b 5445 00bd 1268 803d
00000180: ae78 c8bc 1091 c23b 2a73 6b3d e59a 79bd
00000190: 4e05 163c efdd f4bb 512f 09bc 0281 eabc
000001a0: 00e6 fb3c 1bd8 313d 8cc6 c83c 3354 833d
000001b0: c11f 2bbd 64b3 e33b ca82 fdbc 3b82 b8bc
000001c0: 9454 29bd e213 13bd eb74 753d 8053 643b
000001d0: 2dbf dbbc 5539 00bd 971e 163d 9e00 dbbc
000001e0: e71e 3f3d 349b 12bc bea0 273d 0d4e 6f3c
000001f0: ec6a 01bd a018 4b3d 9914 61bd f621 1c3d
00000200: fb24 34bd 94d5 62bd 2545 0c3d aa76 4e3c
00000210: 44f0 47bd 4467 78bd 0bcd 1dbd a721 453d
00000220: ca5f bd3c cae2 843b dde5 0dbc cbd5 2d3d
00000230: 4972 0c3c aa7e 743c 953e 40bd 4cda 17bd
00000240: 9a65 15bd 98ee 58bc 432f 8a3c adf6 233d
00000250: b086 91bc 5a4c 4fbd 3994 4dbd 40ac fcba
00000260: 0c5d 7bbd a58a 293d c13e 343d 492a a33c
00000270: 348e a0bc fe52 4b3d a24c d03c 9a0f 393b
00000280: cefe 913c fb66 483d 209b d23c c444 ffbb
00000290: 32ff dd3c fcbc f33c 6090 73bd d967 6a3d
000002a0: 8622 5d3d 9a47 64bd 932c 403d c8b6 71bc
000002b0: 7833 97bc 07a4 27bd ffff 913b 2c09 fdbc
000002c0: cc6c 613d 51f2 22bd 772f b6bc 049f ac3c
000002d0: 080d 2fbd 6cf6 123d 572e 753d 082a 16bd
000002e0: 1ee1 3bbd a950 93bb 613b 90bb 9c60 3abd
000002f0: fb8b cabb 7ee6 7ebd 7a90 5bbd 73e6 0ebd
00000300: 55ae 073b 347a d6bb 7fc3 2cbd 1ad3 253d
00000310: 2384 733c a18e d33c 01fa e13c 11e1 b1bc
00000320: dbac 5dbc 6860 013d 01ee 343c bb91 0ebd
00000330: 480b ba3b feff 2dbd fe11 3abc dd94 4ebd
00000340: 499d 74bd 04f8 f83c 5ebc 4abd ee7c 003c
00000350: 7366 ec3c bad9 7e3d 0035 03bd db31 8b3c
00000360: d4d5 73bd 30fc 57bc cc31 4abc b431 90bc
00000370: 731d 033c a1c9 133d 3284 df3c 0302 47bd
00000380: 2dc6 c93c 867a 26bd ca9f 50bc e8a4 0fbd
00000390: 51a6 753d 552d 153d b004 6c3d c0fa 65bd
000003a0: b047 d8bb 66bf 3c3d b893 953c 6065 4c3d
000003b0: d081 5bbd c4c6 10bd 044f c9bc 633f 083d
000003c0: 8932 55bd bd62 fb3b 6a73 80bd f6c6 493d
000003d0: 5aab 183d dffc 7439 a5dc d13b 6c8b 20bd
000003e0: 9152 4bbb 69bf 1a3d c10e 803c 928c 05bd
000003f0: fddd f9bc 8e0a 1abd 88f5 733d 874e 713c

weight f4 [256, 256]
-0.02324202 0.003237234 -0.02305597 -0.01733743 0.01238252 -0.0142911775 0.046328865 0.014821342
0.04253686 0.061371144 0.0019420468 -0.011491421 0.032736618 -0.0109592 -0.057621285 -0.016071513
0.024765067 -0.032635614 -0.05017922 -0.029876823 -0.0464463 0.00027047325 -0.04056996 0.020127568
0.003264092 0.01999456 0.0272752 -0.010869825 0.0446094 0.05649959 -0.044287764 0.052551705
-0.037475165 0.034369465 -0.0393266 -0.03759574 -0.046353918 -0.00072914147 -0.0049618017 0.012472085
-0.056585714 0.03198896 0.040773362 0.02843278 -0.0016121336 -0.03886744 0.012856826 0.020603696
0.040656224 -0.04122572 0.059407886 -0.050495602 0.03164687 -0.059130777 -0.037134893 0.031535286
-0.032439657 -0.01600637 0.0017525643 0.009282318 -0.021241607 -0.05512732 0.056526046 0.046723735
-0.03791438 -0.005308745 -0.0010750631 -0.028360082 -0.030711465 0.031185573 -0.00017553315 -0.043425288
-0.016040208 -0.03411418 -0.022621479 -0.014566205 0.049602482 -0.0426619 -0.051538616 0.06087061
0.0030500842 0.05846089 0.056506265 -0.044064496 0.037814748 0.016754389 0.03780416 -0.049756594
0.021851262 0.051528197 -0.060087156 0.00090674165 -0.033186097 -0.056076363 0.032383427 -0.01915746
-0.038904086 0.015229923 -0.02557921 -0.024928147 -0.0039949855 -0.038696855 0.004515639 0.0050124135
-0.037586648 -0.050110582 0.060679413 -0.010897906 -0.05102678 0.050854817 -0.048495866 -0.0048364364
-0.061713222 0.05306842 0.0035068376 0.006787099 -0.056813855 -0.058528952 0.029557401 -0.028782917
-0.034171637 -0.037199464 0.04131045 -0.03658781 -0.037147112 -0.060480665 -0.053361002 -0.026006745
-0.01955197 -0.0006874593 0.0020838294 0.02430383 0.045508616 -0.014557603 -0.018341599 0.030678362
0.05797856 -0.05281937 0.05404365 -0.010185969 -0.04253026 -0.0033179892 0.012621736 -0.002676032
-0.03459452 0.057274785 -0.006116142 0.049304076 -0.056340244 -0.051955033 0.029168477 -0.0397938
0.007563941 -0.009355316 0.014835551 0.011295429 0.041483253 -0.021158926 -0.0018786157 0.046553172
0.05249192 0.00993546 -0.037882432 -0.056235854 0.018535947 0.008333989 0.03178461 -0.047093727
-0.014626905 -0.045988016 0.04870162 0.008280456 0.023605794 -0.019818667 -0.016238937 -0.013248438
0.03647973 0.026130889 0.019437533 -0.00042449395 0.05227437 5.9803373e-05 0.027158586 0.022444196
-0.054362662 0.033283964 -0.046826687 -0.02171366 0.046411067 0.032053113 -0.056439422 0.02169556
0.007768097 0.04906609 0.035150588 -0.03193974 -0.05797872 -0.030290266 -0.042544894 -0.01305936
-0.04377401 -0.04315543 -0.054973185 0.027849168 0.03686665 0.046727188 0.00016034464 -0.0078340545
0.055969227 0.057269372 0.0046901745 0.0007676102 0.054939162 -0.041027393 -0.02148956 0.038464963
-0.0061068237 0.061855473 0.048737504 0.048033923 -0.044715088 -0.0029450906 0.029711343 -0.029687542
-0.030100126 -0.06228643 -0.06211896 0.008773133 -0.018210087 -0.033608027 -0.05628115 0.022113482
0.040311627 0.0137250805 -0.039645456 0.056048926 -0.0024805516 -0.053497717 0.05962625 0.047666103
0.02198171 0.04211136 -0.01638622 -0.030379897 0.041442756 -0.016334716 -0.017137833 0.013136409
-0.049533427 0.02105008 0.00629621 -0.02277168 -0.025588479 -0.034501165 -0.06275868 0.032597624
00000000: 0c66 bebc c627 543b e0df bcbc 3a07 8ebc
00000010: 0ee0 4a3c 8b25 6abc 56c3 3d3d 37d5 723c
00000020: 213b 2e3d 4f60 7b3d 478c fe3a 8346 3cbc
00000030: d516 063d 378e 33bc 4c04 6cbd 68a8 83bc
00000040: 1ce0 ca3c ecac 05bd ba88 4dbd 3dc0 f4bc
00000050: 7a3e 3ebd 4ece 8d39 b02c 26bd 92e2 a43c
00000060: 60ea 553b a2cb a33c 3d70 df3c 5a17 32bc
00000070: 59b8 363d 1d6c 673d 1667 35bd 7540 573d
00000080: 8f7f 19bd ffc6 0c3d ee14 21bd fefd 19bd
00000090: 9bdd 3dbd db23 3fba 9c96 a2bb b757 4c3c
000000a0: 6cc6 67bd db06 033d f801 273d ddeb e83c
000000b0: 3a4e d3ba 7733 1fbd 70a5 523c 15c9 a83c
000000c0: 2487 263d 4ddc 28bd af55 733d 7ad4 4ebd
000000d0: 26a0 013d 1d33 72bd c21a 18bd 252b 013d
000000e0: 72df 04bd ca1f 83bc 4db6 e53a dd14 183c
000000f0: e102 aebc 2fcd 61bd db87 673d 6361 3f3d
00000100: 1c4c 1bbd fbf4 adbb 22e9 8cba 6753 e8bc
00000110: 9c96 fbbc e378 ff3c 520f 38b9 b7de 31bd
00000120: c166 83bc 4fbb 0bbd ae50 b9bc 18a7 6ebc
00000130: f92b 4b3d 3fbe 2ebd 281a 53bd 7653 793d
00000140: ece3 473b b074 6f3d 1d73 673d f97c 34bd
00000150: a3e3 1a3d 8040 893c 89d8 1a3d 92cd 4bbd
00000160: 6b01 b33c 3b0f 533d f31d 76bd 67b2 6d3a
00000170: 25ee 07bd 54b0 65bd 7ca4 043d 1bf0 9cbc
00000180: e459 1fbd ed86 793c 7e8b d1bc 1d36 ccbc
00000190: 5ee8 82bb 9880 1ebd edf7 933b 2c3f a43b
000001a0: 75f4 19bd c140 4dbd fa8a 783d 218d 32bc
000001b0: 7501 51bd 244d 503d 9aa3 46bd f87a 9ebb
000001c0: 01c7 7cbd 465e 593d f9d2 653b 5066 de3b
000001d0: a5b5 68bd 0ebc 6fbd 5d22 f23c 27ca ebbc
000001e0: 8ff7 0bbd 775e 18bd 2535 293d 19dd 15bd
000001f0: 9227 18bd 93ba 77bd 1191 5abd 190c d5bc
00000200: 742b a0bc 9d36 34ba db90 083b d318 c73c
00000210: 3e67 3a3d 0383 6ebc 1f41 96bc 3051 fb3c
00000220: ed7a 6d3d 2059 58bd e05c 5d3d 0de3 26bc
00000230: 3634 2ebd 9f72 59bb 66cb 4e3c 5e60 2fbb
00000240: fcb2 0dbd f798 6a3d eb69 c8bb 12f3 493d
00000250: 07c5 66bd cdce 54bd bbf2 ee3c d3fe 22bd
00000260: f0da f73b 0a47 19bc d010 733c 7710 393c
00000270: 58ea 293d 7c55 adbc e23b f6ba 8aae 3e3d
00000280: c401 573d 57c8 223c 9c2a 1bbd 9157 66bd
00000290: b3d8 973c 498b 083c 9430 023d 5ae5 40bd
000002a0: b0a5 6fbc ee5d 3cbd 5a7b 473d c0aa 073c
000002b0: f060 c13c c25a a2bc 8507 85bc fa0f 59bc
000002c0: c56b 153d 7210 d63c 763b 9f3c 9d8e deb9
000002d0: a61d 563d 62d5 7a38 af7b de3c e4dc b73c
000002e0: 62ab 5ebd c454 083d 57cd 3fbd d8e0 b1bc
000002f0: 8819 3e3d 204a 033d 062d 67bd e3ba b13c
00000300: 858b fe3b 86f9 483d 10fa 0f3d 3fd3 02bd
00000310: 187b 6dbd 4b23 f8bc 8e43 2ebd edf6 55bc
00000320: 604c 33bd c0c3 30bd 902b 61bd f023 e43c
00000330: 7c01 173d 0265 3f3d 3022 2839 685a 00bc
00000340: fd3f 653d 4a93 6a3d 09b0 993b 7339 493a
00000350: e307 613d 570c 28bd e00a b0bc 708d 1d3d
00000360: c01b c8bb 2a5c 7d3d faa0 473d 38bf 443d
00000370: 2b27 37bd 6c02 41bb 3465 f33c 4a33 f3bc
00000380: 8a94 f6bc 0e20 7fbd 7370 7ebd 30bd 0f3c
00000390: 522d 95bc 92a8 09bd 1087 66bd 5527 b53c
000003a0: ce1d 253d 29df 603c 4663 22bd 8f93 653d
000003b0: c090 22bb 6c20 5bbd a83a 743d 883d 433d
000003c0: fd12 b43c f67c 2c3d 653c 86bc 43df f8bc
000003d0: e1bf 293d 62d0 85bc a464 8cbc 183a 573c
000003e0: 90e3 4abd 3871 ac3c 7050 ce3b ad8b babc
000003f0: ee9e d1bc 1851 0dbd 9f87 80bd 1685 053d

bias f4 [256]
0.03404222 0.05522332 -0.03366398 -0.03467408 0.012563981 0.05967406 0.014446581 0.027701277
0.006225784 0.04468916 0.04691223 0.027357802 -0.055222243 -0.036834374 -0.034462128 -0.029544363
-0.03482327 -0.00027173889 -0.00819096 -0.030627824 0.0055708815 -0.00586682 -0.0059573664 -0.00014293633
0.055723332 -0.0050367927 -0.0040863296 -0.023225429 0.023374857 0.040578157 0.028205654 0.00595954
-0.04651589 0.059480947 0.015158966 0.013536138 -0.025032826 0.016734095 0.057867188 0.045705818
-0.037821114 0.032817338 -0.008511692 0.055064525 0.057009216 0.021671321 0.02840042 -0.019477177
0.045901205 0.013861011 0.0544961 -0.0013739454 0.0438698 -0.053402603 0.010045114 0.036781013
-0.04125832 0.014517745 -0.009385258 -0.03192079 0.02052771 0.023054777 0.018069463 -0.04626469
-0.04998055 -0.05094652 -0.023150055 -0.0016163096 -0.03967566 -0.04101206 0.0070735663 -0.0017514965
0.021999516 0.036018856 -0.0020838697 0.06119823 -0.0034585658 0.013918264 -0.012290426 -0.03610475
0.032681484 -0.035034716 -0.014218748 -0.018146968 -0.04347847 -0.039779514 -0.029858314 0.020658255
-0.0002194212 0.007898736 0.05577098 0.014361818 -0.050952204 -0.0049775327 -0.048064504 0.06027001
0.00980628 -0.025826694 0.058662616 -0.026022999 -0.04186371 -0.04959432 -0.01727344 0.017667318
-0.0335649 0.022988833 -0.029766813 -0.018649638 0.024054697 -0.061967995 0.035351407 0.04197887
0.03435629 -0.017881177 -0.02704258 0.060842425 0.019126613 -0.033716053 0.03299098 0.04029953
0.05984648 0.05455067 0.003951519 -0.014873261 0.05979211 0.028574111 -0.017621633 -0.0326661
0.033935625 0.063669905 0.000969109 0.03935489 -0.053317096 0.016152987 -0.0006159246 -0.033651866
-0.05283743 0.04038991 -0.03935554 0.046030667 -0.01625474 -0.0585801 0.047439996 0.061111167
-0.04008744 0.039317712 0.023724008 -0.054230846 -0.036562584 -0.019216212 0.05743807 0.04408245
-0.04495469 0.019857168 -0.027360858 -0.02367183 0.040064756 -0.04042303 0.015628826 0.026109861
-0.026983716 0.010601774 0.016121026 0.037597466 -0.018601399 0.029035388 0.05368511 0.02871204
-0.029534355 0.027116241 0.04261048 -0.023347836 -0.016594857 0.01270925 -0.044076078 -0.012592797
0.049209744 -0.04410128 -0.017785035 -0.005076776 -0.0059893876 0.019203877 0.046056967 0.020326147
-0.020996802 0.007005724 0.005986528 0.024875531 -0.042046487 -0.032223172 0.04448535 -0.019971505
0.010225682 0.033442017 0.021247495 0.029934386 -0.046848416 0.017913971 0.052981522 0.0072994307
-0.05605261 0.004951887 0.011882434 0.0413622 -0.044742353 -0.032166474 -0.010482088 -0.027944755
0.0032799712 0.0005407432 -0.04720129 0.017751686 -0.004875502 -0.0048188795 0.014994014 0.0006918217
-0.039372362 0.051918678 -0.050978564 0.05785005 0.035205256 0.01676 0.05207073 0.042847615
-0.040109083 -0.024949223 0.041179545 -0.049425546 -0.011661587 -0.0054266234 -0.021743841 -0.020982064
1.6046382e-05 0.025805298 -0.029079631 -0.007364832 -0.0054660295 -0.018672293 0.03530713 -0.04376878
-0.002667073 -0.014667736 0.0071943323 -0.032281224 -0.053946465 0.049714237 -0.013627149 0.037481595
-0.05040875 0.018423628 0.04416903 0.001815289 0.047786742 0.034177486 0.043707408 -0.0374063
00000000: db6f 0b3d d931 623d 3ee3 09bd 6806 0ebd
00000010: 28d9 4d3c ca6c 743d 5ab1 6c3c caed e23c
00000020: a901 cc3b fb0b 373d 0a27 403d 781d e03c
00000030: b830 62bd a4df 16bd 2928 0dbd 0507 f2bc
00000040: d8a2 0ebd 2d78 8eb9 6033 06bc 34e7 fabc
00000050: f18b b63b 743e c0bb 0336 c3bb 2ee1 15b9
00000060: 263e 643d ae0b a5bb 9ee6 85bb 4143 bebc
00000070: a17c bf3c 4835 263d 8b0f e73c 3f48 c33b
00000080: 7287 3ebd 4ba2 733d 505d 783c aec6 5d3c
00000090: a411 cdbc f115 893c 2506 6d3d 0636 3b3d
000000a0: 50ea 1abd 796b 063d a074 0bbc 578b 613d
000000b0: 7f82 693d 0e88 b13c ffa7 e83c 9a8e 9fbc
000000c0: e702 3c3d 4b19 633c 4d37 5f3d f515 b4ba
000000d0: d2b0 333d b0bc 5abd 4394 243c b0a7 163d
000000e0: 7cfe 28bd d6db 6d3c a0c4 19bc 60bf 02bd
000000f0: ba29 a83c 5fdd bc3c 6906 943c 0b80 3dbd
00000100: 68b8 4cbd 4cad 50bd 2fa5 bdbc 5ada d3ba
00000110: f282 22bd 43fc 27bd 60c9 e73b 7892 e5ba
00000120: 5438 b43c 8288 133d 8891 08bb ffaa 7a3d
00000130: 1ba9 62bb 6e09 643c c85d 49bc 93e2 13bd
00000140: 05dd 053d 9080 0fbd c0f5 68bc f3a8 94bc
00000150: 7b16 32bd d8ef 22bd 6c99 f4bc 803b a93c
00000160: 6e14 66b9 b369 013c 1c70 643d d54d 6b3c
00000170: 42b3 50bd 921a a3bb 49df 44bd b0dd 763d
00000180: 85aa 203c 8192 d3bc 3648 703d 2f2e d5bc
00000190: 4879 2bbd 6a23 4bbd 0781 8dbc 0dbb 903c
000001a0: 597b 09bd 1453 bc3c 88d9 f3bc 20c7 98bc
000001b0: 5b0e c53c 27d2 7dbd a3cc 103d 09f2 2b3d
000001c0: 2eb9 0c3d 8c7b 92bc 6788 ddbc e835 793d
000001d0: 6aaf 9c3c d819 0abd 8d21 073d 1f11 253d
000001e0: 9521 753d 8670 5f3d be7b 813b faae 73bc
000001f0: 92e8 743d 4114 ea3c 3e5b 90bc e3cc 05bd
00000200: 1500 0b3d 5e65 823d ce0b 7e3a 9832 213d
00000210: 0763 5abd 4553 843c 0076 21ba 8ad6 09bd
00000220: 106c 58bd e46f 253d 4633 21bd a78a 3c3d
00000230: a928 85bc b0f1 6fbd 7150 423d b44f 7a3d
00000240: ba32 24bd 9c0b 213d da58 c23c 2a21 5ebd
00000250: a6c2 15bd 516b 9dbc 2f44 6b3d cd8f 343d
00000260: 6922 38bd 80ab a23c e123 e0bc 6deb c1bc
00000270: f11a 243d 9e92 25bd 0608 803c 59e4 d53c
00000280: f40c ddbc 10b3 2d3c 3e10 843c cdff 193d
00000290: f661 98bc 9fdb ed3c ebe4 5b3d 8335 eb3c
000002a0: 08f2 f1bc e122 de3c 5488 2e3d f643 bfbc
000002b0: f0f1 87bc 753a 503c 1e89 34bd 0552 4ebc
000002c0: 2890 493d 8ba3 34bd ecb1 91bc 155b a6bb
000002d0: a042 c4bb 7351 9d3c 3ba6 3c3d 0583 a63c
000002e0: 7c01 acbc 4690 e53b a32a c43b c5c7 cb3c
000002f0: f038 2cbd 72fc 03bd 4536 363d 489b a3bc
00000300: 9e89 273c 7ffa 083d 3a0f ae3c f538 f53c
00000310: 20e4 3fbd 52c0 923c 2703 593d 1030 ef3b
00000320: 6c97 65bd 7043 a23b 8aae 423c 696b 293d
00000330: c243 37bd fec0 03bd 10bd 2bbc 66ec e4bc
00000340: c9f4 563b a9c0 0d3a 2456 41bd fc6b 913c
00000350: adc2 9fbb b1e7 9dbb 74a9 753c 5e5b 353a
00000360: ea44 21bd aea8 543d e6ce 50bd 2df4 6c3d
00000370: 6333 103d 444c 893c 1e48 553d fb80 2f3d
00000380: 6c49 24bd 5062 ccbc e2ab 283d 7172 4abd
00000390: 3e10 3fbc d1d1 b1bb 2420 b2bc 94e2 abbc
000003a0: 589b 8637 a265 d33c 6838 eebc b054 f1bb
000003b0: 611c b3bb a3f6 98bc 369e 103d e446 33bd
000003c0: 0fca 2ebb f250 70bc 6fbe eb3b 5139 04bd
000003d0: f8f6 5cbd 28a1 4b3d 6844 5fbc 4d86 193d
000003e0: 6879 4ebd 26ed 963c 96ea 343d feee ed3a
000003f0: 08bc 433d b1fd 0b3d 8a06 333d 5937 19bd

weight f4 [128, 256]
0.04049757 0.027928911 0.009593844 0.0064897016 0.039282918 0.0073618963 0.021341793 -0.058180116
0.047035545 0.05751475 -0.058139503 -0.030669667 0.049648218 0.031040661 -0.0062516406 0.04677145
0.038197435 -0.020511568 0.03839109 -0.04537218 -0.03121224 -0.06080789 -0.041183032 -0.05172831
-0.028593197 -0.033652112 0.015298665 -0.045809105 -0.034145847 0.012723871 0.049789436 0.047091283
0.0014699697 -0.028448008 -0.03207346 0.057180718 -0.05816266 -0.051329315 0.011806577 0.03417238
-0.021131925 0.032082163 0.023537233 0.012846366 0.051127464 -0.043253906 0.03613791 0.058712758
-0.0140211955 -0.017509207 0.03148731 -0.044725463 0.024703048 0.060860343 0.0060386434 -0.01417125
0.055536345 -0.0078099594 -0.04313448 -0.024675697 0.01528085 -0.023346394 0.002703756 -0.040477917
-0.058395118 -0.038921706 0.04513233 0.003926873 -0.02449122 0.010767646 0.025674172 0.049019024
0.041490525 -0.045435466 -0.05275438 -0.0468897 0.054450005 0.021213338 -0.04010687 -0.023118533
-0.05448199 -0.006243281 -0.05208434 -0.058019854 -0.021118805 -0.034466818 0.029609777 -0.021865472
0.05080691 -0.017562486 -0.022106387 0.027498 -0.03982787 -0.025832817 -0.052668758 -0.0018402636
0.043269664 0.034706928 0.05341482 0.045637734 -0.050777525 0.057734147 -0.060796477 -0.05586136
-0.031611137 0.012025453 0.021874368 0.025767334 -0.044410445 -0.026838541 -0.0018114075 0.033926867
0.0054285303 0.05407072 0.02904202 0.051108316 0.05586239 -0.019456796 -0.022828318 -0.03120602
0.016061626 0.030808754 0.04980342 0.055934243 -0.019228421 -0.0017328635 -0.0020095035 0.025148302
-0.007180132 -0.039847888 0.060466357 0.010963045 -0.03914427 0.045370296 -0.014821686 0.041901976
-0.04252033 -0.0006057918 -0.014029473 0.030832596 0.008709475 -0.020924456 -0.025976002 0.05475337
-0.028940752 -0.0358638 0.024331458 -0.027403414 0.039844997 0.001022175 -0.009005554 0.018084146
0.02091895 -0.051578023 -0.043401808 -0.02374918 0.055638626 0.048365995 -0.030778341 -0.012765855
0.061593957 -0.045156717 -0.041437075 -0.042936444 -0.041491367 -0.025089458 -0.016566098 -0.045802593
-0.058384076 0.038334787 -0.035595886 -0.035471298 0.05474726 0.06203895 -0.014873251 0.050199196
-0.061718978 0.039545953 0.013438158 0.031444512 0.012365632 0.013345391 0.037779912 0.057040505
-0.018975168 -0.029995605 0.032791115 0.031155415 0.02407179 0.041018173 -0.008640952 0.026139528
-0.035597637 0.059980005 -0.032473452 -0.035337433 -0.008894548 -0.0047218353 -0.024200924 -0.050384693
-0.041139506 -0.04796107 0.03959828 0.060775414 -0.019250534 0.05020865 0.03777224 0.008270897
-0.05513282 -0.059986092 0.05034496 -0.007342845 -0.06116555 0.034516193 -0.044881545 -0.044339105
-0.048220165 0.03194832 0.04109458 -0.045935787 -0.0073090345 -0.031402677 -0.0419543 0.014698796
-0.049886443 0.051425807 -0.00027202815 0.030358687 0.042280063 -0.033032894 -0.058525637 -0.0442515
0.052731805 0.059913866 -0.035812505 -0.0319713 -0.008359939 -0.020512357 -0.059571363 0.046062887
-0.017963335 -0.03704012 -0.05917091 0.007974938 -0.015919544 0.06029568 0.02640342 0.04970149
0.056097597 0.03870161 0.0459814 0.004704632 -0.021292098 0.024227276 0.048041485 -0.060511187
00000000: c8e0 253d 2ccb e43c 802f 1d3c 90a7 d43b
00000010: 20e7 203d 103c f13b fcd4 ae3c 464e 6ebd
00000020: 58a8 403d 9694 6b3d b023 6ebd f43e fbbc
00000030: ee5b 4b3d fc48 fe3c 90da ccbb 6c93 3f3d
00000040: ea74 1c3d e007 a8bc fa3f 1d3d 2ed8 39bd
00000050: d0b0 ffbc b211 79bd 8aaf 28bd 10e1 53bd
00000060: 483c eabc ccd6 09bd 40a7 7a3c 54a2 3bbd
00000070: 84dc 0bbd c877 503c 02f0 4b3d cae2 403d
00000080: 00ac c03a cc0b e9bc 765f 03bd 5436 6a3d
00000090: f83b 6ebd b03e 52bd 6070 413c 56f8 0b3d
000000a0: dc1c adbc 9668 033d 28d1 c03c 9079 523c
000000b0: 086b 513d 022b 31bd 5805 143d ca7c 703d
000000c0: 28b9 65bc 786f 8fbc d6f8 003d 0c32 37bd
000000d0: 0c5e ca3c b248 793d d0df c53b 882e 68bc
000000e0: 147a 633d b0ea ffbb c8ad 30bd b024 cabc
000000f0: 885c 7a3c f040 bfbc 8031 313b 2ccc 25bd
00000100: b82f 6fbd 5e6c 1fbd aedc 383d 00ad 803b
00000110: d0a1 c8bc c86a 303c a452 d23c 2cc8 483d
00000120: f8f1 293d 8a1a 3abd fa14 58bd 6a0f 40bd
00000130: f806 5f3d 98c7 ad3c 1a47 24bd 1463 bdbc
00000140: 8228 5fbd 7094 ccbb 6456 55bd 3aa6 6dbd
00000150: 5801 adbc 142d 0dbd 3490 f23c 381f b3bc
00000160: e81a 503d 34df 8fbc 7418 b5bc 7c43 e13c
00000170: 8c22 23bd 589f d3bc 32bb 57bd 0035 f1ba
00000180: 883b 313d da28 0e3d 80c9 5a3d a2ee 3a3d
00000190: 18fc 4fbd a47a 6c3d ba05 79bd e2ce 64bd
000001a0: ae7a 01bd 6806 453c e031 b33c 0416 d33c
000001b0: bae7 35bd 80dc dbbc c06c edba e6f6 0a3d
000001c0: d0e1 b13b 4279 5d3d 88e9 ed3c f456 513d
000001d0: f6cf 643d dc63 9fbc 7402 bbbc c4a3 ffbc
000001e0: ac93 833c a462 fc3c acfe 4b3d 4e1b 653d
000001f0: ec84 9dbc 4021 e3ba e0b1 03bb d003 ce3c
00000200: 5047 ebbb 8a37 23bd 92ab 773d 589e 333c
00000210: be55 20bd 34d6 393d a8d6 72bc 68a1 2b3d
00000220: cc29 2ebd 00ce 1eba e0db 65bc a494 fc3c
00000230: 30b2 0e3c c469 abbc a0cb d4bc 1245 603d
00000240: 2815 edbc ece5 12bd c452 c73c 207d e0bc
00000250: 8234 233d 80fa 853a 088c 13bc 3425 943c
00000260: 385e ab3c 7a43 53bd 18c6 31bd a48d c2bc
00000270: 54e5 633d 6c1b 463d dc22 fcbc e027 51bc
00000280: f249 7c3d 40f6 38bd ecb9 29bd 20de 2fbd
00000290: daf2 29bd 6888 cdbc a0b5 87bc 809b 3bbd
000002a0: 2424 6fbd f004 1d3d fecc 11bd 5a4a 11bd
000002b0: aa3e 603d 8e1c 7e3d f0ae 73bc ac9d 4d3d
000002c0: 0acd 7cbd f0fa 213d b82b 5c3c f6cb 003d
000002d0: 3899 4a3c a0a6 5a3c 1cbf 1a3d 4ea3 693d
000002e0: d071 9bbc 58b9 f5bc fa4f 063d a439 ff3c
000002f0: 3432 c53c ac02 283d c892 0dbc 9022 d63c
00000300: d4ce 11bd 98ad 753d e202 05bd fcbd 10bd
00000310: 70ba 11bc a0b9 9abb 0441 c6bc 2e60 4ebd
00000320: e681 28bd d472 44bd ce31 223d a4ef 783d
00000330: 4cb3 9dbc 96a7 4d3d 10b7 1a3d a882 073c
00000340: f4d2 61bd fab3 75bd 8436 4e3d 409c f0bb
00000350: ba88 7abd da60 0d3d b6d5 37bd ec9c 35bd
00000360: 8282 45bd 3edc 023d ca52 283d 2a27 3cbd
00000370: a080 efbb 18a0 00bd 46d8 2bbd 38d3 703c
00000380: ba55 4cbd dea3 523d 009f 8eb9 c8b2 f83c
00000390: dc2d 2d3d 804d 07bd 94b8 6fbd 1041 35bd
000003a0: 4efd 573d 3e68 753d 22b0 12bd 56f4 02bd
000003b0: 20f8 08bc 8809 a8bc 1a01 74bd 70ac 3c3d
000003c0: d827 93bc 62b7 17bd 325d 72bd 50a9 023c
000003d0: b469 82bc 9af8 763d fc4b d83c ca93 4b3d
000003e0: 98c6 653d 9485 1e3d fe56 3c3d 5029 9a3b
000003f0: c46c aebc 4878 c63c 26c7 443d 94da 77bd

bias f4 [128]
-0.01397264 0.021600401 -0.053976938 -0.056847185 0.05010535 0.047711115 -0.054116093 -0.0034369603
0.03368305 -0.053856067 -0.03929314 -0.011726614 0.016789978 -0.052064776 0.028973375 -0.061031967
0.018000022 0.047961745 -0.018871315 0.06015158 0.026312577 0.034565248 0.012789495 0.022768728
0.041131165 -0.022173755 0.008896563 0.054120503 0.018040871 -0.040357962 0.037152387 0.05974061
0.013583096 -0.018167634 -0.027041622 -0.012430601 -0.0109175965 0.0058500543 -0.05015488 0.019700993
0.0068526193 -0.012685806 -0.014480203 0.04866439 -0.03220278 -0.024529397 0.049812645 -0.054391816
0.040527996 -0.03569723 -0.01804573 -0.053106077 -0.040743463 -0.057632916 0.03122143 0.03321073
0.042037226 0.029427677 0.019417226 0.023519304 -0.03253928 -0.06008806 -0.0023298785 -0.06245873
-0.004228363 0.06164989 0.03767281 0.04477584 -0.04696387 0.054357722 -0.021744736 -0.019793125
0.013290308 0.033975396 -0.062279932 0.00959313 0.023947537 0.036224045 -0.014624961 0.019840466
0.05558086 0.036247715 -0.024668418 -0.060676172 -0.0033781305 0.02058503 0.04621898 0.044921633
-0.06232024 -0.010783243 -0.0011440301 -0.024383962 0.061801314 0.05627606 -0.061902992 -0.04273646
0.054629974 0.04588708 -0.04191658 0.028861094 -0.038355254 -0.0025790734 -0.0016455352 0.05191794
-0.026880361 0.045918908 0.053955957 -0.04461298 0.05040489 -0.0616669 0.034799322 0.012810954
-0.03799051 -0.029402003 0.065437414 -0.021213032 0.0017402803 0.053364735 -0.04154872 -0.057336695
-0.055075817 -0.014456913 0.014402948 0.014599158 -0.0060863867 -0.057055525 0.046638783 0.05167423
00000000: 80ed 64bc 53f3 b03c ec16 5dbd 98d8 68bd
00000010: 443b 4d3d bb6c 433d d6a8 5dbd a03e 61bb
00000020: 3df7 093d 2e98 5cbd d8f1 20bd fc20 40bc
00000030: 238b 893c e041 55bd 9259 ed3c a8fc 79bd
00000040: c874 933c 8973 443d 0498 9abc 8161 763d
00000050: 798d d73c 4a94 0d3d 088b 513c 7c85 ba3c
00000060: 2779 283d bca5 b5bc e4c2 113c 76ad 5d3d
00000070: 73ca 933c 644e 25bd 1a2d 183d 92b2 743d
00000080: a28b 5e3c 4ad4 94bc 6486 ddbc b8a9 4bbc
00000090: b8df 32bc d0b1 bf3b 346f 4dbd fa63 a13c
000000a0: f08b e03b 20d8 4fbc 603e 6dbc 5054 473d
000000b0: 10e7 03bd e0f1 c8bc 5808 4c3d f4c9 5ebd
000000c0: af00 263d 4237 12bd a4d4 93bc c285 59bd
000000d0: 9ee2 26bd 7e10 6cbd 16c4 ff3c f907 083d
000000e0: 3a2f 2c3d 5012 f13c e010 9f3c 8eab c03c
000000f0: e847 05bd e61e 76bd e0b0 18bb bad4 7fbd
00000100: 148e 8abb 9884 7c3d ce4e 1a3d df66 373d
00000110: 305d 40bd 34a6 5e3d 0422 b2bc 3125 a2bc
00000120: 98bf 593c c929 0b3d 3e19 7fbd 812c 1d3c
00000130: a02d c43c aa5f 143d 889d 6fbc 7988 a23c
00000140: c1a8 633d 7c78 143d 6c15 cabc 9487 78bd
00000150: a063 5dbb f0a1 a83c 1d50 3d3d bfff 373d
00000160: 8243 7fbd 33ac 30bc 48f3 95ba e0c0 c7bc
00000170: 6023 7d3d ba81 663d fe8d 7dbd 6d0c 2fbd
00000180: aec3 5f3d 17f4 3b3d b8b0 2bbd 1a6e ec3c
00000190: 661a 1dbd ac05 29bb 00af d7ba e8a7 543d
000001a0: 3434 dcbc 7715 3c3d ec00 5d3d 1abc 36bd
000001b0: 5c75 4e3d 6e96 7cbd bc89 0e3d 09e5 513c
000001c0: f09b 1bbd 78dc f0bc 0d04 863d f4c6 adbc
000001d0: 1e1a e43a fb94 5a3d fe2e 2abd e2d9 6abd
000001e0: 2e97 61bd b0dc 6cbc 58fa 6b3c 4f31 6f3c
000001f0: 5070 c7bb 0eb3 69bd 4f08 3f3d 5ba8 533d
