Partha's CNN/MNIST.pth (torch, 181447 bytes, 10 tensors)

weight f4 [6, 1, 5, 5]
00000000: e7b8 9b3c 1ce9 05bd 077f 533e 0008 7f3e
00000010: 720e 9abd 110d c33d 7a22 61bd f012 273e
00000020: 0e23 cfbd d3fe 6d3d 570c 14be 5c0e 05be
00000030: 8c7d 443c 4fba fc3d 3dcb 633e 11ff 96bd
00000040: 69db c0bd e3be 44be 9da9 ef3d 437f 2cbe
00000050: 6e5b 03bd 6a0c 9dbc 6c81 03be c7d9 e1bb
00000060: 52b4 dcbd 3ee9 223b b980 773e cb69 103e
00000070: c4ba 9abd 8fc4 313e e2a8 93bd e7f4 dc3d
00000080: 31ef 9e3e ddb3 093e 87dc fd3d cb4d 353e
00000090: 1463 923e 3fe1 2c3e 2f07 d63e 2c69 b73e
000000a0: 0eb4 0fbd 84fd a73e aa5d 9c3e 4e79 bb3e
000000b0: e949 cc3e 85ee 29be e842 3abd 1ac0 753e
000000c0: e5f7 a4bb 647f a03e 3685 ad3e b498 c03e
000000d0: 0ecf 0b3e db46 c13e ac17 883e 2573 c53e
000000e0: 46e3 833e 44b4 b03e e596 003e a206 a83d
000000f0: a008 e53e c74c 753e f721 853e 6605 d53e
00000100: 1161 2f3e 0731 b93e 3b65 703e 0625 fd3e
00000110: fc7c 7c3e ce73 ab3e 08b2 233e 0cb5 3e3e
00000120: ac66 963e b8f0 e13d 83f8 bb3e f1d5 1abe
00000130: 336c 0abe 0b93 933b 018c 13bb aa3a 833d
00000140: bacf a23d 94da 333e d92e 173d 69a2 1d3e
00000150: d40d dbbd 3e32 d7bd 9d9f 33be 68fd f1bd
00000160: 988b f53d 58d6 81bd 531d 86bd c68e f5bd
00000170: d3f0 f6bd a916 103e 43ef d0bc f110 de38
00000180: b6e8 b73c 16c4 c0bc 4991 203e 064a 643e
00000190: ed00 97bd fa44 463e 5928 de3d 251f 10be
000001a0: 3748 c33d 9b19 503e 7bb5 8abd 3242 153d
000001b0: f50e f6bd e030 eebd 4a20 c93d 3a4f 97bb
000001c0: ee7a b03d 08bb 5cbd 485a 0dbe bac4 013d
000001d0: 22e1 17be 001f a9bd fbdf f13d 2684 323d
000001e0: eb01 04be aa15 04be b1d1 603d e10a 84bd
000001f0: e652 0b3e ef23 733e 62c6 333c 31d0 823d
00000200: 93e0 723e 48f5 aa3c 61db 453e 318c 983e
00000210: 9864 a73e 5037 133e 9fba 713e 443c b63e
00000220: 8f89 a13e ea4e be3e 03b6 8bbd b21e abbd
00000230: e0a1 663e e827 653d 09bf 7a3e e659 323e
00000240: e593 c33d debb 903e 8213 e23d 3bbc 2c3e
00000250: 119b 603e 3d95 7d3d
0.019009067 -0.032693014 0.20653926 0.24905396 -0.075222865 0.095239766 -0.05496452 0.16315818
-0.10114108 0.058104347 -0.14457832 -0.12993759 0.011992823 0.12340223 0.22245498 -0.07372869
-0.09416849 -0.19213443 0.11702273 -0.16845421 -0.032069616 -0.019170959 -0.1284234 -0.006892416
-0.10776581 0.0024858261 0.24170198 0.14102857 -0.07555154 0.17360137 -0.07209946 0.10788899
0.31041864 0.13447519 0.12395578 0.17705457 0.28591216 0.168828 0.41802356 0.35822427
-0.035083823 0.32810605 0.3054021 0.36615986 0.3990014 -0.16594894 -0.045473963 0.23999062
-0.005034434 0.3134719 0.33890694 0.37616503 0.13653204 0.3774937 0.2658056 0.3856441
0.25759333 0.34512532 0.12557562 0.0820439 0.44733143 0.2395507 0.26002476 0.4160568
0.17126872 0.36170217 0.23476116 0.4944231 0.24657053 0.3348679 0.15985882 0.18623751
0.29375207 0.110322416 0.36713037 -0.15120675 -0.13517837 0.004503613 -0.0022513869 0.06407674
0.07949777 0.1756385 0.03690991 0.15393986 -0.10695997 -0.1050763 -0.17541356 -0.118159115
0.11989516 -0.06339711 -0.06548562 -0.119901225 -0.12057652 0.14071144 -0.025504714 0.000105889405
0.022449832 -0.023531001 0.15680422 0.22293863 -0.073732235 0.1936225 0.108475395 -0.1407438
0.09535258 0.20322268 -0.06772896 0.036440082 -0.120145716 -0.11630416 0.09820612 -0.004617599
0.08617197 -0.053889304 -0.13803971 0.031681754 -0.14831975 -0.08257866 0.11810299 0.043583058
-0.12891357 -0.12898889 0.054887477 -0.064473875 0.13605842 0.23744176 0.010972591 0.063873656
0.23718481 0.020868912 0.19321968 0.29794458 0.32693934 0.14376569 0.23606347 0.35592854
0.3155026 0.37169582 -0.06821825 -0.08355464 0.22522688 0.05594626 0.24486937 0.17417106
0.09549693 0.2826833 0.11038877 0.16868679 0.21934153 0.061909903

bias f4 [6]
00000000: 6771 30bd c03f 2d36 34db 853e 7203 7cbd
00000010: dd7c abbd 6a3d cb37
-0.0430769 2.5816116e-06 0.261438 -0.061526723 -0.08373425 2.4228084e-05

weight f4 [16, 6, 5, 5]
00000000: aee5 8d3d bca2 21bd 2990 2fbd 47a4 84bd
00000010: b197 8fbd 1df3 86bd ad9e 863d 0819 283d
00000020: 85b3 d83c e594 713d f1a8 8d3d 1455 aabd
00000030: a465 86bd be82 71bd 6686 de3c df16 5e3c
00000040: a3e1 213b e4c8 e1bc ad13 c3bc b5b8 09bd
00000050: 6714 4dbb 81f9 8bbd be73 fc3b 5779 263d
00000060: 97f9 99bb 5acc 9a3d cd5d 713c 91ca 8d3d
00000070: dced adbc bb38 843d cdec 0dbc 4261 cf3d
00000080: 7265 ec3c 2d29 bcbd 11f5 4c3d 1c98 b53d
00000090: cbeb 683d db89 e0bd 5a7d 85bd eade b8bd
000000a0: 6806 f93b 1fc7 23bd 7da6 c8bd 3f73 d0bd
000000b0: 6db5 94bd cade b93d 2b65 d43d 4422 2b3d
000000c0: c7a2 17bc e533 47bd b7bc ff3c 4028 003c
000000d0: 809b c73d 93aa 0f3e e10e bc3d 34d3 3b3d
000000e0: ee72 c93d 0ae7 e8bc 7d3f bc3d fba7 2ebd
000000f0: 3428 8c3c 1d0b 053e 745a 2dbc 2b92 0ebc
00000100: 7258 653c 6072 183e 2e89 0c3d 9928 c6bd
00000110: e01f e8bc d424 a9bc eeec 033e bd3d c23c
00000120: e9e4 a13d f08e b8bd 67de 48bd b3ac c33c
00000130: bb03 1c3d ac2b ac3c c85a 6f38 89c4 203d
00000140: 1732 81bd 162b 19bd 1ab7 923c 2030 54bd
00000150: 45bf 6cbd d587 aa3d 3478 cdbc cfb5 3a3b
00000160: ff90 aabc 417d 2dbd cd03 ea3c 02c9 6bbc
00000170: 5e54 29bd 59f1 a13d e5f9 033d ca77 73bd
00000180: 5985 453d 2927 753c 05b7 be3c 68f5 5f3c
00000190: 627a 5b3c e756 95bd 1953 adbd ac94 2ebc
000001a0: f4e4 32bd 77f2 833d 0761 a1bd 5938 2abd
000001b0: 766d 703b 476e 10bd 507d 893c bcd5 223d
000001c0: 6312 163d 6ac4 35bd 02a9 983c 27f8 febc
000001d0: eb3f 82bc a496 68bc 5777 d2bc 7296 24bd
000001e0: ae55 1a3d d249 843d 0c94 ba3c 79d5 07bd
000001f0: 4d21 a4bd ac18 84bd 770c 093d 9b13 b5b9
00000200: 0b70 dd3d 777b cebb 1040 88bd 6630 833d
00000210: 2a70 3c3d e77c 1dbd 317c bcbd 337e 33bd
00000220: e241 dd3d 0d30 e1ba 8ee0 c7bd 43ed 31bd
00000230: e9d7 ee3d a1ad fa3d 6581 4cbd 7bc5 d4bd
00000240: 49ac bdbc a347 6abc 4025 863c 750f 353d
00000250: 27c0 b2bd 0466 7c3c 37a9 dabc ee53 a4bd
00000260: 7daa abbd 3723 69bd 03d1 2a3c 0af7 acbd
00000270: 8a56 463d e196 093d a5b1 92bd 8fb8 a33c
00000280: 27f7 ffbc bcac 80bd 801c ac3c 9d62 03b9
00000290: 62b0 573d 53c9 3b3d 3867 9d3c 6bdf 963d
000002a0: b4ea efbc fe4c 7d3d 0343 5dbd cdbb c53d
000002b0: 25df 6a3c 992f b0bb b7b0 d0bc feb7 373d
000002c0: 3a73 59bd dd30 e93d 99a8 b13d 5ba7 4dbd
000002d0: 1a08 67bd f364 89bc e71f 873d 3a04 36ba
000002e0: 341b 893b 74e3 823d bc20 d93d 95ba 5b3e
000002f0: ddd2 b43d 32b3 1dbd 5a44 3a3d 945f fa3d
00000300: 08c1 113e a768 df3d 320c 98bc 9ec3 dcbd
00000310: c057 323d ccd1 c13d c454 4c3d ed50 393c
00000320: d792 833d a0e9 5b3d 9413 dd3d 678c 173e
00000330: b273 7b3d adb1 4c3d fffa 503d f3cf d63d
00000340: 3dea 2d3e e9ce 9f3d 5175 1bbd b0e8 133e
00000350: 498d 4b3e e5f9 403e 03b6 9e3d 2e2e 06bd
00000360: 6ed6 653d b96f 533e d776 2f3e 6692 423d
00000370: 625f 3f3c d92e f03d 5484 243e 16b7 8d3d
00000380: b3b0 aabd 597f 75bb 1413 dabc 659c 933d
00000390: 7e88 a63d 301e 8dbd 6911 683d 2f18 b33d
000003a0: 0897 2ebd 1000 a93d fe20 943c d691 1b3d
000003b0: 83e9 a03c 610f 52bd 83d8 a23c b496 0a3d
000003c0: fe34 8cbd eee5 48bd e459 213d 1e05 3e3d
000003d0: 85bd 2fbd cb8f 56bb dcfd 0abd d28c 553d
000003e0: 6439 2ebd d1b8 debc c27c 18bd 953b 353d
000003f0: cd97 5cbc 6140 0a3d dc5e 483b f79c 41bd
0.069285735 -0.039461836 -0.04286209 -0.06476646 -0.07011355 -0.06589339 0.06573234 0.041039497
0.02645279 0.058979888 0.06916989 -0.083170086 -0.06562355 -0.058962576 0.027163696 0.013555258
0.002470114 -0.027561612 -0.023813093 -0.033623416 -0.0031292678 -0.068346985 0.007704227 0.040643062
-0.004698943 0.07558508 0.0147318365 0.06923402 -0.021231584 0.06456133 -0.008662415 0.10125972
0.028856967 -0.09187541 0.0500384 0.08866903 0.056865495 -0.10963794 -0.065180495 -0.090268925
0.0075996406 -0.03998482 -0.0979738 -0.101782314 -0.07261167 0.09075697 0.10370859 0.041780725
-0.009255118 -0.048633475 0.031217916 0.007822096 0.09746456 0.14029913 0.091825254 0.045855716
0.09836374 -0.02843048 0.09191797 -0.042640667 0.017109014 0.1299252 -0.010580648 -0.008701841
0.013998138 0.1488738 0.034310512 -0.09675712 -0.028335512 -0.020647444 0.1288335 0.02371108
0.07904989 -0.09011638 -0.049040224 0.02388606 0.038089495 0.021016918 5.7066587e-05 0.03924993
-0.06308382 -0.037394606 0.017909575 -0.051803708 -0.057799596 0.08326689 -0.025081731 0.0028489714
-0.020821093 -0.04235578 0.028566265 -0.014391186 -0.041340224 0.079073615 0.03222074 -0.05944041
0.048222873 0.01496295 0.02328063 0.013669349 0.013395878 -0.07291966 -0.08463115 -0.010655563
-0.043675378 0.06442731 -0.078798346 -0.041557644 0.0036686338 -0.03526142 0.016783386 0.039754614
0.03663863 -0.04437677 0.018635277 -0.031124188 -0.01589962 -0.014196072 -0.025691671 -0.04018254
0.037679367 0.064593926 0.022775672 -0.033162568 -0.08014164 -0.06450018 0.033459153 -0.00034537617
0.10812386 -0.0063013393 -0.06652844 0.06405716 0.046005405 -0.038449194 -0.09203375 -0.043821525
0.10803582 -0.0017180458 -0.09759627 -0.04343916 0.11662275 0.12240148 -0.049928088 -0.10389229
-0.023153441 -0.014299306 0.016375184 0.044204194 -0.087280564 0.015405182 -0.026692016 -0.08023821
-0.083821274 -0.05691835 0.010425809 -0.084455565 0.048422374 0.033591155 -0.07162789 0.019985465
-0.031245781 -0.062829465 0.021009684 -0.0001252987 0.052658446 0.045846295 0.019214258 0.07366832
-0.02928672 0.061841004 -0.054018985 0.09654961 0.014335428 -0.005376768 -0.02547489 0.044853203
-0.053088404 0.11386273 0.086747356 -0.05020843 -0.05640421 -0.01677177 0.06597882 -0.0006943379
0.004184151 0.063910395 0.10601947 0.21457894 0.088292815 -0.038500972 0.04547534 0.12225261
0.14233792 0.10908633 -0.018560503 -0.107794985 0.043540716 0.09463844 0.049885526 0.011310798
0.06424492 0.0536896 0.1079475 0.14799653 0.061389633 0.049974132 0.05102062 0.10488882
0.16983886 0.07803137 -0.03795368 0.14444232 0.19878115 0.18845327 0.0774956 -0.032758884
0.0561127 0.20648088 0.17135178 0.047502898 0.011680456 0.117276855 0.16066104 0.069196865
-0.08334484 -0.0037459938 -0.026620425 0.07207564 0.081315026 -0.068905234 0.05665723 0.08744847
-0.042624503 0.08251965 0.018082138 0.037980877 0.019642597 -0.051284198 0.019878631 0.033835128
-0.06846045 -0.049047403 0.039392367 0.0463916 -0.04290535 -0.0032739516 -0.033933505 0.05213625
-0.0425352 -0.027187737 -0.037228353 0.044246275 -0.0134639265 0.033752803 0.0030574119 -0.047268834

bias f4 [16]
00000000: 49dd 6e3d 6c1a 32bd 8fde 273d 071e 55bc
00000010: 2a1b 7dbc d7b1 7b3c 93d9 1dbd 225e 6ebd
00000020: 31f8 403d 4729 8ebd 5899 d63d d670 aa3d
00000030: 4f5b 36bc 8403 25bd 7ee7 62bd 553e eebc
0.058316503 -0.04348223 0.040983733 -0.013007647 -0.015448371 0.015362225 -0.038537573 -0.05819524
0.047111694 -0.06941467 0.10478467 0.08322303 -0.011130168 -0.040286556 -0.05539655 -0.029082457

weight f4 [128, 256]
00000000: d380 4abd b232 f8bc 1788 8d3c 3cd8 2bbc
00000010: f01a 7cbb 5dfa 34bd 0224 b1bc cdc1 8c3d
00000020: 182e d73c 4941 873c a256 803d 79cd 5b3d
00000030: d4e8 2bbd 0f5f efbb 96d7 58bb d037 d1bc
00000040: 10a1 3d3d 7ae8 19bd 7094 763d be47 0b3d
00000050: 6809 debb 26a7 e63c 3ecc fe3c 89d0 d7ba
00000060: 4213 2f3d 733a d23c 8c49 95bc 6d5e 9e3b
00000070: 9757 21bd e6df 413d dda0 be3c c7d4 993d
00000080: 9c06 863c 657f 3fbd a731 223d cd3d 0f3d
00000090: 11a9 6b3d 7070 a93c e366 7d3c 3f47 16bd
000000a0: 43c9 19bd fd1f 193d 5505 47bd 9156 813d
000000b0: 20f8 ef3b e207 ed3c be9a c13b 984e ca3b
000000c0: 02bd 24bc e78d f23c 1e75 3a3d ec72 8cbd
000000d0: e07f 263d 5c26 80bc 0059 53bd 3a58 1abd
000000e0: 6df8 c2bb 8c73 003c c594 a5bb 52fe 693a
000000f0: 5ad6 24bd ceed b0bc d831 3abd ba14 9a3d
00000100: e50b 3b3b c901 073d 5464 ae3c 0840 3fbd
00000110: d89c b73c 9ba6 37bd 249e 9ab6 edbd 1fbd
00000120: 0799 1d3d 49ef 11bd 83b4 00bd 3335 29bd
00000130: 5c7c 08bd 5359 55bc 3560 9f3d 2eb8 513c
00000140: 45bf 30bd 999c 65bd 2054 363c cb02 953c
00000150: 53bf bd3c f0f8 eb3c ec1f a73b 97ab 383d
00000160: d581 c3bc 0398 d83c f179 57bd 7395 f63b
00000170: a02f fabb fe7a 423d 618d 23bc 8df9 223d
00000180: 7faa c2bb 0cbf 503d 2111 023d b2ef fdbc
00000190: efea 6a3d e12d 313c a6e5 68bd a487 5d3d
000001a0: 2304 41bd fb29 653d 3412 0bbd 407a 69bd
000001b0: 017b 2d3d 4930 483d 8d8c 443c bcbf 413c
000001c0: 0258 2cbd ffd0 0d3d 494f 923d 423b 273d
000001d0: b4bf 503d 66b2 a83c 63b8 333d fee7 583c
000001e0: 3391 1d3d 209c adba 8206 5e3d a11b 90bb
000001f0: e070 fcbc 6ada 463c 9c51 edbc 96c0 013d
00000200: 7740 1e3d bd75 a03c d710 e7bb 1366 503d
00000210: e8fd a73c e207 073d 9719 3fbd 13a2 303c
00000220: 5f73 dfba ba3c 803d 122b 813d 6700 013d
00000230: 0c67 e2bc 9c8e eabc 9037 753d 32cf 1736
00000240: d82f 023d 53ec 0d3d 9ab5 1fbd f5da f43c
00000250: cc07 413d 211a 00bb 08c5 5dbd e590 1e3d
00000260: 812d 38bd c471 dcbc b854 0a3b 7bd7 663d
00000270: e8b7 59bc 4567 e2bc 9943 c03c 6869 173d
00000280: 160a 6a3d bcc2 a13c 1598 793d 9630 55bd
00000290: 3ae9 733d c898 db3c 84ac 0a3c 45ea 7abd
000002a0: 91bd 12bc 6471 a13d c0b9 9f3c d253 473c
000002b0: f642 843c 3164 f4bc d616 4b3d 0308 693d
000002c0: f114 303d 802a edbc 20f7 66bb 8812 2cbd
000002d0: 00b3 20bd 71fc 72bd 90ff fa3c f59b 6e3d
000002e0: abc1 b43c 49cf 413c ec30 0fbc 78de 5cba
000002f0: a6c2 083d 4a47 4c3d 58fd 59bd 0e4e 23bc
00000300: e1dd 02bc 32ec 17bc f69c 8b3c 5774 0d3d
00000310: c9a4 25bd 5599 3b3d a56b 0fbd 8ba1 06bd
00000320: da1c 493d fdae 1a3d 0d11 523d 6d07 69bd
00000330: bfc1 50bd 6246 18bd 5ebc 143d 4743 a53c
00000340: 5cd8 a13b cc8a 0abd 851e 263c f261 6abd
00000350: c95c 59bd 60e1 513d aec0 fdbc f835 a5bb
00000360: 62a5 8c3c dd02 99bc b5d7 373d 7a7a 5dbd
00000370: 3538 26bd 74bb 8bbb 91cb 6a3d 718b 9e3c
00000380: c68c 05bd 4fa7 c93c 00f5 c53c e672 c6bb
00000390: 7b28 393d 5bba d03b de35 82bc a6b1 993c
000003a0: 162d ac39 70ac 1cbd 2b99 0f3d c6d3 6cbd
000003b0: 4e10 5b3d 4de3 6a3d d4df 21bd 3cd6 1bbd
000003c0: 12ae 193c e9cb a23c 8251 2f3d 48f8 d93c
000003d0: a6a7 0c3a cddc 143d 6c6e b4bc d7d3 87bb
000003e0: df0c d1bc 185a e4bc ae33 603d 2ab6 e7ba
000003f0: 2ed4 f33b 0a0b 193d 197e 283d 6d8f 333d
-0.049439263 -0.03029761 0.017276807 -0.010488566 -0.0038468204 -0.044184078 -0.021623615 0.06872902
0.026267096 0.016510623 0.06266524 0.05366275 -0.04197009 -0.007305033 -0.0033087484 -0.025539309
0.04629618 -0.037575223 0.060200155 0.034003966 -0.0067760237 0.028155874 0.03110325 -0.0016465347
0.042742975 0.025662636 -0.018223546 0.004833034 -0.039390173 0.047332667 0.023270065 0.07511287
0.016360573 -0.046752352 0.039598133 0.034971047 0.05753428 0.020683497 0.015466425 -0.03668904
-0.037545454 0.037384022 -0.04858907 0.06315339 0.00732328 0.028934423 0.0059083393 0.00617392
-0.010054829 0.02960868 0.045521848 -0.06857857 0.040649295 -0.015643291 -0.05159855 -0.037681796
-0.005950025 0.0078400485 -0.005053135 0.00089261413 -0.040243484 -0.02159777 -0.04545769 0.075234845
0.0028541025 0.032960687 0.021288075 -0.046691924 0.022413656 -0.04483662 -4.6079676e-06 -0.038999487
0.038476016 -0.03562859 -0.03142215 -0.0413105 -0.033321723 -0.013021785 0.07782022 0.0128002595
-0.04315116 -0.056057546 0.011128455 0.018189808 0.02316252 0.028805226 0.005100241 0.045085516
-0.02386562 0.026439672 -0.052606527 0.00752514 -0.007635072 0.047480576 -0.009982438 0.03978877
-0.005940735 0.050963446 0.031754617 -0.030998085 0.057352956 0.010814161 -0.056859635 0.054084435
-0.047123086 0.05594824 -0.033952907 -0.057001352 0.042353634 0.048874173 0.011996401 0.011825498
-0.04207612 0.034623142 0.07144029 0.040827997 0.050964072 0.02059288 0.043877017 0.013238905
0.03846855 -0.0013245381 0.054205425 -0.004397825 -0.030815542 0.012137035 -0.028969578 0.031677805
0.038635697 0.019587392 -0.007051568 0.050878596 0.020506814 0.032966502 -0.046655264 0.010780829
-0.0017047933 0.06261583 0.06307043 0.031494524 -0.027637027 -0.028632455 0.05986744 2.2621357e-06
0.03178391 0.034649204 -0.038991548 0.029889563 0.047126576 -0.0019546824 -0.05414298 0.0387124
-0.04496527 -0.026909716 0.0021107625 0.056357842 -0.013288476 -0.027637133 0.023469733 0.036965758
0.057138525 0.019746177 0.060936052 -0.05204829 0.059548594 0.02680625 0.0084639825 -0.061258573
-0.008956329 0.07882956 0.019497752 0.01216598 0.01614521 -0.029832931 0.049582325 0.056892406
0.04298872 -0.02895093 -0.0035242513 -0.04200986 -0.039233208 -0.059322778 0.03063944 0.0582542
0.022065004 0.011829206 -0.008739691 -0.00084254844 0.033388756 0.049872674 -0.053220123 -0.00996734
-0.00798747 -0.009272622 0.017042618 0.03453478 -0.040440354 0.045800526 -0.035014767 -0.032868903
0.04909978 0.037764538 0.051285792 -0.056891847 -0.05096602 -0.037176497 0.036312453 0.020173682
0.004939122 -0.033823773 0.010139112 -0.057222314 -0.053067002 0.051240325 -0.030975666 -0.005041834
0.017168704 -0.018678123 0.04488345 -0.05407188 -0.040580947 -0.0042642895 0.057323042 0.0193536
-0.032604955 0.024615912 0.024164677 -0.0060561774 0.04520462 0.0063698716 -0.015894827 0.018761467
0.00032839988 -0.038250387 0.03505818 -0.05781915 0.053482346 0.057345677 -0.0395201 -0.038046107
0.0093798805 0.019872623 0.04280234 0.026607648 0.0005365558 0.036343385 -0.02202531 -0.0041451263
-0.025518833 -0.027874991 0.054736786 -0.001767819 0.0074410653 0.037364043 0.04113588 0.043837953

bias f4 [128]
00000000: 312a 3c3d d0b4 ea3c 173a 5a3c 5a38 bb3c
00000010: 325d 313d ba4b 9dbc 0391 86bc 7351 7e3c
00000020: cd85 c13b 11c3 393c 518c 52bd a321 9d3b
00000030: 6663 883d 2b34 733b b8fa 46bd 3ad1 6cbd
00000040: 501d a0bc 5de4 36bd 21e8 913c f034 ecbc
00000050: 9f76 2fbd e0a2 1d3b 4252 3f3d b929 943d
00000060: ebf1 213c 378f e8bc a116 97bc 48d3 dc3b
00000070: c82c f5bc 82c3 febc 1759 36bd 3faa feba
00000080: 97f5 4bbd e373 493c 0b57 17bd 39c2 60bd
00000090: f097 8c3b c3a6 4c3d a2ed 1b3d a556 27bd
000000a0: 8504 7a3d d172 393c 9d7a 303d 4587 62bd
000000b0: c468 e2bc 393d 963a 274d 243c 0867 3d3d
000000c0: 832d 3a3d 5f31 b23c f55b 14bd 1b5d f3bb
000000d0: 5dc5 673d 16e8 35bd b3d3 2ebd 023b 393d
000000e0: 0245 e3bc bc47 253d c835 ff3c 7249 1dbd
000000f0: 26a3 523d 5aa4 76bb 66c4 803d 5b90 2c3d
00000100: 683f 553d 4c16 c63c b08a b7b9 f861 47bd
00000110: c819 0dbd 26a4 68bd 30f8 ac3c 8336 1abd
00000120: 869d 793c 8c27 1dbc 4f13 133d f751 1b3d
00000130: 8d6f 1ebd 0b61 603d 9c87 85bc 88c0 a1bc
00000140: 1839 80bb 8d6d 523c 28f0 02bd fc99 24bd
00000150: b2e2 8f3d 00d1 adbb 3cec e53c ec26 99bb
00000160: 8b02 4c3d ccad 7fbc 8a81 3cbd 0474 10bc
00000170: 69c1 d83c 60b5 483d 88a0 643c 4b75 1d3b
00000180: 8ecd 10bd 6239 5c3c 08db b6bc 0690 26bd
00000190: 624b 3bbc 96fa 04bd bb33 4ebd 3106 65bd
000001a0: 803b 6cbc 5ba5 353d 90b6 4ebd 9c8d 0abd
000001b0: 681b 72bd cf59 893d e834 bbbb e2d3 12bd
000001c0: 218b 063d dfb4 d2bc 5daa 66bd b072 c43b
000001d0: abca 41bd 49c2 8e3c 0ee9 4f3b 8ed2 4e3c
000001e0: 5cd5 82bd d6e9 46bd c47b 0c3c ddfc 81bd
000001f0: e3d5 773d 9e4d 1cbd 7f64 d83c 4d01 0abd
0.045938674 0.028650671 0.013319514 0.022854019 0.04330177 -0.019201148 -0.016426569 0.015522349
0.005905843 0.011338011 -0.051403347 0.0047952696 0.06659584 0.0037109952 -0.048578948 -0.05781672
-0.019545227 -0.044651378 0.017810883 -0.028833836 -0.042837735 0.002405338 0.046709307 0.072345205
0.009884338 -0.028388603 -0.018443407 0.006739054 -0.02992858 -0.031099085 -0.044518556 -0.0019429399
-0.04979476 0.012295696 -0.036948245 -0.054872725 0.0042905733 0.049963724 0.03806842 -0.040854115
0.061039466 0.011318878 0.043085683 -0.055304784 -0.027637847 0.0011462338 0.01002816 0.046240836
0.04545356 0.021752058 -0.03622051 -0.0074268705 0.056584705 -0.044410788 -0.04268236 0.04522229
-0.027742866 0.040351614 0.031153575 -0.03840012 0.05142512 -0.0037634582 0.0628746 0.042129856
0.052062422 0.024180554 -0.0003500781 -0.048677415 -0.034448415 -0.05679717 0.021114439 -0.037649643
0.01523531 -0.009591948 0.035907086 0.037919965 -0.038680602 0.054780047 -0.016300015 -0.019745126
-0.003913056 0.012843502 -0.031967312 -0.040185913 0.070256606 -0.0053044558 0.028066747 -0.0046738293
0.049807113 -0.015605401 -0.046021976 -0.008816723 0.026459413 0.049001098 0.013954289 0.002402621
-0.035352282 0.0134414155 -0.02232124 -0.040664695 -0.011431547 -0.03246554 -0.050342303 -0.055914108
-0.014418483 0.04434715 -0.050467074 -0.033826455 -0.059108168 0.06706583 -0.005713094 -0.0358466
0.032847527 -0.025721012 -0.056314815 0.005995117 -0.04731242 0.017426627 0.0031724605 0.012623442
-0.06388351 -0.048562847 0.00857443 -0.06347058 0.060506713 -0.03815996 0.026415108 -0.033692647

weight f4 [64, 128]
00000000: 51a3 723c bb24 eb3c 1250 debb be4b 243d
00000010: d95d 843d 16bd 85bd a998 d3bc 5ed6 89bd
00000020: 8cc9 3bbd 9fd6 003d 527a 02bd 98ca 223d
00000030: c6a5 c93b 2c7f 663a 428f aa3c e488 933d
00000040: e415 713d 9466 bf3c 9b95 87bd ee97 353d
00000050: 2516 20bc aa66 93bd c9de f0bc e95d 863d
00000060: 99bb 1cbd 1346 1a3d 930c 9e3d c40a 21bd
00000070: df24 23bd 55db a9bd 023c 8abd b374 113c
00000080: b244 993d 03c5 663c 8132 b2bd 09a9 5dbd
00000090: 03c9 e7bc f3ee 4a3b fbce 323d b7f7 53bd
000000a0: 70eb 1c3d 24bf a2bd ba06 9a3d 1dd5 d23c
000000b0: 59f4 9cbb 34bc d6bc 3245 19bd fbb1 ac3d
000000c0: 2454 00bd e2dd 6bbd 7413 26bd 7f6f a3bd
000000d0: 5937 a2bd 8647 36bd 6032 35bc f58c a0bd
000000e0: e3ae 89bd 0db3 57bd cb2c 58bd 6797 933d
000000f0: ce34 023d d256 b43c a686 803c 4c22 cd3c
00000100: 6209 4c3d a56b f6bb 81d3 bdbc 0a50 663d
00000110: 7cd2 c3bc 21ca 16bd 04b0 b63c 7fd1 04bd
00000120: 6b24 67bc 9504 b03d c79e b0bd a7c7 4abd
00000130: f14e ae3d 1c36 783c 1f92 553d b0e3 20bd
00000140: cea5 443c 5af2 0c3d 4a0d 513d 3f2b 34bd
00000150: 86fc 40bd 4f38 ccbc 7500 38bd cfac 65bd
00000160: bbf5 9ebc 0025 db3c b8fa 793c 8547 9e3d
00000170: f2f6 85bd 40e3 933d 93f2 b4bc 7253 04bd
00000180: b2bd b0bc e11a da3b 6e8d 3dbd 0a5c b3bd
00000190: e7e5 b4bc 4740 53bd c48a 8c3c 0eaa a0bd
000001a0: 381a 88bc 6733 cebb 9ce6 53bd c9e8 8b3d
000001b0: 4aff 493d 62f0 e7ba db31 9dbd c78a 8d3d
000001c0: 0083 57bd b3ae 173c e64a 9f3d 04bd aabd
000001d0: 076d b0bd 2504 3bbb 917b ac3c e78d 2fbd
000001e0: bcbc b13d a873 48bd a9f6 1d3d b56c 92bc
000001f0: cb6b 303d 23c6 87bc 6124 283d 7690 94bd
00000200: abd7 03bd 5556 963d 3afb 3c3d 7ee3 b1bd
00000210: dde9 8c3d cfa4 f8bc 12ee a3ba 29d1 953d
00000220: e99e 893d 39c7 fabc 846e eab9 40bb 6a3c
00000230: 4a98 b83c f73c ccbc 5f5a 603d 3716 313d
00000240: 7d10 93ba bd63 9cbd cee3 1c3d 8068 f73b
00000250: 8e39 80bc 80b3 853a 9617 efbc b6ce 38bc
00000260: e85a e83c 4691 863d c1a7 d53b eb94 5ebd
00000270: a920 adbd cdd4 653c 4478 a53c e19c a03d
00000280: a065 0abc ea1c 48bd 178c 823d 2160 c03c
00000290: c18b 8c3d 9cf5 87bc a0c0 8abd 034f 3e3d
000002a0: 190f a4bd 1efa 8f3c 6c95 5fbd 9c38 b8bc
000002b0: 0ad5 1c3d dc23 5ebd b149 643c 40ed 7b3c
000002c0: d755 2fbd ad84 763c cc72 1f3b 03b5 513b
000002d0: 06e0 2a3c 5b05 46bd f0bf b7bb cd3a 89bc
000002e0: 5380 b43d 467b 00bc a19e 86bd 10e0 53bd
000002f0: 5c03 b0bc 18d4 4bbc 22fc 593d 7fa2 59bd
00000300: bd16 4ebd 720c 76bd 7400 88bb 8c33 843c
00000310: d0a9 ee3b 2602 47bd 2688 073d c13d a53d
00000320: 1011 693c 612a 643c 69c5 24bd 33b8 9f3d
00000330: 4051 2b3c 320f 8e3d 336d 883d bbab 41bd
00000340: 4a04 2a3d be81 303d b50a a53d eff5 563d
00000350: 4a8b 1b3d 8574 a6bd fa4f 51bd 9cf0 253d
00000360: ec06 30bd 4a22 76bd 3d8f 0ebd 4ccc 59bd
00000370: f2bd 5abd 6c01 5c3d 0e7a 473d aed1 363d
00000380: ee43 bebc 70db 2b3c 85ef 9dbd 5783 aa3d
00000390: 8558 b1bd 7f65 b4bd 62a9 7d3d b493 bb3c
000003a0: 7cd2 42bd d31c 633d 5945 43bd 109c 083d
000003b0: dad8 63bd 86ec 36bd 5cac 213d eab9 1a3d
000003c0: 8d54 a13d b33a a13d 6b2c afbd b3d0 7ebd
000003d0: 7349 58bd 9304 6cbd 21de 00bd 250c f8bc
000003e0: 206e cf3b 9ce9 61bd 8457 82bd b2c2 a1bd
000003f0: 34b1 c5bb 5080 823c 8101 563d 3e6f 80bd
0.0148094455 0.028704038 -0.0067844475 0.040111296 0.064632125 -0.06530206 -0.02582963 -0.067303404
-0.045846507 0.03145468 -0.031854935 0.03974399 0.006153795 0.0008792754 0.020820264 0.07203844
0.058858767 0.023364343 -0.06620332 0.044334345 -0.009770905 -0.07197316 -0.029403107 0.06560881
-0.038264845 0.037664484 0.07717242 -0.039316908 -0.039830085 -0.082937874 -0.06749727 0.008877921
0.07483806 0.014085057 -0.08701039 -0.054116283 -0.028294092 0.0030965179 0.043654423 -0.05174991
0.03831047 -0.079466134 0.07520814 0.025736386 -0.0047898707 -0.02621279 -0.037419505 0.084323846
-0.031330243 -0.05758465 -0.040545896 -0.079802506 -0.07920713 -0.044501804 -0.011059374 -0.078393854
-0.0672281 -0.05266099 -0.052777093 0.07206612 0.03178864 0.022014055 0.015689205 0.025040768
0.049813636 -0.0075201564 -0.023172142 0.056228675 -0.023904078 -0.03681386 0.022300728 -0.032426354
-0.014107804 0.08594624 -0.086240344 -0.04950681 0.08511151 0.015149619 0.052141305 -0.03927964
0.012002422 0.034410812 0.051038064 -0.043986555 -0.047115825 -0.024929194 -0.04492231 -0.056073006
-0.019404283 0.026751041 0.01525753 0.07728485 -0.06541242 0.07221079 -0.022088325 -0.032306142
-0.021574829 0.0066560362 -0.046277456 -0.087577894 -0.022082282 -0.05157497 0.017156012 -0.07844935
-0.016614065 -0.0062927487 -0.051733598 0.068315096 0.04931573 -0.0017695541 -0.07675525 0.06911235
-0.052615166 0.00925796 0.077779576 -0.08336833 -0.08614545 -0.0028536406 0.021055015 -0.042859938
0.08678576 -0.048938423 0.03856531 -0.017874101 0.04307155 -0.016573971 0.04105032 -0.07254116
-0.0321881 0.07340685 0.046138026 -0.08685969 0.068805434 -0.030352024 -0.0012506864 0.07315285
0.06719763 -0.030612575 -0.000447143 0.01432687 0.022533555 -0.024931414 0.054773685 0.043234076
-0.0011220124 -0.07636211 0.03830319 0.007550299 -0.015652444 0.001020059 -0.029186051 -0.0112797525
0.02836366 0.065706775 0.006520242 -0.054341238 -0.08453495 0.014027786 0.020198949 0.07842422
-0.008447081 -0.0488557 0.06374376 0.023483338 0.068625934 -0.016596608 -0.067750216 0.04646207
-0.08010692 0.01757532 -0.05458586 -0.022487931 0.038289107 -0.054233417 0.013933585 0.015376389
-0.042806473 0.015046281 0.00243299 0.003199876 0.010429388 -0.04834495 -0.0056075975 -0.016751671
0.088135384 -0.007841891 -0.06573225 -0.051727355 -0.021485977 -0.012440704 0.05321897 -0.053133484
-0.050314654 -0.060070463 -0.0041504446 0.01613786 0.007283427 -0.048586033 0.033088826 0.08068419
0.014225259 0.01392612 -0.040227327 0.07798805 0.010456383 0.06936492 0.06661453 -0.047282916
0.041507997 0.04309248 0.08058683 0.052480634 0.037974633 -0.08127693 -0.051101662 0.040512666
-0.04297535 -0.060091294 -0.03480457 -0.05317335 -0.053403802 0.053712294 0.048700385 0.04463356
-0.02322575 0.01048933 -0.077117 0.08325832 -0.08659462 -0.08808421 0.061929114 0.022897579
-0.047564015 0.05544741 -0.047673557 0.033351958 -0.055626728 -0.04465916 0.039471015 0.037774958
0.07877455 0.07872524 -0.08553394 -0.06221075 -0.05280442 -0.05762155 -0.03146184 -0.030279228
0.0063302666 -0.055154428 -0.063643485 -0.07898463 -0.006033087 0.015930325 0.052247528 -0.06271218

bias f4 [64]
00000000: 5c69 813d cbcd 94bd 9028 e9bc 9956 823d
00000010: b7a0 e3bc 204c a1bd 9a72 d8bc c6fb a0bd
00000020: 011b 6f3d f579 0c3d f625 02bd 058b 913b
00000030: 8042 3ebd a9f8 2bbd 4f37 7c3d 610b 3cbd
00000040: ce3c be3d eead 913d 3c6c 9fbd 3cb8 803d
00000050: 0e38 12bd 66d0 5dbd ef6e 4d3d 80ee b13d
00000060: 73c3 263d bf01 033e f694 58bd 8886 963c
00000070: 3e60 4cbd f3aa d23c 3504 5d3b ed18 42bd
00000080: 7358 b33c 1082 5fbc c416 42bd 0250 b53d
00000090: 5293 0e3d 11d6 213d 0884 023d 4cac f23d
000000a0: 70ad 2ebb 1c62 103e 71b6 483d c186 34bd
000000b0: 58bd cabb 659c ad3d bccf 8bbd a796 9abd
000000c0: 10f4 51bd acb1 8abd c687 bdbc 2c9b 843d
000000d0: 4567 e43c 382e a7bd 640e 28bc aa31 8b3d
000000e0: 9e53 efbc bbf2 6b3d 74df 923d 1642 51bd
000000f0: 3830 63bd 5b61 d33d a60f fdbc e87b 1e3d
0.06318924 -0.072658144 -0.028461725 0.063641734 -0.027786596 -0.07875848 -0.026421834 -0.07860522
0.058375362 0.034295995 -0.031774484 0.0044416212 -0.046450138 -0.041985188 0.061576184 -0.04590929
0.09288941 0.071132526 -0.07784316 0.0628514 -0.03569799 -0.054153822 0.050154623 0.086880684
0.04071374 0.12793635 -0.052876435 0.018374696 -0.04989647 0.02571628 0.0033724431 -0.047387052
0.021892762 -0.013641849 -0.047384992 0.08853151 0.034808464 0.03951079 0.031864196 0.11849269
-0.002665367 0.14099926 0.049002115 -0.044073824 -0.0061871223 0.084770955 -0.068267316 -0.07548266
-0.051258147 -0.067721695 -0.02313603 0.06474909 0.027881274 -0.081631124 -0.010257337 0.06796582
-0.029214676 0.057604533 0.071715266 -0.051088415 -0.055465907 0.103213035 -0.03089125 0.038692385

weight f4 [10, 64]
00000000: 9caa b6bc f751 fd3d eab5 fe3d ff5a 1d3e
00000010: 6957 a73d 4082 b2bc 8a9c 74be c3f5 363e
00000020: bb90 62be 3368 bebd aacd 393b ce13 e4bd
00000030: 2ed7 443d 8fa7 ae3d b8b2 e73d fdb1 0dbe
00000040: 6de7 133e f172 5c3e 1e7a 70bd f64a 3e3b
00000050: 5453 2c3d 223b a23d 0c34 32bc 85bc a2bc
00000060: 6aa4 1bbd edf7 98bd 2846 933c 1fdc 1ebc
00000070: 948c abbd 16bf 133e 03db 49bd 51f2 b63d
00000080: baed 72bc 48ae 963d f0b0 eebd 4ef4 453e
00000090: 20ee 6c3c be89 1b3e 7abd 123e b3ee 113e
000000a0: 4789 9cbd cef0 34be 307e 36bc 1ce3 18bd
000000b0: a119 0cbd 14f5 543e b64b d4bd e99b 993d
000000c0: d324 693d d894 cf3c 9840 85be a8b4 1b3e
000000d0: f059 3c3d e867 bc3d 7e6f 94bd 98b7 c2bd
000000e0: 8045 f2ba e845 7ebd f4eb ed3d d5d2 fdbb
000000f0: e791 b33c 52c8 943e 371e 98bd a382 093d
00000100: ea16 903d 5553 92bc d450 5dbd fd42 303e
00000110: 356a e2bd 2898 e7bc 126a ab3c 1b2d 50be
00000120: aa74 083e 5c5c 97bd cdf7 d2bd 4cde 19bd
00000130: fe1d 1b3b cfea acbd d824 a2bd 6894 97bd
00000140: 9ee7 0abd 1c0d c83d 4cdd af3d adba 99bd
00000150: 506c 2ebc 12f0 e23d a1a8 b83d fadf 813d
00000160: c340 483d 4fb8 893e a00b 14bc d177 e1bc
00000170: 54fa c7bd 6aae 5dbe 9a3b f3bd a775 c13c
00000180: 5766 9f3e 1471 69bd ec01 4d3d 788a 0ebe
00000190: 43cf 46be 2a79 8a3d b4d3 b2bd 6c03 96bc
000001a0: 713c d7bc a3c2 7a3e c272 8f39 4875 ff3c
000001b0: e276 8cbd 4bb6 47be 931e 2e3c 803e f43d
000001c0: c44a e03d cd39 3bbe 0e65 523d 727e 17bd
000001d0: 9970 8c3d 786a 873c 5dcf 46be dc51 1b3e
000001e0: 70a6 c43d 0d53 29bd fd04 ae3d 8c82 0d3e
000001f0: ee23 c0bb 31b7 04bd dce5 873e 2efc c73d
00000200: dacd 5dbc 8985 abbc f0c4 13bd 24ee f73d
00000210: 6c39 6f3d 3446 02bd f559 7a3b 4174 43be
00000220: c0c6 0f3e 7423 0dbd f764 273e aaef 113e
00000230: fde4 8e3c a3bd f33d 6162 e63d 6293 21be
00000240: 0c6a 823e 5fd9 7a3d 06a5 be3d 6054 be3d
00000250: b298 933d 30d3 3abd e512 61be d45f 2dbd
00000260: 87b0 70bd fb28 7e3e ae91 f73d d200 933d
00000270: d056 ecbd 1102 2b3e 2143 94bd ee39 873d
00000280: 1c33 223d 403b 643c 0665 94bd b20b 61be
00000290: 6675 0cbe f769 dbbc 1ba0 23be a534 223e
000002a0: 99ad babd 5176 00bd 5b95 b2bd a098 183c
000002b0: 4ea3 0b3e b2f0 5f3c 9485 333d e04e 0bbe
000002c0: bfec b83d d766 a2bd 568c c53d 1e6a 543e
000002d0: f3ef debd 2aaf b03d d5b1 493e 5c25 56bd
000002e0: beac 813d d5f1 12be 9db2 5fbe 1d7e 963c
000002f0: 6015 543d 22d7 ea3d d5b5 b8bb 0139 f7bd
00000300: fdc7 fdbd be45 12bd 0090 723b aa96 743d
00000310: dc1e e5bc 4846 143d 7dd6 d23d fa4a 353c
00000320: 9175 233e d827 b33c 1738 0cbb b00e 8c3d
00000330: dd87 e03d 9db3 2c3d 8f92 1b3d 097c 08bd
00000340: eff6 a5bd fdad de3d 7c16 92bd e1a0 e8bd
00000350: f0d6 80bc bc70 fe3d 509b 14bd 17fb b63d
00000360: 6507 a8bd a94f 203e 6841 f03d 00d5 093e
00000370: c869 be3d 18fd 5a3e 0347 bc3d b6a4 af3d
00000380: dfa2 e63d 2088 84bd f010 e9bc 5b98 13be
00000390: a28d bf3d 8bec 403e 2b7e 803e efe8 9e3d
000003a0: 6e34 6ebd cf18 8fbd 2bb6 913d 42b9 89bd
000003b0: 0e5e 71bd 16b0 1dbd 869b 483d 3346 9cbd
000003c0: de36 bfbd 3892 c3bd 6059 053e 9f5c 9dbd
000003d0: ca43 b1bd 8461 c73d cae4 b03d 6427 6f3e
000003e0: d07b e2bd 3bc5 aabc a38b 643e 2ae1 3c3e
000003f0: 3c1c d23d 9768 20be 9385 8abe 07a5 2fbe
-0.02229815 0.12369149 0.12437041 0.15366744 0.08170969 -0.021790624 -0.2388784 0.17867188
-0.22125523 -0.09297218 0.0028351345 -0.1113659 0.048056774 0.08528053 0.11313385 -0.13837428
0.1444375 0.21528222 -0.05871021 0.002903638 0.042071655 0.07921435 -0.010876667 -0.019865284
-0.037998594 -0.07469163 0.017977789 -0.009696036 -0.083764225 0.14428362 -0.04928113 0.08932937
-0.014827186 0.0735746 -0.11654842 0.19331476 0.01446107 0.15189263 0.14330092 0.14251213
-0.07643371 -0.17669985 -0.011138484 -0.037325963 -0.03420413 0.20796615 -0.10366003 0.075004406
0.056919884 0.025339529 -0.26025844 0.15205634 0.04598421 0.09199506 -0.07247828 -0.09507674
-0.0018483847 -0.062078387 0.1161727 -0.0077460804 0.021920158 0.29059082 -0.07427638 0.03357185
0.070356205 -0.017862001 -0.05403216 0.17213054 -0.11055414 -0.028270796 0.020924602 -0.20329706
0.13325754 -0.07390663 -0.103011705 -0.037565514 0.0023669 -0.08443224 -0.07917184 -0.07401353
-0.033912294 0.097681254 0.08587131 -0.07506309 -0.010645941 0.11080946 0.090165384 0.06341548
0.048889887 0.2689843 -0.009035975 -0.027522953 -0.09764543 -0.21648565 -0.118766025 0.023615671
0.31132767 -0.056992605 0.05005066 -0.13920009 -0.19415002 0.067613915 -0.087317854 -0.018312179
-0.026273938 0.2448831 0.00027360587 0.031183854 -0.068586126 -0.19503133 0.010627407 0.119259834
0.109517604 -0.18283768 0.051365905 -0.036985822 0.06857414 0.01653026 -0.1941504 0.15167946
0.09602058 -0.04133897 0.08497045 0.13819331 -0.005863658 -0.032401267 0.26542556 0.09764896
-0.013537848 -0.020937698 -0.036076486 0.121059686 0.05840437 -0.031805232 0.0038200591 -0.19087316
0.14040661 -0.03445764 0.16347109 0.14251581 0.017443174 0.11901405 0.11249233 -0.15778878
0.25471532 0.061242457 0.093088195 0.09293437 0.07206859 -0.04561156 -0.21979864 -0.042327717
-0.0587621 0.2482032 0.12088333 0.07177891 -0.11539996 0.16700007 -0.07239366 0.06602846
0.039599523 0.013930142 -0.07245831 -0.21977118 -0.13716659 -0.026783926 -0.15979044 0.15840395
-0.091151424 -0.031362835 -0.087198935 0.009313732 0.13636515 0.013668226 0.043828562 -0.13604307
0.09029531 -0.079297714 0.096459076 0.20743605 -0.108856104 0.0862716 0.19696744 -0.052281722
0.06331776 -0.14350064 -0.2184548 0.018370682 0.051778197 0.114668146 -0.0056369104 -0.120714195
-0.1239166 -0.035711043 0.00370121 0.059713997 -0.027968816 0.036199838 0.10294817 0.011065239
0.15962817 0.021869585 -0.0021395737 0.06838739 0.10963414 0.04216348 0.037981566 -0.033321414
-0.081037395 0.108730294 -0.07133195 -0.1135881 -0.01572749 0.12423846 -0.03628093 0.0893461
-0.082045354 0.15655388 0.11731225 0.1346016 0.0929752 0.2138561 0.09193232 0.08576338
0.11261534 -0.06471276 -0.02845046 -0.14413588 0.09353186 0.18840234 0.2509626 0.07759272
-0.05815547 -0.06987154 0.07114824 -0.06724788 -0.05892759 -0.038498007 0.048976444 -0.07630577
-0.09336637 -0.095493734 0.13022375 -0.07683682 -0.08655508 0.097353965 0.08637388 0.2335487
-0.110587716 -0.020846 0.22318892 0.18445268 0.102592915 -0.15664898 -0.27055034 -0.17152797

bias f4 [10]
00000000: 9d98 85bd 1687 953e 33d5 f63d 3737 2ebd
00000010: efc3 1f3e 14d2 303e 11a8 b43d 29ec c0bd
00000020: 0b43 4ebe 4218 4dbe
-0.06523249 0.29204625 0.12052383 -0.042533126 0.15602086 0.17267638 0.088211186 -0.09420044
-0.20142762 -0.20028785
